module {
  func.func @failed2(%arg0: tensor<?x14441xf32>, %arg1: tensor<3x130x32xf32>, %arg2: tensor<3x1x32xf32>, %arg3: tensor<?x1xf32>, %arg4: tensor<?x1xf32>, %arg5: tensor<?x1xf32>, %arg6: tensor<?x1xf32>, %arg7: tensor<?x1xf32>, %arg8: tensor<?x1xf32>, %arg9: tensor<?x1xf32>, %arg10: tensor<?x1xf32>, %arg11: tensor<?x1xf32>, %arg12: tensor<?x1xf32>, %arg13: tensor<?x1xf32>, %arg14: tensor<?x1xf32>, %arg15: tensor<?x1xf32>, %arg16: tensor<?x1xf32>, %arg17: tensor<?x1xf32>, %arg18: tensor<?x1xf32>, %arg19: tensor<?x1xf32>, %arg20: tensor<?x1xf32>, %arg21: tensor<?x1xf32>, %arg22: tensor<?x1xf32>, %arg23: tensor<?x1xf32>, %arg24: tensor<?x1xf32>, %arg25: tensor<?x1xf32>, %arg26: tensor<88x68xf32>, %arg27: tensor<68xf32>, %arg28: tensor<88x32xf32>, %arg29: tensor<32xf32>, %arg30: tensor<88x64xf32>, %arg31: tensor<64xf32>, %arg32: tensor<88x32xf32>, %arg33: tensor<32xf32>, %arg34: tensor<88x88xf32>, %arg35: tensor<88xf32>, %arg36: tensor<88x32xf32>, %arg37: tensor<32xf32>, %arg38: tensor<88x128xf32>, %arg39: tensor<128xf32>, %arg40: tensor<88x32xf32>, %arg41: tensor<32xf32>, %arg42: tensor<88x104xf32>, %arg43: tensor<104xf32>, %arg44: tensor<88x32xf32>, %arg45: tensor<32xf32>, %arg46: tensor<130x116xf32>, %arg47: tensor<116xf32>, %arg48: tensor<130x124xf32>, %arg49: tensor<124xf32>, %arg50: tensor<130x124xf32>, %arg51: tensor<124xf32>, %arg52: tensor<454x88xf32>, %arg53: tensor<88xf32>, %arg54: tensor<454x128xf32>, %arg55: tensor<128xf32>, %arg56: tensor<48x32xf32>, %arg57: tensor<56x32xf32>, %arg58: tensor<88x64xf32>, %arg59: tensor<56x32xf32>, %arg60: tensor<72x64xf32>, %arg61: tensor<48x32xf32>, %arg62: tensor<72x64xf32>, %arg63: tensor<40x32xf32>, %arg64: tensor<72x64xf32>, %arg65: tensor<48x32xf32>, %arg66: tensor<56x32xf32>, %arg67: tensor<56x32xf32>, %arg68: tensor<496x116xf32>, %arg69: tensor<116xf32>, %arg70: tensor<236x128xf32>, %arg71: tensor<128xf32>, %arg72: tensor<128x58xf32>, %arg73: tensor<58xf32>, %arg74: tensor<236x128xf32>, %arg75: tensor<128xf32>, %arg76: tensor<128x58xf32>, %arg77: tensor<58xf32>, %arg78: tensor<236x128xf32>, %arg79: tensor<128xf32>, %arg80: tensor<128x32xf32>, %arg81: tensor<32xf32>, %arg82: tensor<236x128xf32>, %arg83: tensor<128xf32>, %arg84: tensor<128x32xf32>, %arg85: tensor<32xf32>, %arg86: tensor<236x128xf32>, %arg87: tensor<128xf32>, %arg88: tensor<128x19xf32>, %arg89: tensor<19xf32>, %arg90: tensor<236x128xf32>, %arg91: tensor<128xf32>, %arg92: tensor<128x19xf32>, %arg93: tensor<19xf32>, %arg94: tensor<236x128xf32>, %arg95: tensor<128xf32>, %arg96: tensor<128x88xf32>, %arg97: tensor<88xf32>, %arg98: tensor<236x128xf32>, %arg99: tensor<128xf32>, %arg100: tensor<128x88xf32>, %arg101: tensor<88xf32>, %arg102: tensor<236x128xf32>, %arg103: tensor<128xf32>, %arg104: tensor<128x75xf32>, %arg105: tensor<75xf32>, %arg106: tensor<236x128xf32>, %arg107: tensor<128xf32>, %arg108: tensor<128x75xf32>, %arg109: tensor<75xf32>, %arg110: tensor<236x128xf32>, %arg111: tensor<128xf32>, %arg112: tensor<128x41xf32>, %arg113: tensor<41xf32>, %arg114: tensor<236x128xf32>, %arg115: tensor<128xf32>, %arg116: tensor<128x41xf32>, %arg117: tensor<41xf32>, %arg118: tensor<236x128xf32>, %arg119: tensor<128xf32>, %arg120: tensor<128x24xf32>, %arg121: tensor<24xf32>, %arg122: tensor<236x128xf32>, %arg123: tensor<128xf32>, %arg124: tensor<128x24xf32>, %arg125: tensor<24xf32>, %arg126: tensor<236x128xf32>, %arg127: tensor<128xf32>, %arg128: tensor<128x128xf32>, %arg129: tensor<128xf32>, %arg130: tensor<236x128xf32>, %arg131: tensor<128xf32>, %arg132: tensor<128x128xf32>, %arg133: tensor<128xf32>, %arg134: tensor<236x128xf32>, %arg135: tensor<128xf32>, %arg136: tensor<128x67xf32>, %arg137: tensor<67xf32>, %arg138: tensor<236x128xf32>, %arg139: tensor<128xf32>, %arg140: tensor<128x67xf32>, %arg141: tensor<67xf32>, %arg142: tensor<236x128xf32>, %arg143: tensor<128xf32>, %arg144: tensor<128x37xf32>, %arg145: tensor<37xf32>, %arg146: tensor<236x128xf32>, %arg147: tensor<128xf32>, %arg148: tensor<128x37xf32>, %arg149: tensor<37xf32>, %arg150: tensor<236x128xf32>, %arg151: tensor<128xf32>, %arg152: tensor<128x21xf32>, %arg153: tensor<21xf32>, %arg154: tensor<236x128xf32>, %arg155: tensor<128xf32>, %arg156: tensor<128x21xf32>, %arg157: tensor<21xf32>, %arg158: tensor<236x128xf32>, %arg159: tensor<128xf32>, %arg160: tensor<128x116xf32>, %arg161: tensor<116xf32>, %arg162: tensor<236x128xf32>, %arg163: tensor<128xf32>, %arg164: tensor<128x116xf32>, %arg165: tensor<116xf32>, %arg166: tensor<236x128xf32>, %arg167: tensor<128xf32>, %arg168: tensor<128x72xf32>, %arg169: tensor<72xf32>, %arg170: tensor<236x128xf32>, %arg171: tensor<128xf32>, %arg172: tensor<128x72xf32>, %arg173: tensor<72xf32>, %arg174: tensor<236x128xf32>, %arg175: tensor<128xf32>, %arg176: tensor<128x40xf32>, %arg177: tensor<40xf32>, %arg178: tensor<236x128xf32>, %arg179: tensor<128xf32>, %arg180: tensor<128x40xf32>, %arg181: tensor<40xf32>, %arg182: tensor<236x128xf32>, %arg183: tensor<128xf32>, %arg184: tensor<128x23xf32>, %arg185: tensor<23xf32>, %arg186: tensor<236x128xf32>, %arg187: tensor<128xf32>, %arg188: tensor<128x23xf32>, %arg189: tensor<23xf32>, %arg190: tensor<236x128xf32>, %arg191: tensor<128xf32>, %arg192: tensor<128x124xf32>, %arg193: tensor<124xf32>, %arg194: tensor<236x128xf32>, %arg195: tensor<128xf32>, %arg196: tensor<128x124xf32>, %arg197: tensor<124xf32>, %arg198: tensor<236x128xf32>, %arg199: tensor<128xf32>, %arg200: tensor<128x72xf32>, %arg201: tensor<72xf32>, %arg202: tensor<236x128xf32>, %arg203: tensor<128xf32>, %arg204: tensor<128x72xf32>, %arg205: tensor<72xf32>, %arg206: tensor<236x128xf32>, %arg207: tensor<128xf32>, %arg208: tensor<128x40xf32>, %arg209: tensor<40xf32>, %arg210: tensor<236x128xf32>, %arg211: tensor<128xf32>, %arg212: tensor<128x40xf32>, %arg213: tensor<40xf32>, %arg214: tensor<236x128xf32>, %arg215: tensor<128xf32>, %arg216: tensor<128x23xf32>, %arg217: tensor<23xf32>, %arg218: tensor<236x128xf32>, %arg219: tensor<128xf32>, %arg220: tensor<128x23xf32>, %arg221: tensor<23xf32>, %arg222: tensor<236x128xf32>, %arg223: tensor<128xf32>, %arg224: tensor<128x124xf32>, %arg225: tensor<124xf32>, %arg226: tensor<236x128xf32>, %arg227: tensor<128xf32>, %arg228: tensor<128x124xf32>, %arg229: tensor<124xf32>, %arg230: tensor<496x124xf32>, %arg231: tensor<124xf32>, %arg232: tensor<496x124xf32>, %arg233: tensor<124xf32>, %arg234: tensor<88x32xf32>, %arg235: tensor<104x32xf32>, %arg236: tensor<72x32xf32>, %arg237: tensor<72x32xf32>, %arg238: tensor<88x32xf32>, %arg239: tensor<88x64xf32>, %arg240: tensor<240x48xf32>, %arg241: tensor<240x24xf32>, %arg242: tensor<240x12xf32>, %arg243: tensor<240x48xf32>, %arg244: tensor<240x24xf32>, %arg245: tensor<240x12xf32>, %arg246: tensor<88x64xf32>, %arg247: tensor<170x64xf32>, %arg248: tensor<88x32xf32>, %arg249: tensor<130x32xf32>, %arg250: tensor<130x16xf32>, %arg251: tensor<130x8xf32>, %arg252: tensor<130x64xf32>, %arg253: tensor<130x32xf32>, %arg254: tensor<130x16xf32>, %arg255: tensor<130x8xf32>, %arg256: tensor<130x64xf32>, %arg257: tensor<130x32xf32>, %arg258: tensor<130x16xf32>, %arg259: tensor<130x8xf32>, %arg260: tensor<130x64xf32>, %arg261: tensor<160x160xf32>, %arg262: tensor<160xf32>, %arg263: tensor<160x160xf32>, %arg264: tensor<160xf32>, %arg265: tensor<194x192xf32>, %arg266: tensor<192xf32>, %arg267: tensor<194x192xf32>, %arg268: tensor<192xf32>, %arg269: tensor<170x160xf32>, %arg270: tensor<160xf32>, %arg271: tensor<170x160xf32>, %arg272: tensor<160xf32>) -> (tensor<?x4xf32>, tensor<?x4xf32>, tensor<?x4xf32>, tensor<?x4xf32>, tensor<?x4xf32>, tensor<?x4xf32>, tensor<?x4xf32>, tensor<?x4xf32>, tensor<?x4xf32>, tensor<?x4xf32>, tensor<?x4xf32>, tensor<?x4xf32>, tensor<?x4xf32>, tensor<?x4xf32>, tensor<?x4xf32>, tensor<?x4xf32>, tensor<?x8xf32>, tensor<?x8xf32>, tensor<?x8xf32>, tensor<?x8xf32>, tensor<?x8xf32>, tensor<?x8xf32>, tensor<?x8xf32>, tensor<?x8xf32>, tensor<?x8xf32>, tensor<?x8xf32>, tensor<?x8xf32>, tensor<?x8xf32>, tensor<?x8xf32>, tensor<?x8xf32>, tensor<?x8xf32>, tensor<?x8xf32>, tensor<?x8xf32>, tensor<?x8xf32>, tensor<?x8xf32>, tensor<?x8xf32>, tensor<?x8xf32>, tensor<?x8xf32>, tensor<?x8xf32>, tensor<?x8xf32>, tensor<?x8xf32>, tensor<?x8xf32>, tensor<?x8xf32>, tensor<?x8xf32>, tensor<?x8xf32>, tensor<?x8xf32>, tensor<?x8xf32>, tensor<?x8xf32>, tensor<?x8xf32>, tensor<?x8xf32>, tensor<?x8xf32>, tensor<?x8xf32>, tensor<?x8xf32>, tensor<?x8xf32>, tensor<?x4xf32>, tensor<?x4xf32>, tensor<?x8xf32>, tensor<?x8xf32>, tensor<?x8xf32>, tensor<?x8xf32>, tensor<?x8xf32>, tensor<?x8xf32>, tensor<?x8xf32>, tensor<?x8xf32>, tensor<?x8xf32>, tensor<?x8xf32>, tensor<?x8xf32>, tensor<?x8xf32>, tensor<?x8xf32>, tensor<?x8xf32>, tensor<?x8xf32>, tensor<?x8xf32>, tensor<?x8xf32>, tensor<?x8xf32>, tensor<?x8xf32>, tensor<?x8xf32>, tensor<?x4xf32>, tensor<?x4xf32>, tensor<?x4xf32>, tensor<?x4xf32>, tensor<?x16xf32>, tensor<?x8xf32>, tensor<?x8xf32>, tensor<?x8xf32>, tensor<?x4xf32>, tensor<?x8xf32>, tensor<?x4xf32>, tensor<?x4xf32>, tensor<?x4xf32>, tensor<?x8xf32>, tensor<?x8xf32>, tensor<?x8xf32>, tensor<?x8xf32>, tensor<?x8xf32>, tensor<?x8xf32>, tensor<?x8xf32>, tensor<?x8xf32>, tensor<?x4xf32>, tensor<?x4xf32>, tensor<?x8xf32>, tensor<?x8xf32>, tensor<?x8xf32>, tensor<?x8xf32>, tensor<?x8xf32>, tensor<?x8xf32>, tensor<?x4xf32>, tensor<?x4xf32>, tensor<?x4xf32>, tensor<?x4xf32>, tensor<?x8xf32>, tensor<?x8xf32>, tensor<?x8xf32>, tensor<?x8xf32>, tensor<?x8xf32>, tensor<?x8xf32>, tensor<?x8xf32>, tensor<?x8xf32>, tensor<?x8xf32>, tensor<?x8xf32>, tensor<?x8xf32>, tensor<?x8xf32>, tensor<?x8xf32>, tensor<?x8xf32>, tensor<?x8xf32>, tensor<?x8xf32>, tensor<?x48xf32>, tensor<?x48xf32>, tensor<?x4xf32>, tensor<?x4xf32>, tensor<?x4xf32>, tensor<?x4xf32>, tensor<?x4xf32>, tensor<?x4xf32>, tensor<?x4xf32>, tensor<?x4xf32>, tensor<?x4xf32>, tensor<?x4xf32>, tensor<?x4xf32>, tensor<?x4xf32>, tensor<?x4xf32>, tensor<?x4xf32>, tensor<?x4xf32>, tensor<?x4xf32>, tensor<?x4xf32>, tensor<?x4xf32>, tensor<?x4xf32>, tensor<?x8xf32>, tensor<?x4xf32>, tensor<?x4xf32>, tensor<?x8xf32>, tensor<?x4xf32>, tensor<?x8xf32>, tensor<?x8xf32>, tensor<?x4xf32>, tensor<?x8xf32>, tensor<?x4xf32>, tensor<?x8xf32>, tensor<?x8xf32>, tensor<?x4xf32>, tensor<?x4xf32>, tensor<?x4xf32>, tensor<?x4xf32>, tensor<?x4xf32>, tensor<?x4xf32>, tensor<?x4xf32>, tensor<?x8xf32>, tensor<?x4xf32>, tensor<?x8xf32>, tensor<?x4xf32>, tensor<?x8xf32>, tensor<?x4xf32>, tensor<?x8xf32>, tensor<?x4xf32>, tensor<?x8xf32>, tensor<?x4xf32>, tensor<?x8xf32>, tensor<?x4xf32>, tensor<?x8xf32>, tensor<?x4xf32>, tensor<?x8xf32>, tensor<?x4xf32>, tensor<?x8xf32>, tensor<?x4xf32>, tensor<?x8xf32>, tensor<?x4xf32>, tensor<?x8xf32>, tensor<?x8xf32>, tensor<?x8xf32>, tensor<?x8xf32>, tensor<?x64xf32>, tensor<?x64xf32>, tensor<?x8xf32>, tensor<?x8xf32>, tensor<?x8xf32>, tensor<?x8xf32>, tensor<?x8xf32>, tensor<?x8xf32>, tensor<?x8xf32>, tensor<?x16xf32>, tensor<?x16xf32>, tensor<?x16xf32>, tensor<?x16xf32>, tensor<?x16xf32>, tensor<?x16xf32>, tensor<?x16xf32>, tensor<?x16xf32>, tensor<?x8xf32>, tensor<?x8xf32>, tensor<?x8xf32>, tensor<?x32xf32>, tensor<?x16xf32>, tensor<?x48xf32>, tensor<?x32xf32>, tensor<?x16xf32>, tensor<?x48xf32>, tensor<?x32xf32>, tensor<?x16xf32>, tensor<?x4xf32>, tensor<?x4xf32>, tensor<?x4xf32>, tensor<?x4xf32>, tensor<?x48xf32>, tensor<?x16xf32>, tensor<?x16xf32>, tensor<?x8xf32>, tensor<?x16xf32>, tensor<?x16xf32>, tensor<?x16xf32>, tensor<?x16xf32>, tensor<?x32xf32>, tensor<?x32xf32>, tensor<?x32xf32>, tensor<?x32xf32>, tensor<?x96xf32>, tensor<?x128xf32>, tensor<?x16xf32>, tensor<?x4xf32>, tensor<?x8xf32>, tensor<?x4xf32>, tensor<?x16xf32>, tensor<?x16xf32>, tensor<?x8xf32>, tensor<?x16xf32>, tensor<?x32xf32>, tensor<?x180xf32>, tensor<?x128xf32>, tensor<?x32xf32>, tensor<?x16xf32>, tensor<?x128xf32>, tensor<?x32xf32>, tensor<?x96xf32>, tensor<?x128xf32>, tensor<?x8xf32>, tensor<?x8xf32>, tensor<?x32xf32>, tensor<?x32xf32>, tensor<?x128xf32>, tensor<?x32xf32>, tensor<?x128xf32>, tensor<?x64xf32>, tensor<?x64xf32>, tensor<?x64xf32>, tensor<?x64xf32>, tensor<?x64xf32>, tensor<?x96xf32>, tensor<?x128xf32>, tensor<?x128xf32>, tensor<?x128xf32>, tensor<?x1x250xf32>, tensor<?x76xf32>, tensor<?x48xf32>, tensor<?x167xf32>, tensor<?x1xf32>, tensor<?x11x16xf32>, tensor<?x13x16xf32>, tensor<?x11x16xf32>, tensor<?x8x16xf32>, tensor<?x13x16xf32>, tensor<?x8x16xf32>, tensor<?x16x16xf32>, tensor<?x16x16xf32>, tensor<?x1x68xf32>, tensor<?x16x16xf32>, tensor<?x16x16xf32>, tensor<?x1x64xf32>, tensor<?x6x16xf32>, tensor<?x6x16xf32>, tensor<?x1x88xf32>, tensor<?x31x16xf32>, tensor<?x31x16xf32>, tensor<?x1x128xf32>, tensor<?x33x16xf32>, tensor<?x33x16xf32>, tensor<?x1x104xf32>, tensor<?x16x16xf32>, tensor<?x16x16xf32>, tensor<?x1x116xf32>, tensor<?x1x124xf32>, tensor<?x26x16xf32>, tensor<?x26x16xf32>, tensor<?x26x16xf32>, tensor<?x26x16xf32>, tensor<?x1x124xf32>, tensor<?x1x88xf32>, tensor<?x1x128xf32>, tensor<?x32xf32>, tensor<?x32xf32>, tensor<?x64xf32>, tensor<?x32xf32>, tensor<?x64xf32>, tensor<?x32xf32>, tensor<?x64xf32>, tensor<?x32xf32>, tensor<?x64xf32>, tensor<?x32xf32>, tensor<?x32xf32>, tensor<?x32xf32>, tensor<?x1x116xf32>, tensor<?x1x58xf32>, tensor<?x1x58xf32>, tensor<?x1x32xf32>, tensor<?x1x32xf32>, tensor<?x1x19xf32>, tensor<?x1x19xf32>, tensor<?x1x88xf32>, tensor<?x1x88xf32>, tensor<?x1x75xf32>, tensor<?x1x75xf32>, tensor<?x1x41xf32>, tensor<?x1x41xf32>, tensor<?x1x24xf32>, tensor<?x1x24xf32>, tensor<?x1x128xf32>, tensor<?x1x128xf32>, tensor<?x1x67xf32>, tensor<?x1x67xf32>, tensor<?x1x37xf32>, tensor<?x1x37xf32>, tensor<?x1x21xf32>, tensor<?x1x21xf32>, tensor<?x1x116xf32>, tensor<?x1x116xf32>, tensor<?x1x72xf32>, tensor<?x1x72xf32>, tensor<?x1x40xf32>, tensor<?x1x40xf32>, tensor<?x1x23xf32>, tensor<?x1x23xf32>, tensor<?x1x124xf32>, tensor<?x1x124xf32>, tensor<?x1x72xf32>, tensor<?x1x72xf32>, tensor<?x1x40xf32>, tensor<?x1x40xf32>, tensor<?x1x23xf32>, tensor<?x1x23xf32>, tensor<?x1x124xf32>, tensor<?x1x124xf32>, tensor<?x1x124xf32>, tensor<?x1x124xf32>, tensor<?x32xf32>, tensor<?x32xf32>, tensor<?x32xf32>, tensor<?x32xf32>, tensor<?x32xf32>, tensor<?x64xf32>, tensor<?x48xf32>, tensor<?x24xf32>, tensor<?x12xf32>, tensor<?x48xf32>, tensor<?x24xf32>, tensor<?x12xf32>, tensor<?x64xf32>, tensor<?x64xf32>, tensor<?x32xf32>, tensor<?x32xf32>, tensor<?x16xf32>, tensor<?x8xf32>, tensor<?x64xf32>, tensor<?x32xf32>, tensor<?x16xf32>, tensor<?x8xf32>, tensor<?x64xf32>, tensor<?x32xf32>, tensor<?x16xf32>, tensor<?x8xf32>, tensor<?x64xf32>, tensor<?x160xf32>, tensor<?x160xf32>, tensor<?x192xf32>, tensor<?x192xf32>, tensor<?x160xf32>, tensor<?x160xf32>) attributes {ReduceSplitLike, _symbolic_batch_dim = {"operand#0" = [1], "operand#1" = [], "operand#10" = [1], "operand#100" = [], "operand#101" = [], "operand#102" = [], "operand#103" = [], "operand#104" = [], "operand#105" = [], "operand#106" = [], "operand#107" = [], "operand#108" = [], "operand#109" = [], "operand#11" = [1], "operand#110" = [], "operand#111" = [], "operand#112" = [], "operand#113" = [], "operand#114" = [], "operand#115" = [], "operand#116" = [], "operand#117" = [], "operand#118" = [], "operand#119" = [], "operand#12" = [1], "operand#120" = [], "operand#121" = [], "operand#122" = [], "operand#123" = [], "operand#124" = [], "operand#125" = [], "operand#126" = [], "operand#127" = [], "operand#128" = [], "operand#129" = [], "operand#13" = [1], "operand#130" = [], "operand#131" = [], "operand#132" = [], "operand#133" = [], "operand#134" = [], "operand#135" = [], "operand#136" = [], "operand#137" = [], "operand#138" = [], "operand#139" = [], "operand#14" = [1], "operand#140" = [], "operand#141" = [], "operand#142" = [], "operand#143" = [], "operand#144" = [], "operand#145" = [], "operand#146" = [], "operand#147" = [], "operand#148" = [], "operand#149" = [], "operand#15" = [1], "operand#150" = [], "operand#151" = [], "operand#152" = [], "operand#153" = [], "operand#154" = [], "operand#155" = [], "operand#156" = [], "operand#157" = [], "operand#158" = [], "operand#159" = [], "operand#16" = [1], "operand#160" = [], "operand#161" = [], "operand#162" = [], "operand#163" = [], "operand#164" = [], "operand#165" = [], "operand#166" = [], "operand#167" = [], "operand#168" = [], "operand#169" = [], "operand#17" = [1], "operand#170" = [], "operand#171" = [], "operand#172" = [], "operand#173" = [], "operand#174" = [], "operand#175" = [], "operand#176" = [], "operand#177" = [], "operand#178" = [], "operand#179" = [], "operand#18" = [1], "operand#180" = [], "operand#181" = [], "operand#182" = [], "operand#183" = [], "operand#184" = [], "operand#185" = [], "operand#186" = [], "operand#187" = [], "operand#188" = [], "operand#189" = [], "operand#19" = [1], "operand#190" = [], "operand#191" = [], "operand#192" = [], "operand#193" = [], "operand#194" = [], "operand#195" = [], "operand#196" = [], "operand#197" = [], "operand#198" = [], "operand#199" = [], "operand#2" = [], "operand#20" = [1], "operand#200" = [], "operand#201" = [], "operand#202" = [], "operand#203" = [], "operand#204" = [], "operand#205" = [], "operand#206" = [], "operand#207" = [], "operand#208" = [], "operand#209" = [], "operand#21" = [1], "operand#210" = [], "operand#211" = [], "operand#212" = [], "operand#213" = [], "operand#214" = [], "operand#215" = [], "operand#216" = [], "operand#217" = [], "operand#218" = [], "operand#219" = [], "operand#22" = [1], "operand#220" = [], "operand#221" = [], "operand#222" = [], "operand#223" = [], "operand#224" = [], "operand#225" = [], "operand#226" = [], "operand#227" = [], "operand#228" = [], "operand#229" = [], "operand#23" = [1], "operand#230" = [], "operand#231" = [], "operand#232" = [], "operand#233" = [], "operand#234" = [], "operand#235" = [], "operand#236" = [], "operand#237" = [], "operand#238" = [], "operand#239" = [], "operand#24" = [1], "operand#240" = [], "operand#241" = [], "operand#242" = [], "operand#243" = [], "operand#244" = [], "operand#245" = [], "operand#246" = [], "operand#247" = [], "operand#248" = [], "operand#249" = [], "operand#25" = [1], "operand#250" = [], "operand#251" = [], "operand#252" = [], "operand#253" = [], "operand#254" = [], "operand#255" = [], "operand#256" = [], "operand#257" = [], "operand#258" = [], "operand#259" = [], "operand#26" = [], "operand#260" = [], "operand#261" = [], "operand#262" = [], "operand#263" = [], "operand#264" = [], "operand#265" = [], "operand#266" = [], "operand#267" = [], "operand#268" = [], "operand#269" = [], "operand#27" = [], "operand#270" = [], "operand#271" = [], "operand#272" = [], "operand#28" = [], "operand#29" = [], "operand#3" = [1], "operand#30" = [], "operand#31" = [], "operand#32" = [], "operand#33" = [], "operand#34" = [], "operand#35" = [], "operand#36" = [], "operand#37" = [], "operand#38" = [], "operand#39" = [], "operand#4" = [1], "operand#40" = [], "operand#41" = [], "operand#42" = [], "operand#43" = [], "operand#44" = [], "operand#45" = [], "operand#46" = [], "operand#47" = [], "operand#48" = [], "operand#49" = [], "operand#5" = [1], "operand#50" = [], "operand#51" = [], "operand#52" = [], "operand#53" = [], "operand#54" = [], "operand#55" = [], "operand#56" = [], "operand#57" = [], "operand#58" = [], "operand#59" = [], "operand#6" = [1], "operand#60" = [], "operand#61" = [], "operand#62" = [], "operand#63" = [], "operand#64" = [], "operand#65" = [], "operand#66" = [], "operand#67" = [], "operand#68" = [], "operand#69" = [], "operand#7" = [1], "operand#70" = [], "operand#71" = [], "operand#72" = [], "operand#73" = [], "operand#74" = [], "operand#75" = [], "operand#76" = [], "operand#77" = [], "operand#78" = [], "operand#79" = [], "operand#8" = [1], "operand#80" = [], "operand#81" = [], "operand#82" = [], "operand#83" = [], "operand#84" = [], "operand#85" = [], "operand#86" = [], "operand#87" = [], "operand#88" = [], "operand#89" = [], "operand#9" = [1], "operand#90" = [], "operand#91" = [], "operand#92" = [], "operand#93" = [], "operand#94" = [], "operand#95" = [], "operand#96" = [], "operand#97" = [], "operand#98" = [], "operand#99" = []}} {
    %c0 = arith.constant 0 : index
    %cst = stablehlo.constant dense<2.000000e+00> : tensor<f32>
    %c1 = arith.constant 1 : index
    %c32 = arith.constant 32 : index
    %c16 = arith.constant 16 : index
    %c6 = arith.constant 6 : index
    %c31 = arith.constant 31 : index
    %c33 = arith.constant 33 : index
    %c26 = arith.constant 26 : index
    %c-2 = arith.constant -2 : index
    %c3_i32 = arith.constant 3 : i32
    %c1_i32 = arith.constant 1 : i32
    %c32_i32 = arith.constant 32 : i32
    %c2_i32 = arith.constant 2 : i32
    %cst_0 = stablehlo.constant dense<-0.000000e+00> : tensor<f32>
    %cst_1 = stablehlo.constant dense<0.000000e+00> : tensor<f32>
    %0 = shape.const_shape [3] : !shape.shape
    %1 = shape.const_shape [3, 1, 32] : tensor<3xindex>
    %cst_2 = arith.constant dense<1> : tensor<3xi32>
    %cst_3 = arith.constant dense<0> : tensor<3xi32>
    %cst_4 = arith.constant dense<[1, 0, 0]> : tensor<3xi32>
    %cst_5 = arith.constant dense<[2, 0, 0]> : tensor<3xi32>
    %c88 = arith.constant 88 : index
    %c72 = arith.constant 72 : index
    %cst_6 = arith.constant dense<0> : tensor<3xindex>
    %cst_7 = arith.constant dense<1> : tensor<3xindex>
    %cst_8 = arith.constant dense<[0, 0, 16]> : tensor<3xindex>
    %c128 = arith.constant 128 : index
    %c116 = arith.constant 116 : index
    %c124 = arith.constant 124 : index
    %c58 = arith.constant 58 : index
    %c19 = arith.constant 19 : index
    %c75 = arith.constant 75 : index
    %c41 = arith.constant 41 : index
    %c24 = arith.constant 24 : index
    %c67 = arith.constant 67 : index
    %c37 = arith.constant 37 : index
    %c21 = arith.constant 21 : index
    %c40 = arith.constant 40 : index
    %c23 = arith.constant 23 : index
    %dim = tensor.dim %arg0, %c0 : tensor<?x14441xf32>
    %extracted_slice = tensor.extract_slice %arg0[0, 1] [%dim, 4] [1, 1] : tensor<?x14441xf32> to tensor<?x4xf32>
    %extracted_slice_9 = tensor.extract_slice %arg0[0, 6] [%dim, 4] [1, 1] : tensor<?x14441xf32> to tensor<?x4xf32>
    %extracted_slice_10 = tensor.extract_slice %arg0[0, 11] [%dim, 4] [1, 1] : tensor<?x14441xf32> to tensor<?x4xf32>
    %extracted_slice_11 = tensor.extract_slice %arg0[0, 16] [%dim, 4] [1, 1] : tensor<?x14441xf32> to tensor<?x4xf32>
    %extracted_slice_12 = tensor.extract_slice %arg0[0, 21] [%dim, 4] [1, 1] : tensor<?x14441xf32> to tensor<?x4xf32>
    %extracted_slice_13 = tensor.extract_slice %arg0[0, 26] [%dim, 4] [1, 1] : tensor<?x14441xf32> to tensor<?x4xf32>
    %extracted_slice_14 = tensor.extract_slice %arg0[0, 31] [%dim, 4] [1, 1] : tensor<?x14441xf32> to tensor<?x4xf32>
    %extracted_slice_15 = tensor.extract_slice %arg0[0, 36] [%dim, 4] [1, 1] : tensor<?x14441xf32> to tensor<?x4xf32>
    %extracted_slice_16 = tensor.extract_slice %arg0[0, 41] [%dim, 4] [1, 1] : tensor<?x14441xf32> to tensor<?x4xf32>
    %extracted_slice_17 = tensor.extract_slice %arg0[0, 46] [%dim, 4] [1, 1] : tensor<?x14441xf32> to tensor<?x4xf32>
    %extracted_slice_18 = tensor.extract_slice %arg0[0, 51] [%dim, 4] [1, 1] : tensor<?x14441xf32> to tensor<?x4xf32>
    %extracted_slice_19 = tensor.extract_slice %arg0[0, 56] [%dim, 4] [1, 1] : tensor<?x14441xf32> to tensor<?x4xf32>
    %extracted_slice_20 = tensor.extract_slice %arg0[0, 61] [%dim, 4] [1, 1] : tensor<?x14441xf32> to tensor<?x4xf32>
    %extracted_slice_21 = tensor.extract_slice %arg0[0, 66] [%dim, 4] [1, 1] : tensor<?x14441xf32> to tensor<?x4xf32>
    %extracted_slice_22 = tensor.extract_slice %arg0[0, 71] [%dim, 4] [1, 1] : tensor<?x14441xf32> to tensor<?x4xf32>
    %extracted_slice_23 = tensor.extract_slice %arg0[0, 76] [%dim, 4] [1, 1] : tensor<?x14441xf32> to tensor<?x4xf32>
    %extracted_slice_24 = tensor.extract_slice %arg0[0, 80] [%dim, 1] [1, 1] : tensor<?x14441xf32> to tensor<?x1xf32>
    %extracted_slice_25 = tensor.extract_slice %arg0[0, 81] [%dim, 2] [1, 1] : tensor<?x14441xf32> to tensor<?x2xf32>
    %extracted_slice_26 = tensor.extract_slice %arg0[0, 83] [%dim, 2] [1, 1] : tensor<?x14441xf32> to tensor<?x2xf32>
    %extracted_slice_27 = tensor.extract_slice %arg0[0, 85] [%dim, 1] [1, 1] : tensor<?x14441xf32> to tensor<?x1xf32>
    %extracted_slice_28 = tensor.extract_slice %arg0[0, 86] [%dim, 2] [1, 1] : tensor<?x14441xf32> to tensor<?x2xf32>
    %extracted_slice_29 = tensor.extract_slice %arg0[0, 88] [%dim, 2] [1, 1] : tensor<?x14441xf32> to tensor<?x2xf32>
    %extracted_slice_30 = tensor.extract_slice %arg0[0, 90] [%dim, 1] [1, 1] : tensor<?x14441xf32> to tensor<?x1xf32>
    %extracted_slice_31 = tensor.extract_slice %arg0[0, 91] [%dim, 2] [1, 1] : tensor<?x14441xf32> to tensor<?x2xf32>
    %extracted_slice_32 = tensor.extract_slice %arg0[0, 93] [%dim, 2] [1, 1] : tensor<?x14441xf32> to tensor<?x2xf32>
    %extracted_slice_33 = tensor.extract_slice %arg0[0, 95] [%dim, 1] [1, 1] : tensor<?x14441xf32> to tensor<?x1xf32>
    %extracted_slice_34 = tensor.extract_slice %arg0[0, 96] [%dim, 2] [1, 1] : tensor<?x14441xf32> to tensor<?x2xf32>
    %extracted_slice_35 = tensor.extract_slice %arg0[0, 98] [%dim, 2] [1, 1] : tensor<?x14441xf32> to tensor<?x2xf32>
    %extracted_slice_36 = tensor.extract_slice %arg0[0, 100] [%dim, 1] [1, 1] : tensor<?x14441xf32> to tensor<?x1xf32>
    %extracted_slice_37 = tensor.extract_slice %arg0[0, 101] [%dim, 2] [1, 1] : tensor<?x14441xf32> to tensor<?x2xf32>
    %extracted_slice_38 = tensor.extract_slice %arg0[0, 103] [%dim, 2] [1, 1] : tensor<?x14441xf32> to tensor<?x2xf32>
    %extracted_slice_39 = tensor.extract_slice %arg0[0, 105] [%dim, 1] [1, 1] : tensor<?x14441xf32> to tensor<?x1xf32>
    %extracted_slice_40 = tensor.extract_slice %arg0[0, 106] [%dim, 2] [1, 1] : tensor<?x14441xf32> to tensor<?x2xf32>
    %extracted_slice_41 = tensor.extract_slice %arg0[0, 108] [%dim, 2] [1, 1] : tensor<?x14441xf32> to tensor<?x2xf32>
    %extracted_slice_42 = tensor.extract_slice %arg0[0, 110] [%dim, 1] [1, 1] : tensor<?x14441xf32> to tensor<?x1xf32>
    %extracted_slice_43 = tensor.extract_slice %arg0[0, 111] [%dim, 2] [1, 1] : tensor<?x14441xf32> to tensor<?x2xf32>
    %extracted_slice_44 = tensor.extract_slice %arg0[0, 113] [%dim, 2] [1, 1] : tensor<?x14441xf32> to tensor<?x2xf32>
    %extracted_slice_45 = tensor.extract_slice %arg0[0, 115] [%dim, 1] [1, 1] : tensor<?x14441xf32> to tensor<?x1xf32>
    %extracted_slice_46 = tensor.extract_slice %arg0[0, 116] [%dim, 2] [1, 1] : tensor<?x14441xf32> to tensor<?x2xf32>
    %extracted_slice_47 = tensor.extract_slice %arg0[0, 118] [%dim, 2] [1, 1] : tensor<?x14441xf32> to tensor<?x2xf32>
    %extracted_slice_48 = tensor.extract_slice %arg0[0, 120] [%dim, 1] [1, 1] : tensor<?x14441xf32> to tensor<?x1xf32>
    %extracted_slice_49 = tensor.extract_slice %arg0[0, 121] [%dim, 2] [1, 1] : tensor<?x14441xf32> to tensor<?x2xf32>
    %extracted_slice_50 = tensor.extract_slice %arg0[0, 123] [%dim, 2] [1, 1] : tensor<?x14441xf32> to tensor<?x2xf32>
    %extracted_slice_51 = tensor.extract_slice %arg0[0, 125] [%dim, 1] [1, 1] : tensor<?x14441xf32> to tensor<?x1xf32>
    %extracted_slice_52 = tensor.extract_slice %arg0[0, 126] [%dim, 2] [1, 1] : tensor<?x14441xf32> to tensor<?x2xf32>
    %extracted_slice_53 = tensor.extract_slice %arg0[0, 128] [%dim, 2] [1, 1] : tensor<?x14441xf32> to tensor<?x2xf32>
    %extracted_slice_54 = tensor.extract_slice %arg0[0, 130] [%dim, 1] [1, 1] : tensor<?x14441xf32> to tensor<?x1xf32>
    %extracted_slice_55 = tensor.extract_slice %arg0[0, 131] [%dim, 2] [1, 1] : tensor<?x14441xf32> to tensor<?x2xf32>
    %extracted_slice_56 = tensor.extract_slice %arg0[0, 133] [%dim, 2] [1, 1] : tensor<?x14441xf32> to tensor<?x2xf32>
    %extracted_slice_57 = tensor.extract_slice %arg0[0, 135] [%dim, 1] [1, 1] : tensor<?x14441xf32> to tensor<?x1xf32>
    %extracted_slice_58 = tensor.extract_slice %arg0[0, 136] [%dim, 2] [1, 1] : tensor<?x14441xf32> to tensor<?x2xf32>
    %extracted_slice_59 = tensor.extract_slice %arg0[0, 138] [%dim, 2] [1, 1] : tensor<?x14441xf32> to tensor<?x2xf32>
    %extracted_slice_60 = tensor.extract_slice %arg0[0, 140] [%dim, 1] [1, 1] : tensor<?x14441xf32> to tensor<?x1xf32>
    %extracted_slice_61 = tensor.extract_slice %arg0[0, 141] [%dim, 2] [1, 1] : tensor<?x14441xf32> to tensor<?x2xf32>
    %extracted_slice_62 = tensor.extract_slice %arg0[0, 143] [%dim, 2] [1, 1] : tensor<?x14441xf32> to tensor<?x2xf32>
    %extracted_slice_63 = tensor.extract_slice %arg0[0, 145] [%dim, 1] [1, 1] : tensor<?x14441xf32> to tensor<?x1xf32>
    %extracted_slice_64 = tensor.extract_slice %arg0[0, 146] [%dim, 2] [1, 1] : tensor<?x14441xf32> to tensor<?x2xf32>
    %extracted_slice_65 = tensor.extract_slice %arg0[0, 148] [%dim, 2] [1, 1] : tensor<?x14441xf32> to tensor<?x2xf32>
    %extracted_slice_66 = tensor.extract_slice %arg0[0, 150] [%dim, 1] [1, 1] : tensor<?x14441xf32> to tensor<?x1xf32>
    %extracted_slice_67 = tensor.extract_slice %arg0[0, 151] [%dim, 2] [1, 1] : tensor<?x14441xf32> to tensor<?x2xf32>
    %extracted_slice_68 = tensor.extract_slice %arg0[0, 153] [%dim, 2] [1, 1] : tensor<?x14441xf32> to tensor<?x2xf32>
    %extracted_slice_69 = tensor.extract_slice %arg0[0, 155] [%dim, 1] [1, 1] : tensor<?x14441xf32> to tensor<?x1xf32>
    %extracted_slice_70 = tensor.extract_slice %arg0[0, 156] [%dim, 2] [1, 1] : tensor<?x14441xf32> to tensor<?x2xf32>
    %extracted_slice_71 = tensor.extract_slice %arg0[0, 158] [%dim, 2] [1, 1] : tensor<?x14441xf32> to tensor<?x2xf32>
    %extracted_slice_72 = tensor.extract_slice %arg0[0, 161] [%dim, 2] [1, 1] : tensor<?x14441xf32> to tensor<?x2xf32>
    %extracted_slice_73 = tensor.extract_slice %arg0[0, 163] [%dim, 2] [1, 1] : tensor<?x14441xf32> to tensor<?x2xf32>
    %extracted_slice_74 = tensor.extract_slice %arg0[0, 166] [%dim, 2] [1, 1] : tensor<?x14441xf32> to tensor<?x2xf32>
    %extracted_slice_75 = tensor.extract_slice %arg0[0, 168] [%dim, 2] [1, 1] : tensor<?x14441xf32> to tensor<?x2xf32>
    %extracted_slice_76 = tensor.extract_slice %arg0[0, 170] [%dim, 1] [1, 1] : tensor<?x14441xf32> to tensor<?x1xf32>
    %extracted_slice_77 = tensor.extract_slice %arg0[0, 171] [%dim, 8] [1, 1] : tensor<?x14441xf32> to tensor<?x8xf32>
    %extracted_slice_78 = tensor.extract_slice %arg0[0, 180] [%dim, 8] [1, 1] : tensor<?x14441xf32> to tensor<?x8xf32>
    %extracted_slice_79 = tensor.extract_slice %arg0[0, 189] [%dim, 8] [1, 1] : tensor<?x14441xf32> to tensor<?x8xf32>
    %extracted_slice_80 = tensor.extract_slice %arg0[0, 198] [%dim, 8] [1, 1] : tensor<?x14441xf32> to tensor<?x8xf32>
    %extracted_slice_81 = tensor.extract_slice %arg0[0, 207] [%dim, 8] [1, 1] : tensor<?x14441xf32> to tensor<?x8xf32>
    %extracted_slice_82 = tensor.extract_slice %arg0[0, 216] [%dim, 8] [1, 1] : tensor<?x14441xf32> to tensor<?x8xf32>
    %extracted_slice_83 = tensor.extract_slice %arg0[0, 225] [%dim, 8] [1, 1] : tensor<?x14441xf32> to tensor<?x8xf32>
    %extracted_slice_84 = tensor.extract_slice %arg0[0, 234] [%dim, 8] [1, 1] : tensor<?x14441xf32> to tensor<?x8xf32>
    %extracted_slice_85 = tensor.extract_slice %arg0[0, 243] [%dim, 8] [1, 1] : tensor<?x14441xf32> to tensor<?x8xf32>
    %extracted_slice_86 = tensor.extract_slice %arg0[0, 252] [%dim, 8] [1, 1] : tensor<?x14441xf32> to tensor<?x8xf32>
    %extracted_slice_87 = tensor.extract_slice %arg0[0, 261] [%dim, 8] [1, 1] : tensor<?x14441xf32> to tensor<?x8xf32>
    %extracted_slice_88 = tensor.extract_slice %arg0[0, 270] [%dim, 8] [1, 1] : tensor<?x14441xf32> to tensor<?x8xf32>
    %extracted_slice_89 = tensor.extract_slice %arg0[0, 279] [%dim, 8] [1, 1] : tensor<?x14441xf32> to tensor<?x8xf32>
    %extracted_slice_90 = tensor.extract_slice %arg0[0, 288] [%dim, 8] [1, 1] : tensor<?x14441xf32> to tensor<?x8xf32>
    %extracted_slice_91 = tensor.extract_slice %arg0[0, 297] [%dim, 8] [1, 1] : tensor<?x14441xf32> to tensor<?x8xf32>
    %extracted_slice_92 = tensor.extract_slice %arg0[0, 306] [%dim, 8] [1, 1] : tensor<?x14441xf32> to tensor<?x8xf32>
    %extracted_slice_93 = tensor.extract_slice %arg0[0, 315] [%dim, 8] [1, 1] : tensor<?x14441xf32> to tensor<?x8xf32>
    %extracted_slice_94 = tensor.extract_slice %arg0[0, 324] [%dim, 8] [1, 1] : tensor<?x14441xf32> to tensor<?x8xf32>
    %extracted_slice_95 = tensor.extract_slice %arg0[0, 333] [%dim, 8] [1, 1] : tensor<?x14441xf32> to tensor<?x8xf32>
    %extracted_slice_96 = tensor.extract_slice %arg0[0, 342] [%dim, 8] [1, 1] : tensor<?x14441xf32> to tensor<?x8xf32>
    %extracted_slice_97 = tensor.extract_slice %arg0[0, 351] [%dim, 8] [1, 1] : tensor<?x14441xf32> to tensor<?x8xf32>
    %extracted_slice_98 = tensor.extract_slice %arg0[0, 360] [%dim, 8] [1, 1] : tensor<?x14441xf32> to tensor<?x8xf32>
    %extracted_slice_99 = tensor.extract_slice %arg0[0, 369] [%dim, 8] [1, 1] : tensor<?x14441xf32> to tensor<?x8xf32>
    %extracted_slice_100 = tensor.extract_slice %arg0[0, 378] [%dim, 8] [1, 1] : tensor<?x14441xf32> to tensor<?x8xf32>
    %extracted_slice_101 = tensor.extract_slice %arg0[0, 387] [%dim, 8] [1, 1] : tensor<?x14441xf32> to tensor<?x8xf32>
    %extracted_slice_102 = tensor.extract_slice %arg0[0, 396] [%dim, 8] [1, 1] : tensor<?x14441xf32> to tensor<?x8xf32>
    %extracted_slice_103 = tensor.extract_slice %arg0[0, 405] [%dim, 8] [1, 1] : tensor<?x14441xf32> to tensor<?x8xf32>
    %extracted_slice_104 = tensor.extract_slice %arg0[0, 414] [%dim, 8] [1, 1] : tensor<?x14441xf32> to tensor<?x8xf32>
    %extracted_slice_105 = tensor.extract_slice %arg0[0, 423] [%dim, 8] [1, 1] : tensor<?x14441xf32> to tensor<?x8xf32>
    %extracted_slice_106 = tensor.extract_slice %arg0[0, 432] [%dim, 8] [1, 1] : tensor<?x14441xf32> to tensor<?x8xf32>
    %extracted_slice_107 = tensor.extract_slice %arg0[0, 441] [%dim, 8] [1, 1] : tensor<?x14441xf32> to tensor<?x8xf32>
    %extracted_slice_108 = tensor.extract_slice %arg0[0, 450] [%dim, 8] [1, 1] : tensor<?x14441xf32> to tensor<?x8xf32>
    %extracted_slice_109 = tensor.extract_slice %arg0[0, 459] [%dim, 8] [1, 1] : tensor<?x14441xf32> to tensor<?x8xf32>
    %extracted_slice_110 = tensor.extract_slice %arg0[0, 468] [%dim, 8] [1, 1] : tensor<?x14441xf32> to tensor<?x8xf32>
    %extracted_slice_111 = tensor.extract_slice %arg0[0, 477] [%dim, 8] [1, 1] : tensor<?x14441xf32> to tensor<?x8xf32>
    %extracted_slice_112 = tensor.extract_slice %arg0[0, 486] [%dim, 8] [1, 1] : tensor<?x14441xf32> to tensor<?x8xf32>
    %extracted_slice_113 = tensor.extract_slice %arg0[0, 495] [%dim, 8] [1, 1] : tensor<?x14441xf32> to tensor<?x8xf32>
    %extracted_slice_114 = tensor.extract_slice %arg0[0, 504] [%dim, 8] [1, 1] : tensor<?x14441xf32> to tensor<?x8xf32>
    %extracted_slice_115 = tensor.extract_slice %arg0[0, 513] [%dim, 8] [1, 1] : tensor<?x14441xf32> to tensor<?x8xf32>
    %extracted_slice_116 = tensor.extract_slice %arg0[0, 522] [%dim, 8] [1, 1] : tensor<?x14441xf32> to tensor<?x8xf32>
    %extracted_slice_117 = tensor.extract_slice %arg0[0, 531] [%dim, 8] [1, 1] : tensor<?x14441xf32> to tensor<?x8xf32>
    %extracted_slice_118 = tensor.extract_slice %arg0[0, 540] [%dim, 8] [1, 1] : tensor<?x14441xf32> to tensor<?x8xf32>
    %extracted_slice_119 = tensor.extract_slice %arg0[0, 549] [%dim, 8] [1, 1] : tensor<?x14441xf32> to tensor<?x8xf32>
    %extracted_slice_120 = tensor.extract_slice %arg0[0, 558] [%dim, 8] [1, 1] : tensor<?x14441xf32> to tensor<?x8xf32>
    %extracted_slice_121 = tensor.extract_slice %arg0[0, 567] [%dim, 4] [1, 1] : tensor<?x14441xf32> to tensor<?x4xf32>
    %extracted_slice_122 = tensor.extract_slice %arg0[0, 571] [%dim, 4] [1, 1] : tensor<?x14441xf32> to tensor<?x4xf32>
    %extracted_slice_123 = tensor.extract_slice %arg0[0, 575] [%dim, 1] [1, 1] : tensor<?x14441xf32> to tensor<?x1xf32>
    %extracted_slice_124 = tensor.extract_slice %arg0[0, 576] [%dim, 4] [1, 1] : tensor<?x14441xf32> to tensor<?x4xf32>
    %extracted_slice_125 = tensor.extract_slice %arg0[0, 580] [%dim, 4] [1, 1] : tensor<?x14441xf32> to tensor<?x4xf32>
    %extracted_slice_126 = tensor.extract_slice %arg0[0, 584] [%dim, 1] [1, 1] : tensor<?x14441xf32> to tensor<?x1xf32>
    %extracted_slice_127 = tensor.extract_slice %arg0[0, 585] [%dim, 4] [1, 1] : tensor<?x14441xf32> to tensor<?x4xf32>
    %extracted_slice_128 = tensor.extract_slice %arg0[0, 589] [%dim, 4] [1, 1] : tensor<?x14441xf32> to tensor<?x4xf32>
    %extracted_slice_129 = tensor.extract_slice %arg0[0, 593] [%dim, 1] [1, 1] : tensor<?x14441xf32> to tensor<?x1xf32>
    %extracted_slice_130 = tensor.extract_slice %arg0[0, 594] [%dim, 4] [1, 1] : tensor<?x14441xf32> to tensor<?x4xf32>
    %extracted_slice_131 = tensor.extract_slice %arg0[0, 598] [%dim, 4] [1, 1] : tensor<?x14441xf32> to tensor<?x4xf32>
    %extracted_slice_132 = tensor.extract_slice %arg0[0, 602] [%dim, 1] [1, 1] : tensor<?x14441xf32> to tensor<?x1xf32>
    %extracted_slice_133 = tensor.extract_slice %arg0[0, 603] [%dim, 4] [1, 1] : tensor<?x14441xf32> to tensor<?x4xf32>
    %extracted_slice_134 = tensor.extract_slice %arg0[0, 607] [%dim, 4] [1, 1] : tensor<?x14441xf32> to tensor<?x4xf32>
    %extracted_slice_135 = tensor.extract_slice %arg0[0, 611] [%dim, 1] [1, 1] : tensor<?x14441xf32> to tensor<?x1xf32>
    %extracted_slice_136 = tensor.extract_slice %arg0[0, 612] [%dim, 4] [1, 1] : tensor<?x14441xf32> to tensor<?x4xf32>
    %extracted_slice_137 = tensor.extract_slice %arg0[0, 616] [%dim, 4] [1, 1] : tensor<?x14441xf32> to tensor<?x4xf32>
    %extracted_slice_138 = tensor.extract_slice %arg0[0, 620] [%dim, 1] [1, 1] : tensor<?x14441xf32> to tensor<?x1xf32>
    %extracted_slice_139 = tensor.extract_slice %arg0[0, 621] [%dim, 4] [1, 1] : tensor<?x14441xf32> to tensor<?x4xf32>
    %extracted_slice_140 = tensor.extract_slice %arg0[0, 625] [%dim, 4] [1, 1] : tensor<?x14441xf32> to tensor<?x4xf32>
    %extracted_slice_141 = tensor.extract_slice %arg0[0, 629] [%dim, 1] [1, 1] : tensor<?x14441xf32> to tensor<?x1xf32>
    %extracted_slice_142 = tensor.extract_slice %arg0[0, 630] [%dim, 4] [1, 1] : tensor<?x14441xf32> to tensor<?x4xf32>
    %extracted_slice_143 = tensor.extract_slice %arg0[0, 634] [%dim, 4] [1, 1] : tensor<?x14441xf32> to tensor<?x4xf32>
    %extracted_slice_144 = tensor.extract_slice %arg0[0, 638] [%dim, 1] [1, 1] : tensor<?x14441xf32> to tensor<?x1xf32>
    %extracted_slice_145 = tensor.extract_slice %arg0[0, 639] [%dim, 4] [1, 1] : tensor<?x14441xf32> to tensor<?x4xf32>
    %extracted_slice_146 = tensor.extract_slice %arg0[0, 643] [%dim, 4] [1, 1] : tensor<?x14441xf32> to tensor<?x4xf32>
    %extracted_slice_147 = tensor.extract_slice %arg0[0, 647] [%dim, 1] [1, 1] : tensor<?x14441xf32> to tensor<?x1xf32>
    %extracted_slice_148 = tensor.extract_slice %arg0[0, 648] [%dim, 4] [1, 1] : tensor<?x14441xf32> to tensor<?x4xf32>
    %extracted_slice_149 = tensor.extract_slice %arg0[0, 652] [%dim, 4] [1, 1] : tensor<?x14441xf32> to tensor<?x4xf32>
    %extracted_slice_150 = tensor.extract_slice %arg0[0, 656] [%dim, 1] [1, 1] : tensor<?x14441xf32> to tensor<?x1xf32>
    %extracted_slice_151 = tensor.extract_slice %arg0[0, 657] [%dim, 4] [1, 1] : tensor<?x14441xf32> to tensor<?x4xf32>
    %extracted_slice_152 = tensor.extract_slice %arg0[0, 661] [%dim, 4] [1, 1] : tensor<?x14441xf32> to tensor<?x4xf32>
    %extracted_slice_153 = tensor.extract_slice %arg0[0, 665] [%dim, 1] [1, 1] : tensor<?x14441xf32> to tensor<?x1xf32>
    %extracted_slice_154 = tensor.extract_slice %arg0[0, 666] [%dim, 4] [1, 1] : tensor<?x14441xf32> to tensor<?x4xf32>
    %extracted_slice_155 = tensor.extract_slice %arg0[0, 670] [%dim, 4] [1, 1] : tensor<?x14441xf32> to tensor<?x4xf32>
    %extracted_slice_156 = tensor.extract_slice %arg0[0, 674] [%dim, 1] [1, 1] : tensor<?x14441xf32> to tensor<?x1xf32>
    %extracted_slice_157 = tensor.extract_slice %arg0[0, 675] [%dim, 4] [1, 1] : tensor<?x14441xf32> to tensor<?x4xf32>
    %extracted_slice_158 = tensor.extract_slice %arg0[0, 679] [%dim, 4] [1, 1] : tensor<?x14441xf32> to tensor<?x4xf32>
    %extracted_slice_159 = tensor.extract_slice %arg0[0, 683] [%dim, 1] [1, 1] : tensor<?x14441xf32> to tensor<?x1xf32>
    %extracted_slice_160 = tensor.extract_slice %arg0[0, 684] [%dim, 4] [1, 1] : tensor<?x14441xf32> to tensor<?x4xf32>
    %extracted_slice_161 = tensor.extract_slice %arg0[0, 688] [%dim, 4] [1, 1] : tensor<?x14441xf32> to tensor<?x4xf32>
    %extracted_slice_162 = tensor.extract_slice %arg0[0, 692] [%dim, 1] [1, 1] : tensor<?x14441xf32> to tensor<?x1xf32>
    %extracted_slice_163 = tensor.extract_slice %arg0[0, 693] [%dim, 4] [1, 1] : tensor<?x14441xf32> to tensor<?x4xf32>
    %extracted_slice_164 = tensor.extract_slice %arg0[0, 697] [%dim, 4] [1, 1] : tensor<?x14441xf32> to tensor<?x4xf32>
    %extracted_slice_165 = tensor.extract_slice %arg0[0, 701] [%dim, 1] [1, 1] : tensor<?x14441xf32> to tensor<?x1xf32>
    %extracted_slice_166 = tensor.extract_slice %arg0[0, 702] [%dim, 8] [1, 1] : tensor<?x14441xf32> to tensor<?x8xf32>
    %extracted_slice_167 = tensor.extract_slice %arg0[0, 710] [%dim, 1] [1, 1] : tensor<?x14441xf32> to tensor<?x1xf32>
    %extracted_slice_168 = tensor.extract_slice %arg0[0, 711] [%dim, 8] [1, 1] : tensor<?x14441xf32> to tensor<?x8xf32>
    %extracted_slice_169 = tensor.extract_slice %arg0[0, 719] [%dim, 1] [1, 1] : tensor<?x14441xf32> to tensor<?x1xf32>
    %extracted_slice_170 = tensor.extract_slice %arg0[0, 720] [%dim, 8] [1, 1] : tensor<?x14441xf32> to tensor<?x8xf32>
    %extracted_slice_171 = tensor.extract_slice %arg0[0, 728] [%dim, 1] [1, 1] : tensor<?x14441xf32> to tensor<?x1xf32>
    %extracted_slice_172 = tensor.extract_slice %arg0[0, 729] [%dim, 8] [1, 1] : tensor<?x14441xf32> to tensor<?x8xf32>
    %extracted_slice_173 = tensor.extract_slice %arg0[0, 737] [%dim, 1] [1, 1] : tensor<?x14441xf32> to tensor<?x1xf32>
    %extracted_slice_174 = tensor.extract_slice %arg0[0, 738] [%dim, 8] [1, 1] : tensor<?x14441xf32> to tensor<?x8xf32>
    %extracted_slice_175 = tensor.extract_slice %arg0[0, 746] [%dim, 1] [1, 1] : tensor<?x14441xf32> to tensor<?x1xf32>
    %extracted_slice_176 = tensor.extract_slice %arg0[0, 747] [%dim, 4] [1, 1] : tensor<?x14441xf32> to tensor<?x4xf32>
    %extracted_slice_177 = tensor.extract_slice %arg0[0, 751] [%dim, 4] [1, 1] : tensor<?x14441xf32> to tensor<?x4xf32>
    %extracted_slice_178 = tensor.extract_slice %arg0[0, 755] [%dim, 1] [1, 1] : tensor<?x14441xf32> to tensor<?x1xf32>
    %extracted_slice_179 = tensor.extract_slice %arg0[0, 756] [%dim, 4] [1, 1] : tensor<?x14441xf32> to tensor<?x4xf32>
    %extracted_slice_180 = tensor.extract_slice %arg0[0, 760] [%dim, 4] [1, 1] : tensor<?x14441xf32> to tensor<?x4xf32>
    %extracted_slice_181 = tensor.extract_slice %arg0[0, 764] [%dim, 1] [1, 1] : tensor<?x14441xf32> to tensor<?x1xf32>
    %extracted_slice_182 = tensor.extract_slice %arg0[0, 765] [%dim, 4] [1, 1] : tensor<?x14441xf32> to tensor<?x4xf32>
    %extracted_slice_183 = tensor.extract_slice %arg0[0, 769] [%dim, 4] [1, 1] : tensor<?x14441xf32> to tensor<?x4xf32>
    %extracted_slice_184 = tensor.extract_slice %arg0[0, 773] [%dim, 1] [1, 1] : tensor<?x14441xf32> to tensor<?x1xf32>
    %extracted_slice_185 = tensor.extract_slice %arg0[0, 774] [%dim, 4] [1, 1] : tensor<?x14441xf32> to tensor<?x4xf32>
    %extracted_slice_186 = tensor.extract_slice %arg0[0, 778] [%dim, 4] [1, 1] : tensor<?x14441xf32> to tensor<?x4xf32>
    %extracted_slice_187 = tensor.extract_slice %arg0[0, 782] [%dim, 1] [1, 1] : tensor<?x14441xf32> to tensor<?x1xf32>
    %extracted_slice_188 = tensor.extract_slice %arg0[0, 783] [%dim, 4] [1, 1] : tensor<?x14441xf32> to tensor<?x4xf32>
    %extracted_slice_189 = tensor.extract_slice %arg0[0, 787] [%dim, 4] [1, 1] : tensor<?x14441xf32> to tensor<?x4xf32>
    %extracted_slice_190 = tensor.extract_slice %arg0[0, 791] [%dim, 1] [1, 1] : tensor<?x14441xf32> to tensor<?x1xf32>
    %extracted_slice_191 = tensor.extract_slice %arg0[0, 792] [%dim, 8] [1, 1] : tensor<?x14441xf32> to tensor<?x8xf32>
    %extracted_slice_192 = tensor.extract_slice %arg0[0, 800] [%dim, 1] [1, 1] : tensor<?x14441xf32> to tensor<?x1xf32>
    %extracted_slice_193 = tensor.extract_slice %arg0[0, 801] [%dim, 4] [1, 1] : tensor<?x14441xf32> to tensor<?x4xf32>
    %extracted_slice_194 = tensor.extract_slice %arg0[0, 805] [%dim, 4] [1, 1] : tensor<?x14441xf32> to tensor<?x4xf32>
    %extracted_slice_195 = tensor.extract_slice %arg0[0, 809] [%dim, 1] [1, 1] : tensor<?x14441xf32> to tensor<?x1xf32>
    %extracted_slice_196 = tensor.extract_slice %arg0[0, 810] [%dim, 4] [1, 1] : tensor<?x14441xf32> to tensor<?x4xf32>
    %extracted_slice_197 = tensor.extract_slice %arg0[0, 814] [%dim, 4] [1, 1] : tensor<?x14441xf32> to tensor<?x4xf32>
    %extracted_slice_198 = tensor.extract_slice %arg0[0, 818] [%dim, 1] [1, 1] : tensor<?x14441xf32> to tensor<?x1xf32>
    %extracted_slice_199 = tensor.extract_slice %arg0[0, 819] [%dim, 4] [1, 1] : tensor<?x14441xf32> to tensor<?x4xf32>
    %extracted_slice_200 = tensor.extract_slice %arg0[0, 823] [%dim, 4] [1, 1] : tensor<?x14441xf32> to tensor<?x4xf32>
    %extracted_slice_201 = tensor.extract_slice %arg0[0, 827] [%dim, 1] [1, 1] : tensor<?x14441xf32> to tensor<?x1xf32>
    %extracted_slice_202 = tensor.extract_slice %arg0[0, 828] [%dim, 8] [1, 1] : tensor<?x14441xf32> to tensor<?x8xf32>
    %extracted_slice_203 = tensor.extract_slice %arg0[0, 837] [%dim, 8] [1, 1] : tensor<?x14441xf32> to tensor<?x8xf32>
    %extracted_slice_204 = tensor.extract_slice %arg0[0, 845] [%dim, 1] [1, 1] : tensor<?x14441xf32> to tensor<?x1xf32>
    %extracted_slice_205 = tensor.extract_slice %arg0[0, 846] [%dim, 2] [1, 1] : tensor<?x14441xf32> to tensor<?x2xf32>
    %extracted_slice_206 = tensor.extract_slice %arg0[0, 848] [%dim, 2] [1, 1] : tensor<?x14441xf32> to tensor<?x2xf32>
    %extracted_slice_207 = tensor.extract_slice %arg0[0, 850] [%dim, 8] [1, 1] : tensor<?x14441xf32> to tensor<?x8xf32>
    %extracted_slice_208 = tensor.extract_slice %arg0[0, 859] [%dim, 2] [1, 1] : tensor<?x14441xf32> to tensor<?x2xf32>
    %extracted_slice_209 = tensor.extract_slice %arg0[0, 861] [%dim, 2] [1, 1] : tensor<?x14441xf32> to tensor<?x2xf32>
    %extracted_slice_210 = tensor.extract_slice %arg0[0, 863] [%dim, 8] [1, 1] : tensor<?x14441xf32> to tensor<?x8xf32>
    %extracted_slice_211 = tensor.extract_slice %arg0[0, 871] [%dim, 1] [1, 1] : tensor<?x14441xf32> to tensor<?x1xf32>
    %extracted_slice_212 = tensor.extract_slice %arg0[0, 872] [%dim, 2] [1, 1] : tensor<?x14441xf32> to tensor<?x2xf32>
    %extracted_slice_213 = tensor.extract_slice %arg0[0, 874] [%dim, 2] [1, 1] : tensor<?x14441xf32> to tensor<?x2xf32>
    %extracted_slice_214 = tensor.extract_slice %arg0[0, 876] [%dim, 8] [1, 1] : tensor<?x14441xf32> to tensor<?x8xf32>
    %extracted_slice_215 = tensor.extract_slice %arg0[0, 884] [%dim, 1] [1, 1] : tensor<?x14441xf32> to tensor<?x1xf32>
    %extracted_slice_216 = tensor.extract_slice %arg0[0, 885] [%dim, 2] [1, 1] : tensor<?x14441xf32> to tensor<?x2xf32>
    %extracted_slice_217 = tensor.extract_slice %arg0[0, 887] [%dim, 2] [1, 1] : tensor<?x14441xf32> to tensor<?x2xf32>
    %extracted_slice_218 = tensor.extract_slice %arg0[0, 889] [%dim, 8] [1, 1] : tensor<?x14441xf32> to tensor<?x8xf32>
    %extracted_slice_219 = tensor.extract_slice %arg0[0, 897] [%dim, 1] [1, 1] : tensor<?x14441xf32> to tensor<?x1xf32>
    %extracted_slice_220 = tensor.extract_slice %arg0[0, 898] [%dim, 2] [1, 1] : tensor<?x14441xf32> to tensor<?x2xf32>
    %extracted_slice_221 = tensor.extract_slice %arg0[0, 900] [%dim, 2] [1, 1] : tensor<?x14441xf32> to tensor<?x2xf32>
    %extracted_slice_222 = tensor.extract_slice %arg0[0, 902] [%dim, 8] [1, 1] : tensor<?x14441xf32> to tensor<?x8xf32>
    %extracted_slice_223 = tensor.extract_slice %arg0[0, 911] [%dim, 2] [1, 1] : tensor<?x14441xf32> to tensor<?x2xf32>
    %extracted_slice_224 = tensor.extract_slice %arg0[0, 913] [%dim, 2] [1, 1] : tensor<?x14441xf32> to tensor<?x2xf32>
    %extracted_slice_225 = tensor.extract_slice %arg0[0, 915] [%dim, 8] [1, 1] : tensor<?x14441xf32> to tensor<?x8xf32>
    %extracted_slice_226 = tensor.extract_slice %arg0[0, 923] [%dim, 1] [1, 1] : tensor<?x14441xf32> to tensor<?x1xf32>
    %extracted_slice_227 = tensor.extract_slice %arg0[0, 924] [%dim, 2] [1, 1] : tensor<?x14441xf32> to tensor<?x2xf32>
    %extracted_slice_228 = tensor.extract_slice %arg0[0, 926] [%dim, 2] [1, 1] : tensor<?x14441xf32> to tensor<?x2xf32>
    %extracted_slice_229 = tensor.extract_slice %arg0[0, 928] [%dim, 8] [1, 1] : tensor<?x14441xf32> to tensor<?x8xf32>
    %extracted_slice_230 = tensor.extract_slice %arg0[0, 937] [%dim, 2] [1, 1] : tensor<?x14441xf32> to tensor<?x2xf32>
    %extracted_slice_231 = tensor.extract_slice %arg0[0, 939] [%dim, 2] [1, 1] : tensor<?x14441xf32> to tensor<?x2xf32>
    %extracted_slice_232 = tensor.extract_slice %arg0[0, 941] [%dim, 8] [1, 1] : tensor<?x14441xf32> to tensor<?x8xf32>
    %extracted_slice_233 = tensor.extract_slice %arg0[0, 950] [%dim, 2] [1, 1] : tensor<?x14441xf32> to tensor<?x2xf32>
    %extracted_slice_234 = tensor.extract_slice %arg0[0, 952] [%dim, 2] [1, 1] : tensor<?x14441xf32> to tensor<?x2xf32>
    %extracted_slice_235 = tensor.extract_slice %arg0[0, 954] [%dim, 8] [1, 1] : tensor<?x14441xf32> to tensor<?x8xf32>
    %extracted_slice_236 = tensor.extract_slice %arg0[0, 963] [%dim, 2] [1, 1] : tensor<?x14441xf32> to tensor<?x2xf32>
    %extracted_slice_237 = tensor.extract_slice %arg0[0, 965] [%dim, 2] [1, 1] : tensor<?x14441xf32> to tensor<?x2xf32>
    %extracted_slice_238 = tensor.extract_slice %arg0[0, 967] [%dim, 8] [1, 1] : tensor<?x14441xf32> to tensor<?x8xf32>
    %extracted_slice_239 = tensor.extract_slice %arg0[0, 975] [%dim, 1] [1, 1] : tensor<?x14441xf32> to tensor<?x1xf32>
    %extracted_slice_240 = tensor.extract_slice %arg0[0, 976] [%dim, 2] [1, 1] : tensor<?x14441xf32> to tensor<?x2xf32>
    %extracted_slice_241 = tensor.extract_slice %arg0[0, 978] [%dim, 2] [1, 1] : tensor<?x14441xf32> to tensor<?x2xf32>
    %extracted_slice_242 = tensor.extract_slice %arg0[0, 980] [%dim, 8] [1, 1] : tensor<?x14441xf32> to tensor<?x8xf32>
    %extracted_slice_243 = tensor.extract_slice %arg0[0, 989] [%dim, 2] [1, 1] : tensor<?x14441xf32> to tensor<?x2xf32>
    %extracted_slice_244 = tensor.extract_slice %arg0[0, 991] [%dim, 2] [1, 1] : tensor<?x14441xf32> to tensor<?x2xf32>
    %extracted_slice_245 = tensor.extract_slice %arg0[0, 993] [%dim, 8] [1, 1] : tensor<?x14441xf32> to tensor<?x8xf32>
    %extracted_slice_246 = tensor.extract_slice %arg0[0, 1002] [%dim, 2] [1, 1] : tensor<?x14441xf32> to tensor<?x2xf32>
    %extracted_slice_247 = tensor.extract_slice %arg0[0, 1004] [%dim, 2] [1, 1] : tensor<?x14441xf32> to tensor<?x2xf32>
    %extracted_slice_248 = tensor.extract_slice %arg0[0, 1006] [%dim, 8] [1, 1] : tensor<?x14441xf32> to tensor<?x8xf32>
    %extracted_slice_249 = tensor.extract_slice %arg0[0, 1015] [%dim, 2] [1, 1] : tensor<?x14441xf32> to tensor<?x2xf32>
    %extracted_slice_250 = tensor.extract_slice %arg0[0, 1017] [%dim, 2] [1, 1] : tensor<?x14441xf32> to tensor<?x2xf32>
    %extracted_slice_251 = tensor.extract_slice %arg0[0, 1019] [%dim, 8] [1, 1] : tensor<?x14441xf32> to tensor<?x8xf32>
    %extracted_slice_252 = tensor.extract_slice %arg0[0, 1028] [%dim, 4] [1, 1] : tensor<?x14441xf32> to tensor<?x4xf32>
    %extracted_slice_253 = tensor.extract_slice %arg0[0, 1032] [%dim, 8] [1, 1] : tensor<?x14441xf32> to tensor<?x8xf32>
    %extracted_slice_254 = tensor.extract_slice %arg0[0, 1041] [%dim, 4] [1, 1] : tensor<?x14441xf32> to tensor<?x4xf32>
    %extracted_slice_255 = tensor.extract_slice %arg0[0, 1045] [%dim, 8] [1, 1] : tensor<?x14441xf32> to tensor<?x8xf32>
    %extracted_slice_256 = tensor.extract_slice %arg0[0, 1054] [%dim, 4] [1, 1] : tensor<?x14441xf32> to tensor<?x4xf32>
    %extracted_slice_257 = tensor.extract_slice %arg0[0, 1058] [%dim, 8] [1, 1] : tensor<?x14441xf32> to tensor<?x8xf32>
    %extracted_slice_258 = tensor.extract_slice %arg0[0, 1067] [%dim, 4] [1, 1] : tensor<?x14441xf32> to tensor<?x4xf32>
    %extracted_slice_259 = tensor.extract_slice %arg0[0, 1071] [%dim, 8] [1, 1] : tensor<?x14441xf32> to tensor<?x8xf32>
    %extracted_slice_260 = tensor.extract_slice %arg0[0, 1080] [%dim, 4] [1, 1] : tensor<?x14441xf32> to tensor<?x4xf32>
    %extracted_slice_261 = tensor.extract_slice %arg0[0, 1084] [%dim, 8] [1, 1] : tensor<?x14441xf32> to tensor<?x8xf32>
    %extracted_slice_262 = tensor.extract_slice %arg0[0, 1093] [%dim, 4] [1, 1] : tensor<?x14441xf32> to tensor<?x4xf32>
    %extracted_slice_263 = tensor.extract_slice %arg0[0, 1097] [%dim, 8] [1, 1] : tensor<?x14441xf32> to tensor<?x8xf32>
    %extracted_slice_264 = tensor.extract_slice %arg0[0, 1106] [%dim, 4] [1, 1] : tensor<?x14441xf32> to tensor<?x4xf32>
    %extracted_slice_265 = tensor.extract_slice %arg0[0, 1110] [%dim, 8] [1, 1] : tensor<?x14441xf32> to tensor<?x8xf32>
    %extracted_slice_266 = tensor.extract_slice %arg0[0, 1119] [%dim, 4] [1, 1] : tensor<?x14441xf32> to tensor<?x4xf32>
    %extracted_slice_267 = tensor.extract_slice %arg0[0, 1123] [%dim, 8] [1, 1] : tensor<?x14441xf32> to tensor<?x8xf32>
    %extracted_slice_268 = tensor.extract_slice %arg0[0, 1132] [%dim, 4] [1, 1] : tensor<?x14441xf32> to tensor<?x4xf32>
    %extracted_slice_269 = tensor.extract_slice %arg0[0, 1136] [%dim, 8] [1, 1] : tensor<?x14441xf32> to tensor<?x8xf32>
    %extracted_slice_270 = tensor.extract_slice %arg0[0, 1145] [%dim, 4] [1, 1] : tensor<?x14441xf32> to tensor<?x4xf32>
    %extracted_slice_271 = tensor.extract_slice %arg0[0, 1149] [%dim, 8] [1, 1] : tensor<?x14441xf32> to tensor<?x8xf32>
    %extracted_slice_272 = tensor.extract_slice %arg0[0, 1158] [%dim, 4] [1, 1] : tensor<?x14441xf32> to tensor<?x4xf32>
    %extracted_slice_273 = tensor.extract_slice %arg0[0, 1162] [%dim, 8] [1, 1] : tensor<?x14441xf32> to tensor<?x8xf32>
    %extracted_slice_274 = tensor.extract_slice %arg0[0, 1171] [%dim, 4] [1, 1] : tensor<?x14441xf32> to tensor<?x4xf32>
    %extracted_slice_275 = tensor.extract_slice %arg0[0, 1175] [%dim, 8] [1, 1] : tensor<?x14441xf32> to tensor<?x8xf32>
    %extracted_slice_276 = tensor.extract_slice %arg0[0, 1184] [%dim, 4] [1, 1] : tensor<?x14441xf32> to tensor<?x4xf32>
    %extracted_slice_277 = tensor.extract_slice %arg0[0, 1188] [%dim, 8] [1, 1] : tensor<?x14441xf32> to tensor<?x8xf32>
    %extracted_slice_278 = tensor.extract_slice %arg0[0, 1197] [%dim, 4] [1, 1] : tensor<?x14441xf32> to tensor<?x4xf32>
    %extracted_slice_279 = tensor.extract_slice %arg0[0, 1201] [%dim, 8] [1, 1] : tensor<?x14441xf32> to tensor<?x8xf32>
    %extracted_slice_280 = tensor.extract_slice %arg0[0, 1210] [%dim, 4] [1, 1] : tensor<?x14441xf32> to tensor<?x4xf32>
    %extracted_slice_281 = tensor.extract_slice %arg0[0, 1214] [%dim, 8] [1, 1] : tensor<?x14441xf32> to tensor<?x8xf32>
    %extracted_slice_282 = tensor.extract_slice %arg0[0, 1223] [%dim, 4] [1, 1] : tensor<?x14441xf32> to tensor<?x4xf32>
    %extracted_slice_283 = tensor.extract_slice %arg0[0, 1227] [%dim, 8] [1, 1] : tensor<?x14441xf32> to tensor<?x8xf32>
    %extracted_slice_284 = tensor.extract_slice %arg0[0, 1236] [%dim, 4] [1, 1] : tensor<?x14441xf32> to tensor<?x4xf32>
    %extracted_slice_285 = tensor.extract_slice %arg0[0, 1240] [%dim, 8] [1, 1] : tensor<?x14441xf32> to tensor<?x8xf32>
    %extracted_slice_286 = tensor.extract_slice %arg0[0, 1249] [%dim, 4] [1, 1] : tensor<?x14441xf32> to tensor<?x4xf32>
    %extracted_slice_287 = tensor.extract_slice %arg0[0, 1253] [%dim, 8] [1, 1] : tensor<?x14441xf32> to tensor<?x8xf32>
    %extracted_slice_288 = tensor.extract_slice %arg0[0, 1262] [%dim, 4] [1, 1] : tensor<?x14441xf32> to tensor<?x4xf32>
    %extracted_slice_289 = tensor.extract_slice %arg0[0, 1266] [%dim, 8] [1, 1] : tensor<?x14441xf32> to tensor<?x8xf32>
    %extracted_slice_290 = tensor.extract_slice %arg0[0, 1274] [%dim, 1] [1, 1] : tensor<?x14441xf32> to tensor<?x1xf32>
    %extracted_slice_291 = tensor.extract_slice %arg0[0, 1275] [%dim, 2] [1, 1] : tensor<?x14441xf32> to tensor<?x2xf32>
    %extracted_slice_292 = tensor.extract_slice %arg0[0, 1277] [%dim, 2] [1, 1] : tensor<?x14441xf32> to tensor<?x2xf32>
    %extracted_slice_293 = tensor.extract_slice %arg0[0, 1279] [%dim, 8] [1, 1] : tensor<?x14441xf32> to tensor<?x8xf32>
    %extracted_slice_294 = tensor.extract_slice %arg0[0, 1287] [%dim, 1] [1, 1] : tensor<?x14441xf32> to tensor<?x1xf32>
    %extracted_slice_295 = tensor.extract_slice %arg0[0, 1288] [%dim, 2] [1, 1] : tensor<?x14441xf32> to tensor<?x2xf32>
    %extracted_slice_296 = tensor.extract_slice %arg0[0, 1290] [%dim, 2] [1, 1] : tensor<?x14441xf32> to tensor<?x2xf32>
    %extracted_slice_297 = tensor.extract_slice %arg0[0, 1292] [%dim, 8] [1, 1] : tensor<?x14441xf32> to tensor<?x8xf32>
    %extracted_slice_298 = tensor.extract_slice %arg0[0, 1300] [%dim, 1] [1, 1] : tensor<?x14441xf32> to tensor<?x1xf32>
    %extracted_slice_299 = tensor.extract_slice %arg0[0, 1301] [%dim, 2] [1, 1] : tensor<?x14441xf32> to tensor<?x2xf32>
    %extracted_slice_300 = tensor.extract_slice %arg0[0, 1303] [%dim, 2] [1, 1] : tensor<?x14441xf32> to tensor<?x2xf32>
    %extracted_slice_301 = tensor.extract_slice %arg0[0, 1305] [%dim, 8] [1, 1] : tensor<?x14441xf32> to tensor<?x8xf32>
    %extracted_slice_302 = tensor.extract_slice %arg0[0, 1313] [%dim, 1] [1, 1] : tensor<?x14441xf32> to tensor<?x1xf32>
    %extracted_slice_303 = tensor.extract_slice %arg0[0, 1314] [%dim, 2] [1, 1] : tensor<?x14441xf32> to tensor<?x2xf32>
    %extracted_slice_304 = tensor.extract_slice %arg0[0, 1316] [%dim, 2] [1, 1] : tensor<?x14441xf32> to tensor<?x2xf32>
    %extracted_slice_305 = tensor.extract_slice %arg0[0, 1318] [%dim, 8] [1, 1] : tensor<?x14441xf32> to tensor<?x8xf32>
    %extracted_slice_306 = tensor.extract_slice %arg0[0, 1327] [%dim, 4] [1, 1] : tensor<?x14441xf32> to tensor<?x4xf32>
    %extracted_slice_307 = tensor.extract_slice %arg0[0, 1331] [%dim, 8] [1, 1] : tensor<?x14441xf32> to tensor<?x8xf32>
    %extracted_slice_308 = tensor.extract_slice %arg0[0, 1340] [%dim, 4] [1, 1] : tensor<?x14441xf32> to tensor<?x4xf32>
    %extracted_slice_309 = tensor.extract_slice %arg0[0, 1344] [%dim, 8] [1, 1] : tensor<?x14441xf32> to tensor<?x8xf32>
    %extracted_slice_310 = tensor.extract_slice %arg0[0, 1353] [%dim, 4] [1, 1] : tensor<?x14441xf32> to tensor<?x4xf32>
    %extracted_slice_311 = tensor.extract_slice %arg0[0, 1357] [%dim, 8] [1, 1] : tensor<?x14441xf32> to tensor<?x8xf32>
    %extracted_slice_312 = tensor.extract_slice %arg0[0, 1366] [%dim, 4] [1, 1] : tensor<?x14441xf32> to tensor<?x4xf32>
    %extracted_slice_313 = tensor.extract_slice %arg0[0, 1370] [%dim, 8] [1, 1] : tensor<?x14441xf32> to tensor<?x8xf32>
    %extracted_slice_314 = tensor.extract_slice %arg0[0, 1378] [%dim, 1] [1, 1] : tensor<?x14441xf32> to tensor<?x1xf32>
    %extracted_slice_315 = tensor.extract_slice %arg0[0, 1379] [%dim, 16] [1, 1] : tensor<?x14441xf32> to tensor<?x16xf32>
    %extracted_slice_316 = tensor.extract_slice %arg0[0, 1396] [%dim, 8] [1, 1] : tensor<?x14441xf32> to tensor<?x8xf32>
    %extracted_slice_317 = tensor.extract_slice %arg0[0, 1404] [%dim, 8] [1, 1] : tensor<?x14441xf32> to tensor<?x8xf32>
    %extracted_slice_318 = tensor.extract_slice %arg0[0, 1412] [%dim, 1] [1, 1] : tensor<?x14441xf32> to tensor<?x1xf32>
    %extracted_slice_319 = tensor.extract_slice %arg0[0, 1413] [%dim, 4] [1, 1] : tensor<?x14441xf32> to tensor<?x4xf32>
    %extracted_slice_320 = tensor.extract_slice %arg0[0, 1417] [%dim, 4] [1, 1] : tensor<?x14441xf32> to tensor<?x4xf32>
    %extracted_slice_321 = tensor.extract_slice %arg0[0, 1421] [%dim, 8] [1, 1] : tensor<?x14441xf32> to tensor<?x8xf32>
    %extracted_slice_322 = tensor.extract_slice %arg0[0, 1429] [%dim, 1] [1, 1] : tensor<?x14441xf32> to tensor<?x1xf32>
    %extracted_slice_323 = tensor.extract_slice %arg0[0, 1430] [%dim, 4] [1, 1] : tensor<?x14441xf32> to tensor<?x4xf32>
    %extracted_slice_324 = tensor.extract_slice %arg0[0, 1434] [%dim, 8] [1, 1] : tensor<?x14441xf32> to tensor<?x8xf32>
    %extracted_slice_325 = tensor.extract_slice %arg0[0, 1442] [%dim, 4] [1, 1] : tensor<?x14441xf32> to tensor<?x4xf32>
    %extracted_slice_326 = tensor.extract_slice %arg0[0, 1446] [%dim, 1] [1, 1] : tensor<?x14441xf32> to tensor<?x1xf32>
    %extracted_slice_327 = tensor.extract_slice %arg0[0, 1447] [%dim, 8] [1, 1] : tensor<?x14441xf32> to tensor<?x8xf32>
    %extracted_slice_328 = tensor.extract_slice %arg0[0, 1455] [%dim, 8] [1, 1] : tensor<?x14441xf32> to tensor<?x8xf32>
    %extracted_slice_329 = tensor.extract_slice %arg0[0, 1463] [%dim, 1] [1, 1] : tensor<?x14441xf32> to tensor<?x1xf32>
    %extracted_slice_330 = tensor.extract_slice %arg0[0, 1464] [%dim, 8] [1, 1] : tensor<?x14441xf32> to tensor<?x8xf32>
    %extracted_slice_331 = tensor.extract_slice %arg0[0, 1472] [%dim, 8] [1, 1] : tensor<?x14441xf32> to tensor<?x8xf32>
    %extracted_slice_332 = tensor.extract_slice %arg0[0, 1480] [%dim, 1] [1, 1] : tensor<?x14441xf32> to tensor<?x1xf32>
    %extracted_slice_333 = tensor.extract_slice %arg0[0, 1481] [%dim, 8] [1, 1] : tensor<?x14441xf32> to tensor<?x8xf32>
    %extracted_slice_334 = tensor.extract_slice %arg0[0, 1489] [%dim, 8] [1, 1] : tensor<?x14441xf32> to tensor<?x8xf32>
    %extracted_slice_335 = tensor.extract_slice %arg0[0, 1497] [%dim, 1] [1, 1] : tensor<?x14441xf32> to tensor<?x1xf32>
    %extracted_slice_336 = tensor.extract_slice %arg0[0, 1498] [%dim, 8] [1, 1] : tensor<?x14441xf32> to tensor<?x8xf32>
    %extracted_slice_337 = tensor.extract_slice %arg0[0, 1506] [%dim, 8] [1, 1] : tensor<?x14441xf32> to tensor<?x8xf32>
    %extracted_slice_338 = tensor.extract_slice %arg0[0, 1514] [%dim, 1] [1, 1] : tensor<?x14441xf32> to tensor<?x1xf32>
    %extracted_slice_339 = tensor.extract_slice %arg0[0, 1515] [%dim, 8] [1, 1] : tensor<?x14441xf32> to tensor<?x8xf32>
    %extracted_slice_340 = tensor.extract_slice %arg0[0, 1523] [%dim, 8] [1, 1] : tensor<?x14441xf32> to tensor<?x8xf32>
    %extracted_slice_341 = tensor.extract_slice %arg0[0, 1531] [%dim, 1] [1, 1] : tensor<?x14441xf32> to tensor<?x1xf32>
    %extracted_slice_342 = tensor.extract_slice %arg0[0, 1532] [%dim, 8] [1, 1] : tensor<?x14441xf32> to tensor<?x8xf32>
    %extracted_slice_343 = tensor.extract_slice %arg0[0, 1540] [%dim, 8] [1, 1] : tensor<?x14441xf32> to tensor<?x8xf32>
    %extracted_slice_344 = tensor.extract_slice %arg0[0, 1548] [%dim, 1] [1, 1] : tensor<?x14441xf32> to tensor<?x1xf32>
    %extracted_slice_345 = tensor.extract_slice %arg0[0, 1549] [%dim, 4] [1, 1] : tensor<?x14441xf32> to tensor<?x4xf32>
    %extracted_slice_346 = tensor.extract_slice %arg0[0, 1553] [%dim, 4] [1, 1] : tensor<?x14441xf32> to tensor<?x4xf32>
    %extracted_slice_347 = tensor.extract_slice %arg0[0, 1557] [%dim, 8] [1, 1] : tensor<?x14441xf32> to tensor<?x8xf32>
    %extracted_slice_348 = tensor.extract_slice %arg0[0, 1565] [%dim, 1] [1, 1] : tensor<?x14441xf32> to tensor<?x1xf32>
    %extracted_slice_349 = tensor.extract_slice %arg0[0, 1566] [%dim, 8] [1, 1] : tensor<?x14441xf32> to tensor<?x8xf32>
    %extracted_slice_350 = tensor.extract_slice %arg0[0, 1574] [%dim, 8] [1, 1] : tensor<?x14441xf32> to tensor<?x8xf32>
    %extracted_slice_351 = tensor.extract_slice %arg0[0, 1582] [%dim, 1] [1, 1] : tensor<?x14441xf32> to tensor<?x1xf32>
    %extracted_slice_352 = tensor.extract_slice %arg0[0, 1583] [%dim, 4] [1, 1] : tensor<?x14441xf32> to tensor<?x4xf32>
    %extracted_slice_353 = tensor.extract_slice %arg0[0, 1587] [%dim, 4] [1, 1] : tensor<?x14441xf32> to tensor<?x4xf32>
    %extracted_slice_354 = tensor.extract_slice %arg0[0, 1591] [%dim, 8] [1, 1] : tensor<?x14441xf32> to tensor<?x8xf32>
    %extracted_slice_355 = tensor.extract_slice %arg0[0, 1600] [%dim, 4] [1, 1] : tensor<?x14441xf32> to tensor<?x4xf32>
    %extracted_slice_356 = tensor.extract_slice %arg0[0, 1604] [%dim, 4] [1, 1] : tensor<?x14441xf32> to tensor<?x4xf32>
    %extracted_slice_357 = tensor.extract_slice %arg0[0, 1608] [%dim, 8] [1, 1] : tensor<?x14441xf32> to tensor<?x8xf32>
    %extracted_slice_358 = tensor.extract_slice %arg0[0, 1616] [%dim, 1] [1, 1] : tensor<?x14441xf32> to tensor<?x1xf32>
    %extracted_slice_359 = tensor.extract_slice %arg0[0, 1617] [%dim, 4] [1, 1] : tensor<?x14441xf32> to tensor<?x4xf32>
    %extracted_slice_360 = tensor.extract_slice %arg0[0, 1621] [%dim, 8] [1, 1] : tensor<?x14441xf32> to tensor<?x8xf32>
    %extracted_slice_361 = tensor.extract_slice %arg0[0, 1629] [%dim, 4] [1, 1] : tensor<?x14441xf32> to tensor<?x4xf32>
    %extracted_slice_362 = tensor.extract_slice %arg0[0, 1633] [%dim, 1] [1, 1] : tensor<?x14441xf32> to tensor<?x1xf32>
    %extracted_slice_363 = tensor.extract_slice %arg0[0, 1634] [%dim, 8] [1, 1] : tensor<?x14441xf32> to tensor<?x8xf32>
    %extracted_slice_364 = tensor.extract_slice %arg0[0, 1642] [%dim, 8] [1, 1] : tensor<?x14441xf32> to tensor<?x8xf32>
    %extracted_slice_365 = tensor.extract_slice %arg0[0, 1650] [%dim, 1] [1, 1] : tensor<?x14441xf32> to tensor<?x1xf32>
    %extracted_slice_366 = tensor.extract_slice %arg0[0, 1651] [%dim, 8] [1, 1] : tensor<?x14441xf32> to tensor<?x8xf32>
    %extracted_slice_367 = tensor.extract_slice %arg0[0, 1659] [%dim, 8] [1, 1] : tensor<?x14441xf32> to tensor<?x8xf32>
    %extracted_slice_368 = tensor.extract_slice %arg0[0, 1667] [%dim, 1] [1, 1] : tensor<?x14441xf32> to tensor<?x1xf32>
    %extracted_slice_369 = tensor.extract_slice %arg0[0, 1668] [%dim, 8] [1, 1] : tensor<?x14441xf32> to tensor<?x8xf32>
    %extracted_slice_370 = tensor.extract_slice %arg0[0, 1676] [%dim, 8] [1, 1] : tensor<?x14441xf32> to tensor<?x8xf32>
    %extracted_slice_371 = tensor.extract_slice %arg0[0, 1684] [%dim, 1] [1, 1] : tensor<?x14441xf32> to tensor<?x1xf32>
    %extracted_slice_372 = tensor.extract_slice %arg0[0, 1685] [%dim, 4] [1, 1] : tensor<?x14441xf32> to tensor<?x4xf32>
    %extracted_slice_373 = tensor.extract_slice %arg0[0, 1689] [%dim, 4] [1, 1] : tensor<?x14441xf32> to tensor<?x4xf32>
    %extracted_slice_374 = tensor.extract_slice %arg0[0, 1693] [%dim, 8] [1, 1] : tensor<?x14441xf32> to tensor<?x8xf32>
    %extracted_slice_375 = tensor.extract_slice %arg0[0, 1701] [%dim, 1] [1, 1] : tensor<?x14441xf32> to tensor<?x1xf32>
    %extracted_slice_376 = tensor.extract_slice %arg0[0, 1702] [%dim, 4] [1, 1] : tensor<?x14441xf32> to tensor<?x4xf32>
    %extracted_slice_377 = tensor.extract_slice %arg0[0, 1706] [%dim, 4] [1, 1] : tensor<?x14441xf32> to tensor<?x4xf32>
    %extracted_slice_378 = tensor.extract_slice %arg0[0, 1710] [%dim, 8] [1, 1] : tensor<?x14441xf32> to tensor<?x8xf32>
    %extracted_slice_379 = tensor.extract_slice %arg0[0, 1719] [%dim, 4] [1, 1] : tensor<?x14441xf32> to tensor<?x4xf32>
    %extracted_slice_380 = tensor.extract_slice %arg0[0, 1723] [%dim, 4] [1, 1] : tensor<?x14441xf32> to tensor<?x4xf32>
    %extracted_slice_381 = tensor.extract_slice %arg0[0, 1727] [%dim, 8] [1, 1] : tensor<?x14441xf32> to tensor<?x8xf32>
    %extracted_slice_382 = tensor.extract_slice %arg0[0, 1736] [%dim, 4] [1, 1] : tensor<?x14441xf32> to tensor<?x4xf32>
    %extracted_slice_383 = tensor.extract_slice %arg0[0, 1740] [%dim, 4] [1, 1] : tensor<?x14441xf32> to tensor<?x4xf32>
    %extracted_slice_384 = tensor.extract_slice %arg0[0, 1744] [%dim, 8] [1, 1] : tensor<?x14441xf32> to tensor<?x8xf32>
    %extracted_slice_385 = tensor.extract_slice %arg0[0, 1752] [%dim, 1] [1, 1] : tensor<?x14441xf32> to tensor<?x1xf32>
    %extracted_slice_386 = tensor.extract_slice %arg0[0, 1753] [%dim, 4] [1, 1] : tensor<?x14441xf32> to tensor<?x4xf32>
    %extracted_slice_387 = tensor.extract_slice %arg0[0, 1757] [%dim, 4] [1, 1] : tensor<?x14441xf32> to tensor<?x4xf32>
    %extracted_slice_388 = tensor.extract_slice %arg0[0, 1761] [%dim, 8] [1, 1] : tensor<?x14441xf32> to tensor<?x8xf32>
    %extracted_slice_389 = tensor.extract_slice %arg0[0, 1769] [%dim, 1] [1, 1] : tensor<?x14441xf32> to tensor<?x1xf32>
    %extracted_slice_390 = tensor.extract_slice %arg0[0, 1770] [%dim, 4] [1, 1] : tensor<?x14441xf32> to tensor<?x4xf32>
    %extracted_slice_391 = tensor.extract_slice %arg0[0, 1774] [%dim, 4] [1, 1] : tensor<?x14441xf32> to tensor<?x4xf32>
    %extracted_slice_392 = tensor.extract_slice %arg0[0, 1778] [%dim, 8] [1, 1] : tensor<?x14441xf32> to tensor<?x8xf32>
    %extracted_slice_393 = tensor.extract_slice %arg0[0, 1787] [%dim, 4] [1, 1] : tensor<?x14441xf32> to tensor<?x4xf32>
    %extracted_slice_394 = tensor.extract_slice %arg0[0, 1791] [%dim, 4] [1, 1] : tensor<?x14441xf32> to tensor<?x4xf32>
    %extracted_slice_395 = tensor.extract_slice %arg0[0, 1795] [%dim, 8] [1, 1] : tensor<?x14441xf32> to tensor<?x8xf32>
    %extracted_slice_396 = tensor.extract_slice %arg0[0, 1803] [%dim, 1] [1, 1] : tensor<?x14441xf32> to tensor<?x1xf32>
    %extracted_slice_397 = tensor.extract_slice %arg0[0, 1804] [%dim, 8] [1, 1] : tensor<?x14441xf32> to tensor<?x8xf32>
    %extracted_slice_398 = tensor.extract_slice %arg0[0, 1812] [%dim, 8] [1, 1] : tensor<?x14441xf32> to tensor<?x8xf32>
    %extracted_slice_399 = tensor.extract_slice %arg0[0, 1820] [%dim, 1] [1, 1] : tensor<?x14441xf32> to tensor<?x1xf32>
    %extracted_slice_400 = tensor.extract_slice %arg0[0, 1821] [%dim, 8] [1, 1] : tensor<?x14441xf32> to tensor<?x8xf32>
    %extracted_slice_401 = tensor.extract_slice %arg0[0, 1829] [%dim, 8] [1, 1] : tensor<?x14441xf32> to tensor<?x8xf32>
    %extracted_slice_402 = tensor.extract_slice %arg0[0, 1837] [%dim, 1] [1, 1] : tensor<?x14441xf32> to tensor<?x1xf32>
    %extracted_slice_403 = tensor.extract_slice %arg0[0, 1838] [%dim, 4] [1, 1] : tensor<?x14441xf32> to tensor<?x4xf32>
    %extracted_slice_404 = tensor.extract_slice %arg0[0, 1842] [%dim, 4] [1, 1] : tensor<?x14441xf32> to tensor<?x4xf32>
    %extracted_slice_405 = tensor.extract_slice %arg0[0, 1846] [%dim, 8] [1, 1] : tensor<?x14441xf32> to tensor<?x8xf32>
    %extracted_slice_406 = tensor.extract_slice %arg0[0, 1854] [%dim, 1] [1, 1] : tensor<?x14441xf32> to tensor<?x1xf32>
    %extracted_slice_407 = tensor.extract_slice %arg0[0, 1855] [%dim, 4] [1, 1] : tensor<?x14441xf32> to tensor<?x4xf32>
    %extracted_slice_408 = tensor.extract_slice %arg0[0, 1859] [%dim, 4] [1, 1] : tensor<?x14441xf32> to tensor<?x4xf32>
    %extracted_slice_409 = tensor.extract_slice %arg0[0, 1863] [%dim, 8] [1, 1] : tensor<?x14441xf32> to tensor<?x8xf32>
    %extracted_slice_410 = tensor.extract_slice %arg0[0, 1871] [%dim, 1] [1, 1] : tensor<?x14441xf32> to tensor<?x1xf32>
    %extracted_slice_411 = tensor.extract_slice %arg0[0, 1872] [%dim, 4] [1, 1] : tensor<?x14441xf32> to tensor<?x4xf32>
    %extracted_slice_412 = tensor.extract_slice %arg0[0, 1876] [%dim, 4] [1, 1] : tensor<?x14441xf32> to tensor<?x4xf32>
    %extracted_slice_413 = tensor.extract_slice %arg0[0, 1880] [%dim, 8] [1, 1] : tensor<?x14441xf32> to tensor<?x8xf32>
    %extracted_slice_414 = tensor.extract_slice %arg0[0, 1888] [%dim, 1] [1, 1] : tensor<?x14441xf32> to tensor<?x1xf32>
    %extracted_slice_415 = tensor.extract_slice %arg0[0, 1889] [%dim, 4] [1, 1] : tensor<?x14441xf32> to tensor<?x4xf32>
    %extracted_slice_416 = tensor.extract_slice %arg0[0, 1893] [%dim, 4] [1, 1] : tensor<?x14441xf32> to tensor<?x4xf32>
    %extracted_slice_417 = tensor.extract_slice %arg0[0, 1897] [%dim, 8] [1, 1] : tensor<?x14441xf32> to tensor<?x8xf32>
    %extracted_slice_418 = tensor.extract_slice %arg0[0, 1905] [%dim, 1] [1, 1] : tensor<?x14441xf32> to tensor<?x1xf32>
    %extracted_slice_419 = tensor.extract_slice %arg0[0, 1906] [%dim, 4] [1, 1] : tensor<?x14441xf32> to tensor<?x4xf32>
    %extracted_slice_420 = tensor.extract_slice %arg0[0, 1910] [%dim, 4] [1, 1] : tensor<?x14441xf32> to tensor<?x4xf32>
    %extracted_slice_421 = tensor.extract_slice %arg0[0, 1914] [%dim, 8] [1, 1] : tensor<?x14441xf32> to tensor<?x8xf32>
    %extracted_slice_422 = tensor.extract_slice %arg0[0, 1922] [%dim, 1] [1, 1] : tensor<?x14441xf32> to tensor<?x1xf32>
    %extracted_slice_423 = tensor.extract_slice %arg0[0, 1923] [%dim, 4] [1, 1] : tensor<?x14441xf32> to tensor<?x4xf32>
    %extracted_slice_424 = tensor.extract_slice %arg0[0, 1927] [%dim, 4] [1, 1] : tensor<?x14441xf32> to tensor<?x4xf32>
    %extracted_slice_425 = tensor.extract_slice %arg0[0, 1931] [%dim, 8] [1, 1] : tensor<?x14441xf32> to tensor<?x8xf32>
    %extracted_slice_426 = tensor.extract_slice %arg0[0, 1939] [%dim, 1] [1, 1] : tensor<?x14441xf32> to tensor<?x1xf32>
    %extracted_slice_427 = tensor.extract_slice %arg0[0, 1940] [%dim, 4] [1, 1] : tensor<?x14441xf32> to tensor<?x4xf32>
    %extracted_slice_428 = tensor.extract_slice %arg0[0, 1944] [%dim, 4] [1, 1] : tensor<?x14441xf32> to tensor<?x4xf32>
    %extracted_slice_429 = tensor.extract_slice %arg0[0, 1948] [%dim, 8] [1, 1] : tensor<?x14441xf32> to tensor<?x8xf32>
    %extracted_slice_430 = tensor.extract_slice %arg0[0, 1956] [%dim, 1] [1, 1] : tensor<?x14441xf32> to tensor<?x1xf32>
    %extracted_slice_431 = tensor.extract_slice %arg0[0, 1957] [%dim, 8] [1, 1] : tensor<?x14441xf32> to tensor<?x8xf32>
    %extracted_slice_432 = tensor.extract_slice %arg0[0, 1965] [%dim, 8] [1, 1] : tensor<?x14441xf32> to tensor<?x8xf32>
    %extracted_slice_433 = tensor.extract_slice %arg0[0, 1973] [%dim, 1] [1, 1] : tensor<?x14441xf32> to tensor<?x1xf32>
    %extracted_slice_434 = tensor.extract_slice %arg0[0, 1974] [%dim, 8] [1, 1] : tensor<?x14441xf32> to tensor<?x8xf32>
    %extracted_slice_435 = tensor.extract_slice %arg0[0, 1982] [%dim, 8] [1, 1] : tensor<?x14441xf32> to tensor<?x8xf32>
    %extracted_slice_436 = tensor.extract_slice %arg0[0, 1990] [%dim, 1] [1, 1] : tensor<?x14441xf32> to tensor<?x1xf32>
    %extracted_slice_437 = tensor.extract_slice %arg0[0, 1991] [%dim, 8] [1, 1] : tensor<?x14441xf32> to tensor<?x8xf32>
    %extracted_slice_438 = tensor.extract_slice %arg0[0, 1999] [%dim, 8] [1, 1] : tensor<?x14441xf32> to tensor<?x8xf32>
    %extracted_slice_439 = tensor.extract_slice %arg0[0, 2007] [%dim, 1] [1, 1] : tensor<?x14441xf32> to tensor<?x1xf32>
    %extracted_slice_440 = tensor.extract_slice %arg0[0, 2008] [%dim, 8] [1, 1] : tensor<?x14441xf32> to tensor<?x8xf32>
    %extracted_slice_441 = tensor.extract_slice %arg0[0, 2016] [%dim, 8] [1, 1] : tensor<?x14441xf32> to tensor<?x8xf32>
    %extracted_slice_442 = tensor.extract_slice %arg0[0, 2024] [%dim, 1] [1, 1] : tensor<?x14441xf32> to tensor<?x1xf32>
    %extracted_slice_443 = tensor.extract_slice %arg0[0, 2025] [%dim, 4] [1, 1] : tensor<?x14441xf32> to tensor<?x4xf32>
    %extracted_slice_444 = tensor.extract_slice %arg0[0, 2029] [%dim, 4] [1, 1] : tensor<?x14441xf32> to tensor<?x4xf32>
    %extracted_slice_445 = tensor.extract_slice %arg0[0, 2033] [%dim, 8] [1, 1] : tensor<?x14441xf32> to tensor<?x8xf32>
    %extracted_slice_446 = tensor.extract_slice %arg0[0, 2042] [%dim, 2] [1, 1] : tensor<?x14441xf32> to tensor<?x2xf32>
    %extracted_slice_447 = tensor.extract_slice %arg0[0, 2044] [%dim, 2] [1, 1] : tensor<?x14441xf32> to tensor<?x2xf32>
    %extracted_slice_448 = tensor.extract_slice %arg0[0, 2046] [%dim, 4] [1, 1] : tensor<?x14441xf32> to tensor<?x4xf32>
    %extracted_slice_449 = tensor.extract_slice %arg0[0, 2050] [%dim, 8] [1, 1] : tensor<?x14441xf32> to tensor<?x8xf32>
    %extracted_slice_450 = tensor.extract_slice %arg0[0, 2058] [%dim, 4] [1, 1] : tensor<?x14441xf32> to tensor<?x4xf32>
    %extracted_slice_451 = tensor.extract_slice %arg0[0, 2062] [%dim, 1] [1, 1] : tensor<?x14441xf32> to tensor<?x1xf32>
    %extracted_slice_452 = tensor.extract_slice %arg0[0, 2063] [%dim, 8] [1, 1] : tensor<?x14441xf32> to tensor<?x8xf32>
    %extracted_slice_453 = tensor.extract_slice %arg0[0, 2071] [%dim, 8] [1, 1] : tensor<?x14441xf32> to tensor<?x8xf32>
    %extracted_slice_454 = tensor.extract_slice %arg0[0, 2079] [%dim, 8] [1, 1] : tensor<?x14441xf32> to tensor<?x8xf32>
    %extracted_slice_455 = tensor.extract_slice %arg0[0, 2087] [%dim, 1] [1, 1] : tensor<?x14441xf32> to tensor<?x1xf32>
    %extracted_slice_456 = tensor.extract_slice %arg0[0, 2088] [%dim, 8] [1, 1] : tensor<?x14441xf32> to tensor<?x8xf32>
    %extracted_slice_457 = tensor.extract_slice %arg0[0, 2096] [%dim, 8] [1, 1] : tensor<?x14441xf32> to tensor<?x8xf32>
    %extracted_slice_458 = tensor.extract_slice %arg0[0, 2104] [%dim, 8] [1, 1] : tensor<?x14441xf32> to tensor<?x8xf32>
    %extracted_slice_459 = tensor.extract_slice %arg0[0, 2112] [%dim, 1] [1, 1] : tensor<?x14441xf32> to tensor<?x1xf32>
    %extracted_slice_460 = tensor.extract_slice %arg0[0, 2113] [%dim, 8] [1, 1] : tensor<?x14441xf32> to tensor<?x8xf32>
    %extracted_slice_461 = tensor.extract_slice %arg0[0, 2121] [%dim, 8] [1, 1] : tensor<?x14441xf32> to tensor<?x8xf32>
    %extracted_slice_462 = tensor.extract_slice %arg0[0, 2129] [%dim, 8] [1, 1] : tensor<?x14441xf32> to tensor<?x8xf32>
    %extracted_slice_463 = tensor.extract_slice %arg0[0, 2137] [%dim, 1] [1, 1] : tensor<?x14441xf32> to tensor<?x1xf32>
    %extracted_slice_464 = tensor.extract_slice %arg0[0, 2138] [%dim, 8] [1, 1] : tensor<?x14441xf32> to tensor<?x8xf32>
    %extracted_slice_465 = tensor.extract_slice %arg0[0, 2146] [%dim, 8] [1, 1] : tensor<?x14441xf32> to tensor<?x8xf32>
    %extracted_slice_466 = tensor.extract_slice %arg0[0, 2154] [%dim, 8] [1, 1] : tensor<?x14441xf32> to tensor<?x8xf32>
    %extracted_slice_467 = tensor.extract_slice %arg0[0, 2162] [%dim, 1] [1, 1] : tensor<?x14441xf32> to tensor<?x1xf32>
    %extracted_slice_468 = tensor.extract_slice %arg0[0, 2163] [%dim, 8] [1, 1] : tensor<?x14441xf32> to tensor<?x8xf32>
    %extracted_slice_469 = tensor.extract_slice %arg0[0, 2171] [%dim, 8] [1, 1] : tensor<?x14441xf32> to tensor<?x8xf32>
    %extracted_slice_470 = tensor.extract_slice %arg0[0, 2179] [%dim, 8] [1, 1] : tensor<?x14441xf32> to tensor<?x8xf32>
    %extracted_slice_471 = tensor.extract_slice %arg0[0, 2187] [%dim, 1] [1, 1] : tensor<?x14441xf32> to tensor<?x1xf32>
    %extracted_slice_472 = tensor.extract_slice %arg0[0, 2188] [%dim, 8] [1, 1] : tensor<?x14441xf32> to tensor<?x8xf32>
    %extracted_slice_473 = tensor.extract_slice %arg0[0, 2196] [%dim, 8] [1, 1] : tensor<?x14441xf32> to tensor<?x8xf32>
    %extracted_slice_474 = tensor.extract_slice %arg0[0, 2204] [%dim, 8] [1, 1] : tensor<?x14441xf32> to tensor<?x8xf32>
    %extracted_slice_475 = tensor.extract_slice %arg0[0, 2212] [%dim, 1] [1, 1] : tensor<?x14441xf32> to tensor<?x1xf32>
    %extracted_slice_476 = tensor.extract_slice %arg0[0, 2213] [%dim, 4] [1, 1] : tensor<?x14441xf32> to tensor<?x4xf32>
    %extracted_slice_477 = tensor.extract_slice %arg0[0, 2217] [%dim, 4] [1, 1] : tensor<?x14441xf32> to tensor<?x4xf32>
    %extracted_slice_478 = tensor.extract_slice %arg0[0, 2221] [%dim, 4] [1, 1] : tensor<?x14441xf32> to tensor<?x4xf32>
    %extracted_slice_479 = tensor.extract_slice %arg0[0, 2225] [%dim, 8] [1, 1] : tensor<?x14441xf32> to tensor<?x8xf32>
    %extracted_slice_480 = tensor.extract_slice %arg0[0, 2233] [%dim, 4] [1, 1] : tensor<?x14441xf32> to tensor<?x4xf32>
    %extracted_slice_481 = tensor.extract_slice %arg0[0, 2237] [%dim, 1] [1, 1] : tensor<?x14441xf32> to tensor<?x1xf32>
    %extracted_slice_482 = tensor.extract_slice %arg0[0, 2238] [%dim, 8] [1, 1] : tensor<?x14441xf32> to tensor<?x8xf32>
    %extracted_slice_483 = tensor.extract_slice %arg0[0, 2246] [%dim, 8] [1, 1] : tensor<?x14441xf32> to tensor<?x8xf32>
    %extracted_slice_484 = tensor.extract_slice %arg0[0, 2254] [%dim, 8] [1, 1] : tensor<?x14441xf32> to tensor<?x8xf32>
    %extracted_slice_485 = tensor.extract_slice %arg0[0, 2263] [%dim, 4] [1, 1] : tensor<?x14441xf32> to tensor<?x4xf32>
    %extracted_slice_486 = tensor.extract_slice %arg0[0, 2267] [%dim, 4] [1, 1] : tensor<?x14441xf32> to tensor<?x4xf32>
    %extracted_slice_487 = tensor.extract_slice %arg0[0, 2271] [%dim, 4] [1, 1] : tensor<?x14441xf32> to tensor<?x4xf32>
    %extracted_slice_488 = tensor.extract_slice %arg0[0, 2275] [%dim, 8] [1, 1] : tensor<?x14441xf32> to tensor<?x8xf32>
    %extracted_slice_489 = tensor.extract_slice %arg0[0, 2283] [%dim, 4] [1, 1] : tensor<?x14441xf32> to tensor<?x4xf32>
    %extracted_slice_490 = tensor.extract_slice %arg0[0, 2288] [%dim, 8] [1, 1] : tensor<?x14441xf32> to tensor<?x8xf32>
    %extracted_slice_491 = tensor.extract_slice %arg0[0, 2296] [%dim, 8] [1, 1] : tensor<?x14441xf32> to tensor<?x8xf32>
    %extracted_slice_492 = tensor.extract_slice %arg0[0, 2304] [%dim, 8] [1, 1] : tensor<?x14441xf32> to tensor<?x8xf32>
    %extracted_slice_493 = tensor.extract_slice %arg0[0, 2312] [%dim, 1] [1, 1] : tensor<?x14441xf32> to tensor<?x1xf32>
    %extracted_slice_494 = tensor.extract_slice %arg0[0, 2313] [%dim, 8] [1, 1] : tensor<?x14441xf32> to tensor<?x8xf32>
    %extracted_slice_495 = tensor.extract_slice %arg0[0, 2321] [%dim, 8] [1, 1] : tensor<?x14441xf32> to tensor<?x8xf32>
    %extracted_slice_496 = tensor.extract_slice %arg0[0, 2329] [%dim, 8] [1, 1] : tensor<?x14441xf32> to tensor<?x8xf32>
    %extracted_slice_497 = tensor.extract_slice %arg0[0, 2337] [%dim, 1] [1, 1] : tensor<?x14441xf32> to tensor<?x1xf32>
    %extracted_slice_498 = tensor.extract_slice %arg0[0, 2338] [%dim, 8] [1, 1] : tensor<?x14441xf32> to tensor<?x8xf32>
    %extracted_slice_499 = tensor.extract_slice %arg0[0, 2346] [%dim, 8] [1, 1] : tensor<?x14441xf32> to tensor<?x8xf32>
    %extracted_slice_500 = tensor.extract_slice %arg0[0, 2354] [%dim, 8] [1, 1] : tensor<?x14441xf32> to tensor<?x8xf32>
    %extracted_slice_501 = tensor.extract_slice %arg0[0, 2362] [%dim, 1] [1, 1] : tensor<?x14441xf32> to tensor<?x1xf32>
    %extracted_slice_502 = tensor.extract_slice %arg0[0, 2363] [%dim, 8] [1, 1] : tensor<?x14441xf32> to tensor<?x8xf32>
    %extracted_slice_503 = tensor.extract_slice %arg0[0, 2371] [%dim, 8] [1, 1] : tensor<?x14441xf32> to tensor<?x8xf32>
    %extracted_slice_504 = tensor.extract_slice %arg0[0, 2379] [%dim, 8] [1, 1] : tensor<?x14441xf32> to tensor<?x8xf32>
    %extracted_slice_505 = tensor.extract_slice %arg0[0, 2387] [%dim, 1] [1, 1] : tensor<?x14441xf32> to tensor<?x1xf32>
    %extracted_slice_506 = tensor.extract_slice %arg0[0, 2388] [%dim, 8] [1, 1] : tensor<?x14441xf32> to tensor<?x8xf32>
    %extracted_slice_507 = tensor.extract_slice %arg0[0, 2396] [%dim, 8] [1, 1] : tensor<?x14441xf32> to tensor<?x8xf32>
    %extracted_slice_508 = tensor.extract_slice %arg0[0, 2404] [%dim, 8] [1, 1] : tensor<?x14441xf32> to tensor<?x8xf32>
    %extracted_slice_509 = tensor.extract_slice %arg0[0, 2412] [%dim, 1] [1, 1] : tensor<?x14441xf32> to tensor<?x1xf32>
    %extracted_slice_510 = tensor.extract_slice %arg0[0, 2413] [%dim, 4] [1, 1] : tensor<?x14441xf32> to tensor<?x4xf32>
    %extracted_slice_511 = tensor.extract_slice %arg0[0, 2417] [%dim, 4] [1, 1] : tensor<?x14441xf32> to tensor<?x4xf32>
    %extracted_slice_512 = tensor.extract_slice %arg0[0, 2421] [%dim, 8] [1, 1] : tensor<?x14441xf32> to tensor<?x8xf32>
    %extracted_slice_513 = tensor.extract_slice %arg0[0, 2429] [%dim, 8] [1, 1] : tensor<?x14441xf32> to tensor<?x8xf32>
    %extracted_slice_514 = tensor.extract_slice %arg0[0, 2437] [%dim, 1] [1, 1] : tensor<?x14441xf32> to tensor<?x1xf32>
    %extracted_slice_515 = tensor.extract_slice %arg0[0, 2438] [%dim, 4] [1, 1] : tensor<?x14441xf32> to tensor<?x4xf32>
    %extracted_slice_516 = tensor.extract_slice %arg0[0, 2442] [%dim, 4] [1, 1] : tensor<?x14441xf32> to tensor<?x4xf32>
    %extracted_slice_517 = tensor.extract_slice %arg0[0, 2446] [%dim, 8] [1, 1] : tensor<?x14441xf32> to tensor<?x8xf32>
    %extracted_slice_518 = tensor.extract_slice %arg0[0, 2454] [%dim, 8] [1, 1] : tensor<?x14441xf32> to tensor<?x8xf32>
    %extracted_slice_519 = tensor.extract_slice %arg0[0, 2463] [%dim, 8] [1, 1] : tensor<?x14441xf32> to tensor<?x8xf32>
    %extracted_slice_520 = tensor.extract_slice %arg0[0, 2471] [%dim, 8] [1, 1] : tensor<?x14441xf32> to tensor<?x8xf32>
    %extracted_slice_521 = tensor.extract_slice %arg0[0, 2479] [%dim, 8] [1, 1] : tensor<?x14441xf32> to tensor<?x8xf32>
    %extracted_slice_522 = tensor.extract_slice %arg0[0, 2487] [%dim, 1] [1, 1] : tensor<?x14441xf32> to tensor<?x1xf32>
    %extracted_slice_523 = tensor.extract_slice %arg0[0, 2488] [%dim, 8] [1, 1] : tensor<?x14441xf32> to tensor<?x8xf32>
    %extracted_slice_524 = tensor.extract_slice %arg0[0, 2496] [%dim, 8] [1, 1] : tensor<?x14441xf32> to tensor<?x8xf32>
    %extracted_slice_525 = tensor.extract_slice %arg0[0, 2504] [%dim, 8] [1, 1] : tensor<?x14441xf32> to tensor<?x8xf32>
    %extracted_slice_526 = tensor.extract_slice %arg0[0, 2512] [%dim, 1] [1, 1] : tensor<?x14441xf32> to tensor<?x1xf32>
    %extracted_slice_527 = tensor.extract_slice %arg0[0, 2513] [%dim, 8] [1, 1] : tensor<?x14441xf32> to tensor<?x8xf32>
    %extracted_slice_528 = tensor.extract_slice %arg0[0, 2521] [%dim, 8] [1, 1] : tensor<?x14441xf32> to tensor<?x8xf32>
    %extracted_slice_529 = tensor.extract_slice %arg0[0, 2529] [%dim, 8] [1, 1] : tensor<?x14441xf32> to tensor<?x8xf32>
    %extracted_slice_530 = tensor.extract_slice %arg0[0, 2537] [%dim, 1] [1, 1] : tensor<?x14441xf32> to tensor<?x1xf32>
    %extracted_slice_531 = tensor.extract_slice %arg0[0, 2538] [%dim, 8] [1, 1] : tensor<?x14441xf32> to tensor<?x8xf32>
    %extracted_slice_532 = tensor.extract_slice %arg0[0, 2546] [%dim, 2] [1, 1] : tensor<?x14441xf32> to tensor<?x2xf32>
    %extracted_slice_533 = tensor.extract_slice %arg0[0, 2548] [%dim, 2] [1, 1] : tensor<?x14441xf32> to tensor<?x2xf32>
    %extracted_slice_534 = tensor.extract_slice %arg0[0, 2550] [%dim, 2] [1, 1] : tensor<?x14441xf32> to tensor<?x2xf32>
    %extracted_slice_535 = tensor.extract_slice %arg0[0, 2552] [%dim, 2] [1, 1] : tensor<?x14441xf32> to tensor<?x2xf32>
    %extracted_slice_536 = tensor.extract_slice %arg0[0, 2554] [%dim, 2] [1, 1] : tensor<?x14441xf32> to tensor<?x2xf32>
    %extracted_slice_537 = tensor.extract_slice %arg0[0, 2556] [%dim, 8] [1, 1] : tensor<?x14441xf32> to tensor<?x8xf32>
    %extracted_slice_538 = tensor.extract_slice %arg0[0, 2564] [%dim, 2] [1, 1] : tensor<?x14441xf32> to tensor<?x2xf32>
    %extracted_slice_539 = tensor.extract_slice %arg0[0, 2566] [%dim, 1] [1, 1] : tensor<?x14441xf32> to tensor<?x1xf32>
    %extracted_slice_540 = tensor.extract_slice %arg0[0, 2567] [%dim, 8] [1, 1] : tensor<?x14441xf32> to tensor<?x8xf32>
    %extracted_slice_541 = tensor.extract_slice %arg0[0, 2575] [%dim, 8] [1, 1] : tensor<?x14441xf32> to tensor<?x8xf32>
    %extracted_slice_542 = tensor.extract_slice %arg0[0, 2583] [%dim, 8] [1, 1] : tensor<?x14441xf32> to tensor<?x8xf32>
    %extracted_slice_543 = tensor.extract_slice %arg0[0, 2591] [%dim, 8] [1, 1] : tensor<?x14441xf32> to tensor<?x8xf32>
    %extracted_slice_544 = tensor.extract_slice %arg0[0, 2599] [%dim, 1] [1, 1] : tensor<?x14441xf32> to tensor<?x1xf32>
    %extracted_slice_545 = tensor.extract_slice %arg0[0, 2600] [%dim, 8] [1, 1] : tensor<?x14441xf32> to tensor<?x8xf32>
    %extracted_slice_546 = tensor.extract_slice %arg0[0, 2608] [%dim, 8] [1, 1] : tensor<?x14441xf32> to tensor<?x8xf32>
    %extracted_slice_547 = tensor.extract_slice %arg0[0, 2616] [%dim, 8] [1, 1] : tensor<?x14441xf32> to tensor<?x8xf32>
    %extracted_slice_548 = tensor.extract_slice %arg0[0, 2624] [%dim, 8] [1, 1] : tensor<?x14441xf32> to tensor<?x8xf32>
    %extracted_slice_549 = tensor.extract_slice %arg0[0, 2632] [%dim, 1] [1, 1] : tensor<?x14441xf32> to tensor<?x1xf32>
    %extracted_slice_550 = tensor.extract_slice %arg0[0, 2633] [%dim, 16] [1, 1] : tensor<?x14441xf32> to tensor<?x16xf32>
    %extracted_slice_551 = tensor.extract_slice %arg0[0, 2649] [%dim, 16] [1, 1] : tensor<?x14441xf32> to tensor<?x16xf32>
    %extracted_slice_552 = tensor.extract_slice %arg0[0, 2666] [%dim, 8] [1, 1] : tensor<?x14441xf32> to tensor<?x8xf32>
    %extracted_slice_553 = tensor.extract_slice %arg0[0, 2674] [%dim, 32] [1, 1] : tensor<?x14441xf32> to tensor<?x32xf32>
    %extracted_slice_554 = tensor.extract_slice %arg0[0, 2706] [%dim, 1] [1, 1] : tensor<?x14441xf32> to tensor<?x1xf32>
    %extracted_slice_555 = tensor.extract_slice %arg0[0, 2707] [%dim, 16] [1, 1] : tensor<?x14441xf32> to tensor<?x16xf32>
    %extracted_slice_556 = tensor.extract_slice %arg0[0, 2723] [%dim, 16] [1, 1] : tensor<?x14441xf32> to tensor<?x16xf32>
    %extracted_slice_557 = tensor.extract_slice %arg0[0, 2739] [%dim, 8] [1, 1] : tensor<?x14441xf32> to tensor<?x8xf32>
    %extracted_slice_558 = tensor.extract_slice %arg0[0, 2747] [%dim, 1] [1, 1] : tensor<?x14441xf32> to tensor<?x1xf32>
    %extracted_slice_559 = tensor.extract_slice %arg0[0, 2748] [%dim, 16] [1, 1] : tensor<?x14441xf32> to tensor<?x16xf32>
    %extracted_slice_560 = tensor.extract_slice %arg0[0, 2764] [%dim, 16] [1, 1] : tensor<?x14441xf32> to tensor<?x16xf32>
    %extracted_slice_561 = tensor.extract_slice %arg0[0, 2780] [%dim, 8] [1, 1] : tensor<?x14441xf32> to tensor<?x8xf32>
    %extracted_slice_562 = tensor.extract_slice %arg0[0, 2788] [%dim, 1] [1, 1] : tensor<?x14441xf32> to tensor<?x1xf32>
    %extracted_slice_563 = tensor.extract_slice %arg0[0, 2789] [%dim, 16] [1, 1] : tensor<?x14441xf32> to tensor<?x16xf32>
    %extracted_slice_564 = tensor.extract_slice %arg0[0, 2805] [%dim, 16] [1, 1] : tensor<?x14441xf32> to tensor<?x16xf32>
    %extracted_slice_565 = tensor.extract_slice %arg0[0, 2821] [%dim, 8] [1, 1] : tensor<?x14441xf32> to tensor<?x8xf32>
    %extracted_slice_566 = tensor.extract_slice %arg0[0, 2829] [%dim, 1] [1, 1] : tensor<?x14441xf32> to tensor<?x1xf32>
    %extracted_slice_567 = tensor.extract_slice %arg0[0, 2830] [%dim, 16] [1, 1] : tensor<?x14441xf32> to tensor<?x16xf32>
    %extracted_slice_568 = tensor.extract_slice %arg0[0, 2846] [%dim, 16] [1, 1] : tensor<?x14441xf32> to tensor<?x16xf32>
    %extracted_slice_569 = tensor.extract_slice %arg0[0, 2862] [%dim, 8] [1, 1] : tensor<?x14441xf32> to tensor<?x8xf32>
    %extracted_slice_570 = tensor.extract_slice %arg0[0, 2871] [%dim, 16] [1, 1] : tensor<?x14441xf32> to tensor<?x16xf32>
    %extracted_slice_571 = tensor.extract_slice %arg0[0, 2887] [%dim, 16] [1, 1] : tensor<?x14441xf32> to tensor<?x16xf32>
    %extracted_slice_572 = tensor.extract_slice %arg0[0, 2903] [%dim, 8] [1, 1] : tensor<?x14441xf32> to tensor<?x8xf32>
    %extracted_slice_573 = tensor.extract_slice %arg0[0, 2912] [%dim, 16] [1, 1] : tensor<?x14441xf32> to tensor<?x16xf32>
    %extracted_slice_574 = tensor.extract_slice %arg0[0, 2928] [%dim, 16] [1, 1] : tensor<?x14441xf32> to tensor<?x16xf32>
    %extracted_slice_575 = tensor.extract_slice %arg0[0, 2944] [%dim, 8] [1, 1] : tensor<?x14441xf32> to tensor<?x8xf32>
    %extracted_slice_576 = tensor.extract_slice %arg0[0, 2952] [%dim, 1] [1, 1] : tensor<?x14441xf32> to tensor<?x1xf32>
    %extracted_slice_577 = tensor.extract_slice %arg0[0, 2953] [%dim, 16] [1, 1] : tensor<?x14441xf32> to tensor<?x16xf32>
    %extracted_slice_578 = tensor.extract_slice %arg0[0, 2969] [%dim, 16] [1, 1] : tensor<?x14441xf32> to tensor<?x16xf32>
    %extracted_slice_579 = tensor.extract_slice %arg0[0, 2985] [%dim, 8] [1, 1] : tensor<?x14441xf32> to tensor<?x8xf32>
    %extracted_slice_580 = tensor.extract_slice %arg0[0, 2993] [%dim, 1] [1, 1] : tensor<?x14441xf32> to tensor<?x1xf32>
    %extracted_slice_581 = tensor.extract_slice %arg0[0, 2994] [%dim, 16] [1, 1] : tensor<?x14441xf32> to tensor<?x16xf32>
    %extracted_slice_582 = tensor.extract_slice %arg0[0, 3010] [%dim, 16] [1, 1] : tensor<?x14441xf32> to tensor<?x16xf32>
    %extracted_slice_583 = tensor.extract_slice %arg0[0, 3026] [%dim, 8] [1, 1] : tensor<?x14441xf32> to tensor<?x8xf32>
    %extracted_slice_584 = tensor.extract_slice %arg0[0, 3034] [%dim, 1] [1, 1] : tensor<?x14441xf32> to tensor<?x1xf32>
    %extracted_slice_585 = tensor.extract_slice %arg0[0, 3035] [%dim, 16] [1, 1] : tensor<?x14441xf32> to tensor<?x16xf32>
    %extracted_slice_586 = tensor.extract_slice %arg0[0, 3051] [%dim, 16] [1, 1] : tensor<?x14441xf32> to tensor<?x16xf32>
    %extracted_slice_587 = tensor.extract_slice %arg0[0, 3067] [%dim, 8] [1, 1] : tensor<?x14441xf32> to tensor<?x8xf32>
    %extracted_slice_588 = tensor.extract_slice %arg0[0, 3075] [%dim, 1] [1, 1] : tensor<?x14441xf32> to tensor<?x1xf32>
    %extracted_slice_589 = tensor.extract_slice %arg0[0, 3076] [%dim, 16] [1, 1] : tensor<?x14441xf32> to tensor<?x16xf32>
    %extracted_slice_590 = tensor.extract_slice %arg0[0, 3092] [%dim, 16] [1, 1] : tensor<?x14441xf32> to tensor<?x16xf32>
    %extracted_slice_591 = tensor.extract_slice %arg0[0, 3108] [%dim, 8] [1, 1] : tensor<?x14441xf32> to tensor<?x8xf32>
    %extracted_slice_592 = tensor.extract_slice %arg0[0, 3116] [%dim, 1] [1, 1] : tensor<?x14441xf32> to tensor<?x1xf32>
    %extracted_slice_593 = tensor.extract_slice %arg0[0, 3117] [%dim, 8] [1, 1] : tensor<?x14441xf32> to tensor<?x8xf32>
    %extracted_slice_594 = tensor.extract_slice %arg0[0, 3125] [%dim, 8] [1, 1] : tensor<?x14441xf32> to tensor<?x8xf32>
    %extracted_slice_595 = tensor.extract_slice %arg0[0, 3133] [%dim, 8] [1, 1] : tensor<?x14441xf32> to tensor<?x8xf32>
    %extracted_slice_596 = tensor.extract_slice %arg0[0, 3141] [%dim, 8] [1, 1] : tensor<?x14441xf32> to tensor<?x8xf32>
    %extracted_slice_597 = tensor.extract_slice %arg0[0, 3149] [%dim, 8] [1, 1] : tensor<?x14441xf32> to tensor<?x8xf32>
    %extracted_slice_598 = tensor.extract_slice %arg0[0, 3157] [%dim, 1] [1, 1] : tensor<?x14441xf32> to tensor<?x1xf32>
    %extracted_slice_599 = tensor.extract_slice %arg0[0, 3158] [%dim, 16] [1, 1] : tensor<?x14441xf32> to tensor<?x16xf32>
    %extracted_slice_600 = tensor.extract_slice %arg0[0, 3174] [%dim, 16] [1, 1] : tensor<?x14441xf32> to tensor<?x16xf32>
    %extracted_slice_601 = tensor.extract_slice %arg0[0, 3190] [%dim, 8] [1, 1] : tensor<?x14441xf32> to tensor<?x8xf32>
    %extracted_slice_602 = tensor.extract_slice %arg0[0, 3199] [%dim, 48] [1, 1] : tensor<?x14441xf32> to tensor<?x48xf32>
    %extracted_slice_603 = tensor.extract_slice %arg0[0, 3248] [%dim, 48] [1, 1] : tensor<?x14441xf32> to tensor<?x48xf32>
    %extracted_slice_604 = tensor.extract_slice %arg0[0, 3296] [%dim, 1] [1, 1] : tensor<?x14441xf32> to tensor<?x1xf32>
    %extracted_slice_605 = tensor.extract_slice %arg0[0, 3297] [%dim, 16] [1, 1] : tensor<?x14441xf32> to tensor<?x16xf32>
    %extracted_slice_606 = tensor.extract_slice %arg0[0, 3313] [%dim, 16] [1, 1] : tensor<?x14441xf32> to tensor<?x16xf32>
    %extracted_slice_607 = tensor.extract_slice %arg0[0, 3329] [%dim, 4] [1, 1] : tensor<?x14441xf32> to tensor<?x4xf32>
    %extracted_slice_608 = tensor.extract_slice %arg0[0, 3333] [%dim, 8] [1, 1] : tensor<?x14441xf32> to tensor<?x8xf32>
    %extracted_slice_609 = tensor.extract_slice %arg0[0, 3341] [%dim, 4] [1, 1] : tensor<?x14441xf32> to tensor<?x4xf32>
    %extracted_slice_610 = tensor.extract_slice %arg0[0, 3345] [%dim, 1] [1, 1] : tensor<?x14441xf32> to tensor<?x1xf32>
    %extracted_slice_611 = tensor.extract_slice %arg0[0, 3346] [%dim, 16] [1, 1] : tensor<?x14441xf32> to tensor<?x16xf32>
    %extracted_slice_612 = tensor.extract_slice %arg0[0, 3362] [%dim, 16] [1, 1] : tensor<?x14441xf32> to tensor<?x16xf32>
    %extracted_slice_613 = tensor.extract_slice %arg0[0, 3378] [%dim, 4] [1, 1] : tensor<?x14441xf32> to tensor<?x4xf32>
    %extracted_slice_614 = tensor.extract_slice %arg0[0, 3382] [%dim, 8] [1, 1] : tensor<?x14441xf32> to tensor<?x8xf32>
    %extracted_slice_615 = tensor.extract_slice %arg0[0, 3390] [%dim, 4] [1, 1] : tensor<?x14441xf32> to tensor<?x4xf32>
    %extracted_slice_616 = tensor.extract_slice %arg0[0, 3395] [%dim, 16] [1, 1] : tensor<?x14441xf32> to tensor<?x16xf32>
    %extracted_slice_617 = tensor.extract_slice %arg0[0, 3411] [%dim, 16] [1, 1] : tensor<?x14441xf32> to tensor<?x16xf32>
    %extracted_slice_618 = tensor.extract_slice %arg0[0, 3427] [%dim, 4] [1, 1] : tensor<?x14441xf32> to tensor<?x4xf32>
    %extracted_slice_619 = tensor.extract_slice %arg0[0, 3431] [%dim, 8] [1, 1] : tensor<?x14441xf32> to tensor<?x8xf32>
    %extracted_slice_620 = tensor.extract_slice %arg0[0, 3439] [%dim, 4] [1, 1] : tensor<?x14441xf32> to tensor<?x4xf32>
    %extracted_slice_621 = tensor.extract_slice %arg0[0, 3443] [%dim, 1] [1, 1] : tensor<?x14441xf32> to tensor<?x1xf32>
    %extracted_slice_622 = tensor.extract_slice %arg0[0, 3444] [%dim, 16] [1, 1] : tensor<?x14441xf32> to tensor<?x16xf32>
    %extracted_slice_623 = tensor.extract_slice %arg0[0, 3460] [%dim, 16] [1, 1] : tensor<?x14441xf32> to tensor<?x16xf32>
    %extracted_slice_624 = tensor.extract_slice %arg0[0, 3476] [%dim, 4] [1, 1] : tensor<?x14441xf32> to tensor<?x4xf32>
    %extracted_slice_625 = tensor.extract_slice %arg0[0, 3480] [%dim, 8] [1, 1] : tensor<?x14441xf32> to tensor<?x8xf32>
    %extracted_slice_626 = tensor.extract_slice %arg0[0, 3488] [%dim, 4] [1, 1] : tensor<?x14441xf32> to tensor<?x4xf32>
    %extracted_slice_627 = tensor.extract_slice %arg0[0, 3492] [%dim, 1] [1, 1] : tensor<?x14441xf32> to tensor<?x1xf32>
    %extracted_slice_628 = tensor.extract_slice %arg0[0, 3493] [%dim, 16] [1, 1] : tensor<?x14441xf32> to tensor<?x16xf32>
    %extracted_slice_629 = tensor.extract_slice %arg0[0, 3509] [%dim, 16] [1, 1] : tensor<?x14441xf32> to tensor<?x16xf32>
    %extracted_slice_630 = tensor.extract_slice %arg0[0, 3525] [%dim, 4] [1, 1] : tensor<?x14441xf32> to tensor<?x4xf32>
    %extracted_slice_631 = tensor.extract_slice %arg0[0, 3529] [%dim, 8] [1, 1] : tensor<?x14441xf32> to tensor<?x8xf32>
    %extracted_slice_632 = tensor.extract_slice %arg0[0, 3537] [%dim, 4] [1, 1] : tensor<?x14441xf32> to tensor<?x4xf32>
    %extracted_slice_633 = tensor.extract_slice %arg0[0, 3541] [%dim, 1] [1, 1] : tensor<?x14441xf32> to tensor<?x1xf32>
    %extracted_slice_634 = tensor.extract_slice %arg0[0, 3542] [%dim, 16] [1, 1] : tensor<?x14441xf32> to tensor<?x16xf32>
    %extracted_slice_635 = tensor.extract_slice %arg0[0, 3558] [%dim, 16] [1, 1] : tensor<?x14441xf32> to tensor<?x16xf32>
    %extracted_slice_636 = tensor.extract_slice %arg0[0, 3574] [%dim, 4] [1, 1] : tensor<?x14441xf32> to tensor<?x4xf32>
    %extracted_slice_637 = tensor.extract_slice %arg0[0, 3578] [%dim, 8] [1, 1] : tensor<?x14441xf32> to tensor<?x8xf32>
    %extracted_slice_638 = tensor.extract_slice %arg0[0, 3586] [%dim, 4] [1, 1] : tensor<?x14441xf32> to tensor<?x4xf32>
    %extracted_slice_639 = tensor.extract_slice %arg0[0, 3590] [%dim, 1] [1, 1] : tensor<?x14441xf32> to tensor<?x1xf32>
    %extracted_slice_640 = tensor.extract_slice %arg0[0, 3591] [%dim, 16] [1, 1] : tensor<?x14441xf32> to tensor<?x16xf32>
    %extracted_slice_641 = tensor.extract_slice %arg0[0, 3607] [%dim, 16] [1, 1] : tensor<?x14441xf32> to tensor<?x16xf32>
    %extracted_slice_642 = tensor.extract_slice %arg0[0, 3623] [%dim, 4] [1, 1] : tensor<?x14441xf32> to tensor<?x4xf32>
    %extracted_slice_643 = tensor.extract_slice %arg0[0, 3627] [%dim, 8] [1, 1] : tensor<?x14441xf32> to tensor<?x8xf32>
    %extracted_slice_644 = tensor.extract_slice %arg0[0, 3635] [%dim, 4] [1, 1] : tensor<?x14441xf32> to tensor<?x4xf32>
    %extracted_slice_645 = tensor.extract_slice %arg0[0, 3639] [%dim, 1] [1, 1] : tensor<?x14441xf32> to tensor<?x1xf32>
    %extracted_slice_646 = tensor.extract_slice %arg0[0, 3640] [%dim, 16] [1, 1] : tensor<?x14441xf32> to tensor<?x16xf32>
    %extracted_slice_647 = tensor.extract_slice %arg0[0, 3656] [%dim, 16] [1, 1] : tensor<?x14441xf32> to tensor<?x16xf32>
    %extracted_slice_648 = tensor.extract_slice %arg0[0, 3672] [%dim, 4] [1, 1] : tensor<?x14441xf32> to tensor<?x4xf32>
    %extracted_slice_649 = tensor.extract_slice %arg0[0, 3676] [%dim, 8] [1, 1] : tensor<?x14441xf32> to tensor<?x8xf32>
    %extracted_slice_650 = tensor.extract_slice %arg0[0, 3684] [%dim, 4] [1, 1] : tensor<?x14441xf32> to tensor<?x4xf32>
    %extracted_slice_651 = tensor.extract_slice %arg0[0, 3688] [%dim, 1] [1, 1] : tensor<?x14441xf32> to tensor<?x1xf32>
    %extracted_slice_652 = tensor.extract_slice %arg0[0, 3689] [%dim, 16] [1, 1] : tensor<?x14441xf32> to tensor<?x16xf32>
    %extracted_slice_653 = tensor.extract_slice %arg0[0, 3705] [%dim, 16] [1, 1] : tensor<?x14441xf32> to tensor<?x16xf32>
    %extracted_slice_654 = tensor.extract_slice %arg0[0, 3721] [%dim, 4] [1, 1] : tensor<?x14441xf32> to tensor<?x4xf32>
    %extracted_slice_655 = tensor.extract_slice %arg0[0, 3725] [%dim, 8] [1, 1] : tensor<?x14441xf32> to tensor<?x8xf32>
    %extracted_slice_656 = tensor.extract_slice %arg0[0, 3733] [%dim, 4] [1, 1] : tensor<?x14441xf32> to tensor<?x4xf32>
    %extracted_slice_657 = tensor.extract_slice %arg0[0, 3738] [%dim, 16] [1, 1] : tensor<?x14441xf32> to tensor<?x16xf32>
    %extracted_slice_658 = tensor.extract_slice %arg0[0, 3754] [%dim, 16] [1, 1] : tensor<?x14441xf32> to tensor<?x16xf32>
    %extracted_slice_659 = tensor.extract_slice %arg0[0, 3770] [%dim, 4] [1, 1] : tensor<?x14441xf32> to tensor<?x4xf32>
    %extracted_slice_660 = tensor.extract_slice %arg0[0, 3774] [%dim, 8] [1, 1] : tensor<?x14441xf32> to tensor<?x8xf32>
    %extracted_slice_661 = tensor.extract_slice %arg0[0, 3782] [%dim, 4] [1, 1] : tensor<?x14441xf32> to tensor<?x4xf32>
    %extracted_slice_662 = tensor.extract_slice %arg0[0, 3787] [%dim, 16] [1, 1] : tensor<?x14441xf32> to tensor<?x16xf32>
    %extracted_slice_663 = tensor.extract_slice %arg0[0, 3803] [%dim, 16] [1, 1] : tensor<?x14441xf32> to tensor<?x16xf32>
    %extracted_slice_664 = tensor.extract_slice %arg0[0, 3819] [%dim, 4] [1, 1] : tensor<?x14441xf32> to tensor<?x4xf32>
    %extracted_slice_665 = tensor.extract_slice %arg0[0, 3823] [%dim, 8] [1, 1] : tensor<?x14441xf32> to tensor<?x8xf32>
    %extracted_slice_666 = tensor.extract_slice %arg0[0, 3831] [%dim, 4] [1, 1] : tensor<?x14441xf32> to tensor<?x4xf32>
    %extracted_slice_667 = tensor.extract_slice %arg0[0, 3835] [%dim, 1] [1, 1] : tensor<?x14441xf32> to tensor<?x1xf32>
    %extracted_slice_668 = tensor.extract_slice %arg0[0, 3836] [%dim, 16] [1, 1] : tensor<?x14441xf32> to tensor<?x16xf32>
    %extracted_slice_669 = tensor.extract_slice %arg0[0, 3852] [%dim, 16] [1, 1] : tensor<?x14441xf32> to tensor<?x16xf32>
    %extracted_slice_670 = tensor.extract_slice %arg0[0, 3868] [%dim, 8] [1, 1] : tensor<?x14441xf32> to tensor<?x8xf32>
    %extracted_slice_671 = tensor.extract_slice %arg0[0, 3876] [%dim, 8] [1, 1] : tensor<?x14441xf32> to tensor<?x8xf32>
    %extracted_slice_672 = tensor.extract_slice %arg0[0, 3884] [%dim, 8] [1, 1] : tensor<?x14441xf32> to tensor<?x8xf32>
    %extracted_slice_673 = tensor.extract_slice %arg0[0, 3892] [%dim, 1] [1, 1] : tensor<?x14441xf32> to tensor<?x1xf32>
    %extracted_slice_674 = tensor.extract_slice %arg0[0, 3893] [%dim, 8] [1, 1] : tensor<?x14441xf32> to tensor<?x8xf32>
    %extracted_slice_675 = tensor.extract_slice %arg0[0, 3901] [%dim, 8] [1, 1] : tensor<?x14441xf32> to tensor<?x8xf32>
    %extracted_slice_676 = tensor.extract_slice %arg0[0, 3909] [%dim, 4] [1, 1] : tensor<?x14441xf32> to tensor<?x4xf32>
    %extracted_slice_677 = tensor.extract_slice %arg0[0, 3913] [%dim, 4] [1, 1] : tensor<?x14441xf32> to tensor<?x4xf32>
    %extracted_slice_678 = tensor.extract_slice %arg0[0, 3917] [%dim, 4] [1, 1] : tensor<?x14441xf32> to tensor<?x4xf32>
    %extracted_slice_679 = tensor.extract_slice %arg0[0, 3921] [%dim, 4] [1, 1] : tensor<?x14441xf32> to tensor<?x4xf32>
    %extracted_slice_680 = tensor.extract_slice %arg0[0, 3925] [%dim, 4] [1, 1] : tensor<?x14441xf32> to tensor<?x4xf32>
    %extracted_slice_681 = tensor.extract_slice %arg0[0, 3929] [%dim, 4] [1, 1] : tensor<?x14441xf32> to tensor<?x4xf32>
    %extracted_slice_682 = tensor.extract_slice %arg0[0, 3933] [%dim, 8] [1, 1] : tensor<?x14441xf32> to tensor<?x8xf32>
    %extracted_slice_683 = tensor.extract_slice %arg0[0, 3941] [%dim, 4] [1, 1] : tensor<?x14441xf32> to tensor<?x4xf32>
    %extracted_slice_684 = tensor.extract_slice %arg0[0, 3945] [%dim, 4] [1, 1] : tensor<?x14441xf32> to tensor<?x4xf32>
    %extracted_slice_685 = tensor.extract_slice %arg0[0, 3950] [%dim, 16] [1, 1] : tensor<?x14441xf32> to tensor<?x16xf32>
    %extracted_slice_686 = tensor.extract_slice %arg0[0, 3966] [%dim, 16] [1, 1] : tensor<?x14441xf32> to tensor<?x16xf32>
    %extracted_slice_687 = tensor.extract_slice %arg0[0, 3982] [%dim, 8] [1, 1] : tensor<?x14441xf32> to tensor<?x8xf32>
    %extracted_slice_688 = tensor.extract_slice %arg0[0, 3990] [%dim, 8] [1, 1] : tensor<?x14441xf32> to tensor<?x8xf32>
    %extracted_slice_689 = tensor.extract_slice %arg0[0, 3998] [%dim, 8] [1, 1] : tensor<?x14441xf32> to tensor<?x8xf32>
    %extracted_slice_690 = tensor.extract_slice %arg0[0, 4007] [%dim, 4] [1, 1] : tensor<?x14441xf32> to tensor<?x4xf32>
    %extracted_slice_691 = tensor.extract_slice %arg0[0, 4011] [%dim, 8] [1, 1] : tensor<?x14441xf32> to tensor<?x8xf32>
    %extracted_slice_692 = tensor.extract_slice %arg0[0, 4019] [%dim, 8] [1, 1] : tensor<?x14441xf32> to tensor<?x8xf32>
    %extracted_slice_693 = tensor.extract_slice %arg0[0, 4027] [%dim, 8] [1, 1] : tensor<?x14441xf32> to tensor<?x8xf32>
    %extracted_slice_694 = tensor.extract_slice %arg0[0, 4035] [%dim, 8] [1, 1] : tensor<?x14441xf32> to tensor<?x8xf32>
    %extracted_slice_695 = tensor.extract_slice %arg0[0, 4043] [%dim, 8] [1, 1] : tensor<?x14441xf32> to tensor<?x8xf32>
    %extracted_slice_696 = tensor.extract_slice %arg0[0, 4051] [%dim, 4] [1, 1] : tensor<?x14441xf32> to tensor<?x4xf32>
    %extracted_slice_697 = tensor.extract_slice %arg0[0, 4055] [%dim, 8] [1, 1] : tensor<?x14441xf32> to tensor<?x8xf32>
    %extracted_slice_698 = tensor.extract_slice %arg0[0, 4064] [%dim, 4] [1, 1] : tensor<?x14441xf32> to tensor<?x4xf32>
    %extracted_slice_699 = tensor.extract_slice %arg0[0, 4068] [%dim, 8] [1, 1] : tensor<?x14441xf32> to tensor<?x8xf32>
    %extracted_slice_700 = tensor.extract_slice %arg0[0, 4076] [%dim, 8] [1, 1] : tensor<?x14441xf32> to tensor<?x8xf32>
    %extracted_slice_701 = tensor.extract_slice %arg0[0, 4084] [%dim, 8] [1, 1] : tensor<?x14441xf32> to tensor<?x8xf32>
    %extracted_slice_702 = tensor.extract_slice %arg0[0, 4092] [%dim, 8] [1, 1] : tensor<?x14441xf32> to tensor<?x8xf32>
    %extracted_slice_703 = tensor.extract_slice %arg0[0, 4100] [%dim, 8] [1, 1] : tensor<?x14441xf32> to tensor<?x8xf32>
    %extracted_slice_704 = tensor.extract_slice %arg0[0, 4108] [%dim, 8] [1, 1] : tensor<?x14441xf32> to tensor<?x8xf32>
    %extracted_slice_705 = tensor.extract_slice %arg0[0, 4116] [%dim, 4] [1, 1] : tensor<?x14441xf32> to tensor<?x4xf32>
    %extracted_slice_706 = tensor.extract_slice %arg0[0, 4120] [%dim, 8] [1, 1] : tensor<?x14441xf32> to tensor<?x8xf32>
    %extracted_slice_707 = tensor.extract_slice %arg0[0, 4128] [%dim, 1] [1, 1] : tensor<?x14441xf32> to tensor<?x1xf32>
    %extracted_slice_708 = tensor.extract_slice %arg0[0, 4129] [%dim, 16] [1, 1] : tensor<?x14441xf32> to tensor<?x16xf32>
    %extracted_slice_709 = tensor.extract_slice %arg0[0, 4145] [%dim, 16] [1, 1] : tensor<?x14441xf32> to tensor<?x16xf32>
    %extracted_slice_710 = tensor.extract_slice %arg0[0, 4161] [%dim, 4] [1, 1] : tensor<?x14441xf32> to tensor<?x4xf32>
    %extracted_slice_711 = tensor.extract_slice %arg0[0, 4165] [%dim, 4] [1, 1] : tensor<?x14441xf32> to tensor<?x4xf32>
    %extracted_slice_712 = tensor.extract_slice %arg0[0, 4169] [%dim, 4] [1, 1] : tensor<?x14441xf32> to tensor<?x4xf32>
    %extracted_slice_713 = tensor.extract_slice %arg0[0, 4173] [%dim, 4] [1, 1] : tensor<?x14441xf32> to tensor<?x4xf32>
    %extracted_slice_714 = tensor.extract_slice %arg0[0, 4177] [%dim, 4] [1, 1] : tensor<?x14441xf32> to tensor<?x4xf32>
    %extracted_slice_715 = tensor.extract_slice %arg0[0, 4181] [%dim, 8] [1, 1] : tensor<?x14441xf32> to tensor<?x8xf32>
    %extracted_slice_716 = tensor.extract_slice %arg0[0, 4189] [%dim, 4] [1, 1] : tensor<?x14441xf32> to tensor<?x4xf32>
    %extracted_slice_717 = tensor.extract_slice %arg0[0, 4193] [%dim, 1] [1, 1] : tensor<?x14441xf32> to tensor<?x1xf32>
    %extracted_slice_718 = tensor.extract_slice %arg0[0, 4194] [%dim, 16] [1, 1] : tensor<?x14441xf32> to tensor<?x16xf32>
    %extracted_slice_719 = tensor.extract_slice %arg0[0, 4210] [%dim, 16] [1, 1] : tensor<?x14441xf32> to tensor<?x16xf32>
    %extracted_slice_720 = tensor.extract_slice %arg0[0, 4226] [%dim, 4] [1, 1] : tensor<?x14441xf32> to tensor<?x4xf32>
    %extracted_slice_721 = tensor.extract_slice %arg0[0, 4230] [%dim, 4] [1, 1] : tensor<?x14441xf32> to tensor<?x4xf32>
    %extracted_slice_722 = tensor.extract_slice %arg0[0, 4234] [%dim, 4] [1, 1] : tensor<?x14441xf32> to tensor<?x4xf32>
    %extracted_slice_723 = tensor.extract_slice %arg0[0, 4238] [%dim, 4] [1, 1] : tensor<?x14441xf32> to tensor<?x4xf32>
    %extracted_slice_724 = tensor.extract_slice %arg0[0, 4242] [%dim, 4] [1, 1] : tensor<?x14441xf32> to tensor<?x4xf32>
    %extracted_slice_725 = tensor.extract_slice %arg0[0, 4246] [%dim, 8] [1, 1] : tensor<?x14441xf32> to tensor<?x8xf32>
    %extracted_slice_726 = tensor.extract_slice %arg0[0, 4254] [%dim, 4] [1, 1] : tensor<?x14441xf32> to tensor<?x4xf32>
    %extracted_slice_727 = tensor.extract_slice %arg0[0, 4258] [%dim, 4] [1, 1] : tensor<?x14441xf32> to tensor<?x4xf32>
    %extracted_slice_728 = tensor.extract_slice %arg0[0, 4262] [%dim, 1] [1, 1] : tensor<?x14441xf32> to tensor<?x1xf32>
    %extracted_slice_729 = tensor.extract_slice %arg0[0, 4263] [%dim, 8] [1, 1] : tensor<?x14441xf32> to tensor<?x8xf32>
    %extracted_slice_730 = tensor.extract_slice %arg0[0, 4271] [%dim, 8] [1, 1] : tensor<?x14441xf32> to tensor<?x8xf32>
    %extracted_slice_731 = tensor.extract_slice %arg0[0, 4279] [%dim, 4] [1, 1] : tensor<?x14441xf32> to tensor<?x4xf32>
    %extracted_slice_732 = tensor.extract_slice %arg0[0, 4283] [%dim, 8] [1, 1] : tensor<?x14441xf32> to tensor<?x8xf32>
    %extracted_slice_733 = tensor.extract_slice %arg0[0, 4291] [%dim, 8] [1, 1] : tensor<?x14441xf32> to tensor<?x8xf32>
    %extracted_slice_734 = tensor.extract_slice %arg0[0, 4299] [%dim, 8] [1, 1] : tensor<?x14441xf32> to tensor<?x8xf32>
    %extracted_slice_735 = tensor.extract_slice %arg0[0, 4307] [%dim, 8] [1, 1] : tensor<?x14441xf32> to tensor<?x8xf32>
    %extracted_slice_736 = tensor.extract_slice %arg0[0, 4315] [%dim, 8] [1, 1] : tensor<?x14441xf32> to tensor<?x8xf32>
    %extracted_slice_737 = tensor.extract_slice %arg0[0, 4323] [%dim, 8] [1, 1] : tensor<?x14441xf32> to tensor<?x8xf32>
    %extracted_slice_738 = tensor.extract_slice %arg0[0, 4331] [%dim, 4] [1, 1] : tensor<?x14441xf32> to tensor<?x4xf32>
    %extracted_slice_739 = tensor.extract_slice %arg0[0, 4335] [%dim, 8] [1, 1] : tensor<?x14441xf32> to tensor<?x8xf32>
    %extracted_slice_740 = tensor.extract_slice %arg0[0, 4344] [%dim, 4] [1, 1] : tensor<?x14441xf32> to tensor<?x4xf32>
    %extracted_slice_741 = tensor.extract_slice %arg0[0, 4348] [%dim, 4] [1, 1] : tensor<?x14441xf32> to tensor<?x4xf32>
    %extracted_slice_742 = tensor.extract_slice %arg0[0, 4352] [%dim, 4] [1, 1] : tensor<?x14441xf32> to tensor<?x4xf32>
    %extracted_slice_743 = tensor.extract_slice %arg0[0, 4356] [%dim, 4] [1, 1] : tensor<?x14441xf32> to tensor<?x4xf32>
    %extracted_slice_744 = tensor.extract_slice %arg0[0, 4360] [%dim, 4] [1, 1] : tensor<?x14441xf32> to tensor<?x4xf32>
    %extracted_slice_745 = tensor.extract_slice %arg0[0, 4364] [%dim, 4] [1, 1] : tensor<?x14441xf32> to tensor<?x4xf32>
    %extracted_slice_746 = tensor.extract_slice %arg0[0, 4368] [%dim, 8] [1, 1] : tensor<?x14441xf32> to tensor<?x8xf32>
    %extracted_slice_747 = tensor.extract_slice %arg0[0, 4376] [%dim, 4] [1, 1] : tensor<?x14441xf32> to tensor<?x4xf32>
    %extracted_slice_748 = tensor.extract_slice %arg0[0, 4380] [%dim, 4] [1, 1] : tensor<?x14441xf32> to tensor<?x4xf32>
    %extracted_slice_749 = tensor.extract_slice %arg0[0, 4384] [%dim, 4] [1, 1] : tensor<?x14441xf32> to tensor<?x4xf32>
    %extracted_slice_750 = tensor.extract_slice %arg0[0, 4388] [%dim, 4] [1, 1] : tensor<?x14441xf32> to tensor<?x4xf32>
    %extracted_slice_751 = tensor.extract_slice %arg0[0, 4392] [%dim, 4] [1, 1] : tensor<?x14441xf32> to tensor<?x4xf32>
    %extracted_slice_752 = tensor.extract_slice %arg0[0, 4396] [%dim, 4] [1, 1] : tensor<?x14441xf32> to tensor<?x4xf32>
    %extracted_slice_753 = tensor.extract_slice %arg0[0, 4400] [%dim, 4] [1, 1] : tensor<?x14441xf32> to tensor<?x4xf32>
    %extracted_slice_754 = tensor.extract_slice %arg0[0, 4404] [%dim, 4] [1, 1] : tensor<?x14441xf32> to tensor<?x4xf32>
    %extracted_slice_755 = tensor.extract_slice %arg0[0, 4408] [%dim, 4] [1, 1] : tensor<?x14441xf32> to tensor<?x4xf32>
    %extracted_slice_756 = tensor.extract_slice %arg0[0, 4412] [%dim, 4] [1, 1] : tensor<?x14441xf32> to tensor<?x4xf32>
    %extracted_slice_757 = tensor.extract_slice %arg0[0, 4416] [%dim, 4] [1, 1] : tensor<?x14441xf32> to tensor<?x4xf32>
    %extracted_slice_758 = tensor.extract_slice %arg0[0, 4420] [%dim, 4] [1, 1] : tensor<?x14441xf32> to tensor<?x4xf32>
    %extracted_slice_759 = tensor.extract_slice %arg0[0, 4424] [%dim, 4] [1, 1] : tensor<?x14441xf32> to tensor<?x4xf32>
    %extracted_slice_760 = tensor.extract_slice %arg0[0, 4428] [%dim, 4] [1, 1] : tensor<?x14441xf32> to tensor<?x4xf32>
    %extracted_slice_761 = tensor.extract_slice %arg0[0, 4432] [%dim, 4] [1, 1] : tensor<?x14441xf32> to tensor<?x4xf32>
    %extracted_slice_762 = tensor.extract_slice %arg0[0, 4437] [%dim, 4] [1, 1] : tensor<?x14441xf32> to tensor<?x4xf32>
    %extracted_slice_763 = tensor.extract_slice %arg0[0, 4441] [%dim, 4] [1, 1] : tensor<?x14441xf32> to tensor<?x4xf32>
    %extracted_slice_764 = tensor.extract_slice %arg0[0, 4445] [%dim, 4] [1, 1] : tensor<?x14441xf32> to tensor<?x4xf32>
    %extracted_slice_765 = tensor.extract_slice %arg0[0, 4449] [%dim, 4] [1, 1] : tensor<?x14441xf32> to tensor<?x4xf32>
    %extracted_slice_766 = tensor.extract_slice %arg0[0, 4453] [%dim, 4] [1, 1] : tensor<?x14441xf32> to tensor<?x4xf32>
    %extracted_slice_767 = tensor.extract_slice %arg0[0, 4457] [%dim, 4] [1, 1] : tensor<?x14441xf32> to tensor<?x4xf32>
    %extracted_slice_768 = tensor.extract_slice %arg0[0, 4461] [%dim, 8] [1, 1] : tensor<?x14441xf32> to tensor<?x8xf32>
    %extracted_slice_769 = tensor.extract_slice %arg0[0, 4469] [%dim, 4] [1, 1] : tensor<?x14441xf32> to tensor<?x4xf32>
    %extracted_slice_770 = tensor.extract_slice %arg0[0, 4473] [%dim, 4] [1, 1] : tensor<?x14441xf32> to tensor<?x4xf32>
    %extracted_slice_771 = tensor.extract_slice %arg0[0, 4477] [%dim, 4] [1, 1] : tensor<?x14441xf32> to tensor<?x4xf32>
    %extracted_slice_772 = tensor.extract_slice %arg0[0, 4481] [%dim, 4] [1, 1] : tensor<?x14441xf32> to tensor<?x4xf32>
    %extracted_slice_773 = tensor.extract_slice %arg0[0, 4485] [%dim, 4] [1, 1] : tensor<?x14441xf32> to tensor<?x4xf32>
    %extracted_slice_774 = tensor.extract_slice %arg0[0, 4489] [%dim, 4] [1, 1] : tensor<?x14441xf32> to tensor<?x4xf32>
    %extracted_slice_775 = tensor.extract_slice %arg0[0, 4493] [%dim, 4] [1, 1] : tensor<?x14441xf32> to tensor<?x4xf32>
    %extracted_slice_776 = tensor.extract_slice %arg0[0, 4497] [%dim, 4] [1, 1] : tensor<?x14441xf32> to tensor<?x4xf32>
    %extracted_slice_777 = tensor.extract_slice %arg0[0, 4501] [%dim, 4] [1, 1] : tensor<?x14441xf32> to tensor<?x4xf32>
    %extracted_slice_778 = tensor.extract_slice %arg0[0, 4505] [%dim, 4] [1, 1] : tensor<?x14441xf32> to tensor<?x4xf32>
    %extracted_slice_779 = tensor.extract_slice %arg0[0, 4509] [%dim, 4] [1, 1] : tensor<?x14441xf32> to tensor<?x4xf32>
    %extracted_slice_780 = tensor.extract_slice %arg0[0, 4513] [%dim, 4] [1, 1] : tensor<?x14441xf32> to tensor<?x4xf32>
    %extracted_slice_781 = tensor.extract_slice %arg0[0, 4517] [%dim, 4] [1, 1] : tensor<?x14441xf32> to tensor<?x4xf32>
    %extracted_slice_782 = tensor.extract_slice %arg0[0, 4521] [%dim, 4] [1, 1] : tensor<?x14441xf32> to tensor<?x4xf32>
    %extracted_slice_783 = tensor.extract_slice %arg0[0, 4525] [%dim, 4] [1, 1] : tensor<?x14441xf32> to tensor<?x4xf32>
    %extracted_slice_784 = tensor.extract_slice %arg0[0, 4530] [%dim, 4] [1, 1] : tensor<?x14441xf32> to tensor<?x4xf32>
    %extracted_slice_785 = tensor.extract_slice %arg0[0, 4534] [%dim, 4] [1, 1] : tensor<?x14441xf32> to tensor<?x4xf32>
    %extracted_slice_786 = tensor.extract_slice %arg0[0, 4538] [%dim, 4] [1, 1] : tensor<?x14441xf32> to tensor<?x4xf32>
    %extracted_slice_787 = tensor.extract_slice %arg0[0, 4542] [%dim, 4] [1, 1] : tensor<?x14441xf32> to tensor<?x4xf32>
    %extracted_slice_788 = tensor.extract_slice %arg0[0, 4546] [%dim, 4] [1, 1] : tensor<?x14441xf32> to tensor<?x4xf32>
    %extracted_slice_789 = tensor.extract_slice %arg0[0, 4550] [%dim, 4] [1, 1] : tensor<?x14441xf32> to tensor<?x4xf32>
    %extracted_slice_790 = tensor.extract_slice %arg0[0, 4554] [%dim, 8] [1, 1] : tensor<?x14441xf32> to tensor<?x8xf32>
    %extracted_slice_791 = tensor.extract_slice %arg0[0, 4562] [%dim, 4] [1, 1] : tensor<?x14441xf32> to tensor<?x4xf32>
    %extracted_slice_792 = tensor.extract_slice %arg0[0, 4566] [%dim, 4] [1, 1] : tensor<?x14441xf32> to tensor<?x4xf32>
    %extracted_slice_793 = tensor.extract_slice %arg0[0, 4570] [%dim, 4] [1, 1] : tensor<?x14441xf32> to tensor<?x4xf32>
    %extracted_slice_794 = tensor.extract_slice %arg0[0, 4574] [%dim, 4] [1, 1] : tensor<?x14441xf32> to tensor<?x4xf32>
    %extracted_slice_795 = tensor.extract_slice %arg0[0, 4578] [%dim, 4] [1, 1] : tensor<?x14441xf32> to tensor<?x4xf32>
    %extracted_slice_796 = tensor.extract_slice %arg0[0, 4582] [%dim, 4] [1, 1] : tensor<?x14441xf32> to tensor<?x4xf32>
    %extracted_slice_797 = tensor.extract_slice %arg0[0, 4586] [%dim, 4] [1, 1] : tensor<?x14441xf32> to tensor<?x4xf32>
    %extracted_slice_798 = tensor.extract_slice %arg0[0, 4590] [%dim, 4] [1, 1] : tensor<?x14441xf32> to tensor<?x4xf32>
    %extracted_slice_799 = tensor.extract_slice %arg0[0, 4594] [%dim, 4] [1, 1] : tensor<?x14441xf32> to tensor<?x4xf32>
    %extracted_slice_800 = tensor.extract_slice %arg0[0, 4598] [%dim, 4] [1, 1] : tensor<?x14441xf32> to tensor<?x4xf32>
    %extracted_slice_801 = tensor.extract_slice %arg0[0, 4602] [%dim, 4] [1, 1] : tensor<?x14441xf32> to tensor<?x4xf32>
    %extracted_slice_802 = tensor.extract_slice %arg0[0, 4606] [%dim, 4] [1, 1] : tensor<?x14441xf32> to tensor<?x4xf32>
    %extracted_slice_803 = tensor.extract_slice %arg0[0, 4610] [%dim, 4] [1, 1] : tensor<?x14441xf32> to tensor<?x4xf32>
    %extracted_slice_804 = tensor.extract_slice %arg0[0, 4614] [%dim, 4] [1, 1] : tensor<?x14441xf32> to tensor<?x4xf32>
    %extracted_slice_805 = tensor.extract_slice %arg0[0, 4618] [%dim, 4] [1, 1] : tensor<?x14441xf32> to tensor<?x4xf32>
    %extracted_slice_806 = tensor.extract_slice %arg0[0, 4623] [%dim, 4] [1, 1] : tensor<?x14441xf32> to tensor<?x4xf32>
    %extracted_slice_807 = tensor.extract_slice %arg0[0, 4627] [%dim, 4] [1, 1] : tensor<?x14441xf32> to tensor<?x4xf32>
    %extracted_slice_808 = tensor.extract_slice %arg0[0, 4631] [%dim, 4] [1, 1] : tensor<?x14441xf32> to tensor<?x4xf32>
    %extracted_slice_809 = tensor.extract_slice %arg0[0, 4635] [%dim, 4] [1, 1] : tensor<?x14441xf32> to tensor<?x4xf32>
    %extracted_slice_810 = tensor.extract_slice %arg0[0, 4639] [%dim, 4] [1, 1] : tensor<?x14441xf32> to tensor<?x4xf32>
    %extracted_slice_811 = tensor.extract_slice %arg0[0, 4643] [%dim, 4] [1, 1] : tensor<?x14441xf32> to tensor<?x4xf32>
    %extracted_slice_812 = tensor.extract_slice %arg0[0, 4647] [%dim, 8] [1, 1] : tensor<?x14441xf32> to tensor<?x8xf32>
    %extracted_slice_813 = tensor.extract_slice %arg0[0, 4655] [%dim, 4] [1, 1] : tensor<?x14441xf32> to tensor<?x4xf32>
    %extracted_slice_814 = tensor.extract_slice %arg0[0, 4659] [%dim, 4] [1, 1] : tensor<?x14441xf32> to tensor<?x4xf32>
    %extracted_slice_815 = tensor.extract_slice %arg0[0, 4663] [%dim, 4] [1, 1] : tensor<?x14441xf32> to tensor<?x4xf32>
    %extracted_slice_816 = tensor.extract_slice %arg0[0, 4667] [%dim, 4] [1, 1] : tensor<?x14441xf32> to tensor<?x4xf32>
    %extracted_slice_817 = tensor.extract_slice %arg0[0, 4671] [%dim, 4] [1, 1] : tensor<?x14441xf32> to tensor<?x4xf32>
    %extracted_slice_818 = tensor.extract_slice %arg0[0, 4675] [%dim, 4] [1, 1] : tensor<?x14441xf32> to tensor<?x4xf32>
    %extracted_slice_819 = tensor.extract_slice %arg0[0, 4679] [%dim, 4] [1, 1] : tensor<?x14441xf32> to tensor<?x4xf32>
    %extracted_slice_820 = tensor.extract_slice %arg0[0, 4683] [%dim, 4] [1, 1] : tensor<?x14441xf32> to tensor<?x4xf32>
    %extracted_slice_821 = tensor.extract_slice %arg0[0, 4687] [%dim, 4] [1, 1] : tensor<?x14441xf32> to tensor<?x4xf32>
    %extracted_slice_822 = tensor.extract_slice %arg0[0, 4691] [%dim, 4] [1, 1] : tensor<?x14441xf32> to tensor<?x4xf32>
    %extracted_slice_823 = tensor.extract_slice %arg0[0, 4695] [%dim, 4] [1, 1] : tensor<?x14441xf32> to tensor<?x4xf32>
    %extracted_slice_824 = tensor.extract_slice %arg0[0, 4699] [%dim, 4] [1, 1] : tensor<?x14441xf32> to tensor<?x4xf32>
    %extracted_slice_825 = tensor.extract_slice %arg0[0, 4703] [%dim, 4] [1, 1] : tensor<?x14441xf32> to tensor<?x4xf32>
    %extracted_slice_826 = tensor.extract_slice %arg0[0, 4707] [%dim, 4] [1, 1] : tensor<?x14441xf32> to tensor<?x4xf32>
    %extracted_slice_827 = tensor.extract_slice %arg0[0, 4711] [%dim, 4] [1, 1] : tensor<?x14441xf32> to tensor<?x4xf32>
    %extracted_slice_828 = tensor.extract_slice %arg0[0, 4716] [%dim, 4] [1, 1] : tensor<?x14441xf32> to tensor<?x4xf32>
    %extracted_slice_829 = tensor.extract_slice %arg0[0, 4720] [%dim, 4] [1, 1] : tensor<?x14441xf32> to tensor<?x4xf32>
    %extracted_slice_830 = tensor.extract_slice %arg0[0, 4724] [%dim, 4] [1, 1] : tensor<?x14441xf32> to tensor<?x4xf32>
    %extracted_slice_831 = tensor.extract_slice %arg0[0, 4728] [%dim, 4] [1, 1] : tensor<?x14441xf32> to tensor<?x4xf32>
    %extracted_slice_832 = tensor.extract_slice %arg0[0, 4732] [%dim, 4] [1, 1] : tensor<?x14441xf32> to tensor<?x4xf32>
    %extracted_slice_833 = tensor.extract_slice %arg0[0, 4736] [%dim, 4] [1, 1] : tensor<?x14441xf32> to tensor<?x4xf32>
    %extracted_slice_834 = tensor.extract_slice %arg0[0, 4740] [%dim, 8] [1, 1] : tensor<?x14441xf32> to tensor<?x8xf32>
    %extracted_slice_835 = tensor.extract_slice %arg0[0, 4748] [%dim, 4] [1, 1] : tensor<?x14441xf32> to tensor<?x4xf32>
    %extracted_slice_836 = tensor.extract_slice %arg0[0, 4752] [%dim, 4] [1, 1] : tensor<?x14441xf32> to tensor<?x4xf32>
    %extracted_slice_837 = tensor.extract_slice %arg0[0, 4756] [%dim, 4] [1, 1] : tensor<?x14441xf32> to tensor<?x4xf32>
    %extracted_slice_838 = tensor.extract_slice %arg0[0, 4760] [%dim, 4] [1, 1] : tensor<?x14441xf32> to tensor<?x4xf32>
    %extracted_slice_839 = tensor.extract_slice %arg0[0, 4764] [%dim, 4] [1, 1] : tensor<?x14441xf32> to tensor<?x4xf32>
    %extracted_slice_840 = tensor.extract_slice %arg0[0, 4768] [%dim, 4] [1, 1] : tensor<?x14441xf32> to tensor<?x4xf32>
    %extracted_slice_841 = tensor.extract_slice %arg0[0, 4772] [%dim, 4] [1, 1] : tensor<?x14441xf32> to tensor<?x4xf32>
    %extracted_slice_842 = tensor.extract_slice %arg0[0, 4776] [%dim, 4] [1, 1] : tensor<?x14441xf32> to tensor<?x4xf32>
    %extracted_slice_843 = tensor.extract_slice %arg0[0, 4780] [%dim, 4] [1, 1] : tensor<?x14441xf32> to tensor<?x4xf32>
    %extracted_slice_844 = tensor.extract_slice %arg0[0, 4784] [%dim, 4] [1, 1] : tensor<?x14441xf32> to tensor<?x4xf32>
    %extracted_slice_845 = tensor.extract_slice %arg0[0, 4788] [%dim, 4] [1, 1] : tensor<?x14441xf32> to tensor<?x4xf32>
    %extracted_slice_846 = tensor.extract_slice %arg0[0, 4792] [%dim, 4] [1, 1] : tensor<?x14441xf32> to tensor<?x4xf32>
    %extracted_slice_847 = tensor.extract_slice %arg0[0, 4796] [%dim, 4] [1, 1] : tensor<?x14441xf32> to tensor<?x4xf32>
    %extracted_slice_848 = tensor.extract_slice %arg0[0, 4800] [%dim, 4] [1, 1] : tensor<?x14441xf32> to tensor<?x4xf32>
    %extracted_slice_849 = tensor.extract_slice %arg0[0, 4804] [%dim, 4] [1, 1] : tensor<?x14441xf32> to tensor<?x4xf32>
    %extracted_slice_850 = tensor.extract_slice %arg0[0, 4809] [%dim, 4] [1, 1] : tensor<?x14441xf32> to tensor<?x4xf32>
    %extracted_slice_851 = tensor.extract_slice %arg0[0, 4813] [%dim, 4] [1, 1] : tensor<?x14441xf32> to tensor<?x4xf32>
    %extracted_slice_852 = tensor.extract_slice %arg0[0, 4817] [%dim, 4] [1, 1] : tensor<?x14441xf32> to tensor<?x4xf32>
    %extracted_slice_853 = tensor.extract_slice %arg0[0, 4821] [%dim, 4] [1, 1] : tensor<?x14441xf32> to tensor<?x4xf32>
    %extracted_slice_854 = tensor.extract_slice %arg0[0, 4825] [%dim, 4] [1, 1] : tensor<?x14441xf32> to tensor<?x4xf32>
    %extracted_slice_855 = tensor.extract_slice %arg0[0, 4829] [%dim, 4] [1, 1] : tensor<?x14441xf32> to tensor<?x4xf32>
    %extracted_slice_856 = tensor.extract_slice %arg0[0, 4833] [%dim, 8] [1, 1] : tensor<?x14441xf32> to tensor<?x8xf32>
    %extracted_slice_857 = tensor.extract_slice %arg0[0, 4841] [%dim, 4] [1, 1] : tensor<?x14441xf32> to tensor<?x4xf32>
    %extracted_slice_858 = tensor.extract_slice %arg0[0, 4845] [%dim, 4] [1, 1] : tensor<?x14441xf32> to tensor<?x4xf32>
    %extracted_slice_859 = tensor.extract_slice %arg0[0, 4849] [%dim, 4] [1, 1] : tensor<?x14441xf32> to tensor<?x4xf32>
    %extracted_slice_860 = tensor.extract_slice %arg0[0, 4853] [%dim, 4] [1, 1] : tensor<?x14441xf32> to tensor<?x4xf32>
    %extracted_slice_861 = tensor.extract_slice %arg0[0, 4857] [%dim, 4] [1, 1] : tensor<?x14441xf32> to tensor<?x4xf32>
    %extracted_slice_862 = tensor.extract_slice %arg0[0, 4861] [%dim, 4] [1, 1] : tensor<?x14441xf32> to tensor<?x4xf32>
    %extracted_slice_863 = tensor.extract_slice %arg0[0, 4865] [%dim, 4] [1, 1] : tensor<?x14441xf32> to tensor<?x4xf32>
    %extracted_slice_864 = tensor.extract_slice %arg0[0, 4869] [%dim, 4] [1, 1] : tensor<?x14441xf32> to tensor<?x4xf32>
    %extracted_slice_865 = tensor.extract_slice %arg0[0, 4873] [%dim, 4] [1, 1] : tensor<?x14441xf32> to tensor<?x4xf32>
    %extracted_slice_866 = tensor.extract_slice %arg0[0, 4877] [%dim, 4] [1, 1] : tensor<?x14441xf32> to tensor<?x4xf32>
    %extracted_slice_867 = tensor.extract_slice %arg0[0, 4881] [%dim, 4] [1, 1] : tensor<?x14441xf32> to tensor<?x4xf32>
    %extracted_slice_868 = tensor.extract_slice %arg0[0, 4885] [%dim, 4] [1, 1] : tensor<?x14441xf32> to tensor<?x4xf32>
    %extracted_slice_869 = tensor.extract_slice %arg0[0, 4889] [%dim, 4] [1, 1] : tensor<?x14441xf32> to tensor<?x4xf32>
    %extracted_slice_870 = tensor.extract_slice %arg0[0, 4893] [%dim, 4] [1, 1] : tensor<?x14441xf32> to tensor<?x4xf32>
    %extracted_slice_871 = tensor.extract_slice %arg0[0, 4897] [%dim, 4] [1, 1] : tensor<?x14441xf32> to tensor<?x4xf32>
    %extracted_slice_872 = tensor.extract_slice %arg0[0, 4902] [%dim, 4] [1, 1] : tensor<?x14441xf32> to tensor<?x4xf32>
    %extracted_slice_873 = tensor.extract_slice %arg0[0, 4906] [%dim, 4] [1, 1] : tensor<?x14441xf32> to tensor<?x4xf32>
    %extracted_slice_874 = tensor.extract_slice %arg0[0, 4910] [%dim, 4] [1, 1] : tensor<?x14441xf32> to tensor<?x4xf32>
    %extracted_slice_875 = tensor.extract_slice %arg0[0, 4914] [%dim, 4] [1, 1] : tensor<?x14441xf32> to tensor<?x4xf32>
    %extracted_slice_876 = tensor.extract_slice %arg0[0, 4918] [%dim, 4] [1, 1] : tensor<?x14441xf32> to tensor<?x4xf32>
    %extracted_slice_877 = tensor.extract_slice %arg0[0, 4922] [%dim, 4] [1, 1] : tensor<?x14441xf32> to tensor<?x4xf32>
    %extracted_slice_878 = tensor.extract_slice %arg0[0, 4926] [%dim, 8] [1, 1] : tensor<?x14441xf32> to tensor<?x8xf32>
    %extracted_slice_879 = tensor.extract_slice %arg0[0, 4934] [%dim, 4] [1, 1] : tensor<?x14441xf32> to tensor<?x4xf32>
    %extracted_slice_880 = tensor.extract_slice %arg0[0, 4938] [%dim, 4] [1, 1] : tensor<?x14441xf32> to tensor<?x4xf32>
    %extracted_slice_881 = tensor.extract_slice %arg0[0, 4942] [%dim, 4] [1, 1] : tensor<?x14441xf32> to tensor<?x4xf32>
    %extracted_slice_882 = tensor.extract_slice %arg0[0, 4946] [%dim, 4] [1, 1] : tensor<?x14441xf32> to tensor<?x4xf32>
    %extracted_slice_883 = tensor.extract_slice %arg0[0, 4950] [%dim, 4] [1, 1] : tensor<?x14441xf32> to tensor<?x4xf32>
    %extracted_slice_884 = tensor.extract_slice %arg0[0, 4954] [%dim, 4] [1, 1] : tensor<?x14441xf32> to tensor<?x4xf32>
    %extracted_slice_885 = tensor.extract_slice %arg0[0, 4958] [%dim, 4] [1, 1] : tensor<?x14441xf32> to tensor<?x4xf32>
    %extracted_slice_886 = tensor.extract_slice %arg0[0, 4962] [%dim, 4] [1, 1] : tensor<?x14441xf32> to tensor<?x4xf32>
    %extracted_slice_887 = tensor.extract_slice %arg0[0, 4966] [%dim, 4] [1, 1] : tensor<?x14441xf32> to tensor<?x4xf32>
    %extracted_slice_888 = tensor.extract_slice %arg0[0, 4970] [%dim, 4] [1, 1] : tensor<?x14441xf32> to tensor<?x4xf32>
    %extracted_slice_889 = tensor.extract_slice %arg0[0, 4974] [%dim, 4] [1, 1] : tensor<?x14441xf32> to tensor<?x4xf32>
    %extracted_slice_890 = tensor.extract_slice %arg0[0, 4978] [%dim, 4] [1, 1] : tensor<?x14441xf32> to tensor<?x4xf32>
    %extracted_slice_891 = tensor.extract_slice %arg0[0, 4982] [%dim, 4] [1, 1] : tensor<?x14441xf32> to tensor<?x4xf32>
    %extracted_slice_892 = tensor.extract_slice %arg0[0, 4986] [%dim, 4] [1, 1] : tensor<?x14441xf32> to tensor<?x4xf32>
    %extracted_slice_893 = tensor.extract_slice %arg0[0, 4990] [%dim, 4] [1, 1] : tensor<?x14441xf32> to tensor<?x4xf32>
    %extracted_slice_894 = tensor.extract_slice %arg0[0, 4995] [%dim, 4] [1, 1] : tensor<?x14441xf32> to tensor<?x4xf32>
    %extracted_slice_895 = tensor.extract_slice %arg0[0, 4999] [%dim, 4] [1, 1] : tensor<?x14441xf32> to tensor<?x4xf32>
    %extracted_slice_896 = tensor.extract_slice %arg0[0, 5003] [%dim, 4] [1, 1] : tensor<?x14441xf32> to tensor<?x4xf32>
    %extracted_slice_897 = tensor.extract_slice %arg0[0, 5007] [%dim, 4] [1, 1] : tensor<?x14441xf32> to tensor<?x4xf32>
    %extracted_slice_898 = tensor.extract_slice %arg0[0, 5011] [%dim, 4] [1, 1] : tensor<?x14441xf32> to tensor<?x4xf32>
    %extracted_slice_899 = tensor.extract_slice %arg0[0, 5015] [%dim, 4] [1, 1] : tensor<?x14441xf32> to tensor<?x4xf32>
    %extracted_slice_900 = tensor.extract_slice %arg0[0, 5019] [%dim, 8] [1, 1] : tensor<?x14441xf32> to tensor<?x8xf32>
    %extracted_slice_901 = tensor.extract_slice %arg0[0, 5027] [%dim, 4] [1, 1] : tensor<?x14441xf32> to tensor<?x4xf32>
    %extracted_slice_902 = tensor.extract_slice %arg0[0, 5031] [%dim, 4] [1, 1] : tensor<?x14441xf32> to tensor<?x4xf32>
    %extracted_slice_903 = tensor.extract_slice %arg0[0, 5035] [%dim, 4] [1, 1] : tensor<?x14441xf32> to tensor<?x4xf32>
    %extracted_slice_904 = tensor.extract_slice %arg0[0, 5039] [%dim, 4] [1, 1] : tensor<?x14441xf32> to tensor<?x4xf32>
    %extracted_slice_905 = tensor.extract_slice %arg0[0, 5043] [%dim, 4] [1, 1] : tensor<?x14441xf32> to tensor<?x4xf32>
    %extracted_slice_906 = tensor.extract_slice %arg0[0, 5047] [%dim, 4] [1, 1] : tensor<?x14441xf32> to tensor<?x4xf32>
    %extracted_slice_907 = tensor.extract_slice %arg0[0, 5051] [%dim, 4] [1, 1] : tensor<?x14441xf32> to tensor<?x4xf32>
    %extracted_slice_908 = tensor.extract_slice %arg0[0, 5055] [%dim, 4] [1, 1] : tensor<?x14441xf32> to tensor<?x4xf32>
    %extracted_slice_909 = tensor.extract_slice %arg0[0, 5059] [%dim, 4] [1, 1] : tensor<?x14441xf32> to tensor<?x4xf32>
    %extracted_slice_910 = tensor.extract_slice %arg0[0, 5063] [%dim, 4] [1, 1] : tensor<?x14441xf32> to tensor<?x4xf32>
    %extracted_slice_911 = tensor.extract_slice %arg0[0, 5067] [%dim, 4] [1, 1] : tensor<?x14441xf32> to tensor<?x4xf32>
    %extracted_slice_912 = tensor.extract_slice %arg0[0, 5071] [%dim, 4] [1, 1] : tensor<?x14441xf32> to tensor<?x4xf32>
    %extracted_slice_913 = tensor.extract_slice %arg0[0, 5075] [%dim, 4] [1, 1] : tensor<?x14441xf32> to tensor<?x4xf32>
    %extracted_slice_914 = tensor.extract_slice %arg0[0, 5079] [%dim, 4] [1, 1] : tensor<?x14441xf32> to tensor<?x4xf32>
    %extracted_slice_915 = tensor.extract_slice %arg0[0, 5083] [%dim, 4] [1, 1] : tensor<?x14441xf32> to tensor<?x4xf32>
    %extracted_slice_916 = tensor.extract_slice %arg0[0, 5088] [%dim, 4] [1, 1] : tensor<?x14441xf32> to tensor<?x4xf32>
    %extracted_slice_917 = tensor.extract_slice %arg0[0, 5092] [%dim, 4] [1, 1] : tensor<?x14441xf32> to tensor<?x4xf32>
    %extracted_slice_918 = tensor.extract_slice %arg0[0, 5096] [%dim, 4] [1, 1] : tensor<?x14441xf32> to tensor<?x4xf32>
    %extracted_slice_919 = tensor.extract_slice %arg0[0, 5100] [%dim, 4] [1, 1] : tensor<?x14441xf32> to tensor<?x4xf32>
    %extracted_slice_920 = tensor.extract_slice %arg0[0, 5104] [%dim, 4] [1, 1] : tensor<?x14441xf32> to tensor<?x4xf32>
    %extracted_slice_921 = tensor.extract_slice %arg0[0, 5108] [%dim, 4] [1, 1] : tensor<?x14441xf32> to tensor<?x4xf32>
    %extracted_slice_922 = tensor.extract_slice %arg0[0, 5112] [%dim, 8] [1, 1] : tensor<?x14441xf32> to tensor<?x8xf32>
    %extracted_slice_923 = tensor.extract_slice %arg0[0, 5120] [%dim, 4] [1, 1] : tensor<?x14441xf32> to tensor<?x4xf32>
    %extracted_slice_924 = tensor.extract_slice %arg0[0, 5124] [%dim, 4] [1, 1] : tensor<?x14441xf32> to tensor<?x4xf32>
    %extracted_slice_925 = tensor.extract_slice %arg0[0, 5128] [%dim, 4] [1, 1] : tensor<?x14441xf32> to tensor<?x4xf32>
    %extracted_slice_926 = tensor.extract_slice %arg0[0, 5132] [%dim, 4] [1, 1] : tensor<?x14441xf32> to tensor<?x4xf32>
    %extracted_slice_927 = tensor.extract_slice %arg0[0, 5136] [%dim, 4] [1, 1] : tensor<?x14441xf32> to tensor<?x4xf32>
    %extracted_slice_928 = tensor.extract_slice %arg0[0, 5140] [%dim, 4] [1, 1] : tensor<?x14441xf32> to tensor<?x4xf32>
    %extracted_slice_929 = tensor.extract_slice %arg0[0, 5144] [%dim, 4] [1, 1] : tensor<?x14441xf32> to tensor<?x4xf32>
    %extracted_slice_930 = tensor.extract_slice %arg0[0, 5148] [%dim, 4] [1, 1] : tensor<?x14441xf32> to tensor<?x4xf32>
    %extracted_slice_931 = tensor.extract_slice %arg0[0, 5152] [%dim, 4] [1, 1] : tensor<?x14441xf32> to tensor<?x4xf32>
    %extracted_slice_932 = tensor.extract_slice %arg0[0, 5156] [%dim, 4] [1, 1] : tensor<?x14441xf32> to tensor<?x4xf32>
    %extracted_slice_933 = tensor.extract_slice %arg0[0, 5160] [%dim, 4] [1, 1] : tensor<?x14441xf32> to tensor<?x4xf32>
    %extracted_slice_934 = tensor.extract_slice %arg0[0, 5164] [%dim, 4] [1, 1] : tensor<?x14441xf32> to tensor<?x4xf32>
    %extracted_slice_935 = tensor.extract_slice %arg0[0, 5168] [%dim, 4] [1, 1] : tensor<?x14441xf32> to tensor<?x4xf32>
    %extracted_slice_936 = tensor.extract_slice %arg0[0, 5172] [%dim, 4] [1, 1] : tensor<?x14441xf32> to tensor<?x4xf32>
    %extracted_slice_937 = tensor.extract_slice %arg0[0, 5176] [%dim, 4] [1, 1] : tensor<?x14441xf32> to tensor<?x4xf32>
    %extracted_slice_938 = tensor.extract_slice %arg0[0, 5181] [%dim, 4] [1, 1] : tensor<?x14441xf32> to tensor<?x4xf32>
    %extracted_slice_939 = tensor.extract_slice %arg0[0, 5185] [%dim, 4] [1, 1] : tensor<?x14441xf32> to tensor<?x4xf32>
    %extracted_slice_940 = tensor.extract_slice %arg0[0, 5189] [%dim, 4] [1, 1] : tensor<?x14441xf32> to tensor<?x4xf32>
    %extracted_slice_941 = tensor.extract_slice %arg0[0, 5193] [%dim, 4] [1, 1] : tensor<?x14441xf32> to tensor<?x4xf32>
    %extracted_slice_942 = tensor.extract_slice %arg0[0, 5197] [%dim, 4] [1, 1] : tensor<?x14441xf32> to tensor<?x4xf32>
    %extracted_slice_943 = tensor.extract_slice %arg0[0, 5201] [%dim, 4] [1, 1] : tensor<?x14441xf32> to tensor<?x4xf32>
    %extracted_slice_944 = tensor.extract_slice %arg0[0, 5205] [%dim, 8] [1, 1] : tensor<?x14441xf32> to tensor<?x8xf32>
    %extracted_slice_945 = tensor.extract_slice %arg0[0, 5213] [%dim, 4] [1, 1] : tensor<?x14441xf32> to tensor<?x4xf32>
    %extracted_slice_946 = tensor.extract_slice %arg0[0, 5217] [%dim, 4] [1, 1] : tensor<?x14441xf32> to tensor<?x4xf32>
    %extracted_slice_947 = tensor.extract_slice %arg0[0, 5221] [%dim, 4] [1, 1] : tensor<?x14441xf32> to tensor<?x4xf32>
    %extracted_slice_948 = tensor.extract_slice %arg0[0, 5225] [%dim, 4] [1, 1] : tensor<?x14441xf32> to tensor<?x4xf32>
    %extracted_slice_949 = tensor.extract_slice %arg0[0, 5229] [%dim, 4] [1, 1] : tensor<?x14441xf32> to tensor<?x4xf32>
    %extracted_slice_950 = tensor.extract_slice %arg0[0, 5233] [%dim, 4] [1, 1] : tensor<?x14441xf32> to tensor<?x4xf32>
    %extracted_slice_951 = tensor.extract_slice %arg0[0, 5237] [%dim, 4] [1, 1] : tensor<?x14441xf32> to tensor<?x4xf32>
    %extracted_slice_952 = tensor.extract_slice %arg0[0, 5241] [%dim, 4] [1, 1] : tensor<?x14441xf32> to tensor<?x4xf32>
    %extracted_slice_953 = tensor.extract_slice %arg0[0, 5245] [%dim, 4] [1, 1] : tensor<?x14441xf32> to tensor<?x4xf32>
    %extracted_slice_954 = tensor.extract_slice %arg0[0, 5249] [%dim, 4] [1, 1] : tensor<?x14441xf32> to tensor<?x4xf32>
    %extracted_slice_955 = tensor.extract_slice %arg0[0, 5253] [%dim, 4] [1, 1] : tensor<?x14441xf32> to tensor<?x4xf32>
    %extracted_slice_956 = tensor.extract_slice %arg0[0, 5257] [%dim, 4] [1, 1] : tensor<?x14441xf32> to tensor<?x4xf32>
    %extracted_slice_957 = tensor.extract_slice %arg0[0, 5261] [%dim, 4] [1, 1] : tensor<?x14441xf32> to tensor<?x4xf32>
    %extracted_slice_958 = tensor.extract_slice %arg0[0, 5265] [%dim, 4] [1, 1] : tensor<?x14441xf32> to tensor<?x4xf32>
    %extracted_slice_959 = tensor.extract_slice %arg0[0, 5269] [%dim, 4] [1, 1] : tensor<?x14441xf32> to tensor<?x4xf32>
    %extracted_slice_960 = tensor.extract_slice %arg0[0, 5274] [%dim, 4] [1, 1] : tensor<?x14441xf32> to tensor<?x4xf32>
    %extracted_slice_961 = tensor.extract_slice %arg0[0, 5278] [%dim, 4] [1, 1] : tensor<?x14441xf32> to tensor<?x4xf32>
    %extracted_slice_962 = tensor.extract_slice %arg0[0, 5282] [%dim, 4] [1, 1] : tensor<?x14441xf32> to tensor<?x4xf32>
    %extracted_slice_963 = tensor.extract_slice %arg0[0, 5286] [%dim, 4] [1, 1] : tensor<?x14441xf32> to tensor<?x4xf32>
    %extracted_slice_964 = tensor.extract_slice %arg0[0, 5290] [%dim, 4] [1, 1] : tensor<?x14441xf32> to tensor<?x4xf32>
    %extracted_slice_965 = tensor.extract_slice %arg0[0, 5294] [%dim, 4] [1, 1] : tensor<?x14441xf32> to tensor<?x4xf32>
    %extracted_slice_966 = tensor.extract_slice %arg0[0, 5298] [%dim, 8] [1, 1] : tensor<?x14441xf32> to tensor<?x8xf32>
    %extracted_slice_967 = tensor.extract_slice %arg0[0, 5306] [%dim, 4] [1, 1] : tensor<?x14441xf32> to tensor<?x4xf32>
    %extracted_slice_968 = tensor.extract_slice %arg0[0, 5310] [%dim, 4] [1, 1] : tensor<?x14441xf32> to tensor<?x4xf32>
    %extracted_slice_969 = tensor.extract_slice %arg0[0, 5314] [%dim, 4] [1, 1] : tensor<?x14441xf32> to tensor<?x4xf32>
    %extracted_slice_970 = tensor.extract_slice %arg0[0, 5318] [%dim, 4] [1, 1] : tensor<?x14441xf32> to tensor<?x4xf32>
    %extracted_slice_971 = tensor.extract_slice %arg0[0, 5322] [%dim, 4] [1, 1] : tensor<?x14441xf32> to tensor<?x4xf32>
    %extracted_slice_972 = tensor.extract_slice %arg0[0, 5326] [%dim, 4] [1, 1] : tensor<?x14441xf32> to tensor<?x4xf32>
    %extracted_slice_973 = tensor.extract_slice %arg0[0, 5330] [%dim, 4] [1, 1] : tensor<?x14441xf32> to tensor<?x4xf32>
    %extracted_slice_974 = tensor.extract_slice %arg0[0, 5334] [%dim, 4] [1, 1] : tensor<?x14441xf32> to tensor<?x4xf32>
    %extracted_slice_975 = tensor.extract_slice %arg0[0, 5338] [%dim, 4] [1, 1] : tensor<?x14441xf32> to tensor<?x4xf32>
    %extracted_slice_976 = tensor.extract_slice %arg0[0, 5342] [%dim, 4] [1, 1] : tensor<?x14441xf32> to tensor<?x4xf32>
    %extracted_slice_977 = tensor.extract_slice %arg0[0, 5346] [%dim, 4] [1, 1] : tensor<?x14441xf32> to tensor<?x4xf32>
    %extracted_slice_978 = tensor.extract_slice %arg0[0, 5350] [%dim, 4] [1, 1] : tensor<?x14441xf32> to tensor<?x4xf32>
    %extracted_slice_979 = tensor.extract_slice %arg0[0, 5354] [%dim, 4] [1, 1] : tensor<?x14441xf32> to tensor<?x4xf32>
    %extracted_slice_980 = tensor.extract_slice %arg0[0, 5358] [%dim, 4] [1, 1] : tensor<?x14441xf32> to tensor<?x4xf32>
    %extracted_slice_981 = tensor.extract_slice %arg0[0, 5362] [%dim, 4] [1, 1] : tensor<?x14441xf32> to tensor<?x4xf32>
    %extracted_slice_982 = tensor.extract_slice %arg0[0, 5366] [%dim, 1] [1, 1] : tensor<?x14441xf32> to tensor<?x1xf32>
    %extracted_slice_983 = tensor.extract_slice %arg0[0, 5367] [%dim, 16] [1, 1] : tensor<?x14441xf32> to tensor<?x16xf32>
    %extracted_slice_984 = tensor.extract_slice %arg0[0, 5383] [%dim, 16] [1, 1] : tensor<?x14441xf32> to tensor<?x16xf32>
    %extracted_slice_985 = tensor.extract_slice %arg0[0, 5399] [%dim, 8] [1, 1] : tensor<?x14441xf32> to tensor<?x8xf32>
    %extracted_slice_986 = tensor.extract_slice %arg0[0, 5407] [%dim, 8] [1, 1] : tensor<?x14441xf32> to tensor<?x8xf32>
    %extracted_slice_987 = tensor.extract_slice %arg0[0, 5415] [%dim, 8] [1, 1] : tensor<?x14441xf32> to tensor<?x8xf32>
    %extracted_slice_988 = tensor.extract_slice %arg0[0, 5423] [%dim, 8] [1, 1] : tensor<?x14441xf32> to tensor<?x8xf32>
    %extracted_slice_989 = tensor.extract_slice %arg0[0, 5431] [%dim, 8] [1, 1] : tensor<?x14441xf32> to tensor<?x8xf32>
    %extracted_slice_990 = tensor.extract_slice %arg0[0, 5439] [%dim, 8] [1, 1] : tensor<?x14441xf32> to tensor<?x8xf32>
    %extracted_slice_991 = tensor.extract_slice %arg0[0, 5447] [%dim, 8] [1, 1] : tensor<?x14441xf32> to tensor<?x8xf32>
    %extracted_slice_992 = tensor.extract_slice %arg0[0, 5455] [%dim, 8] [1, 1] : tensor<?x14441xf32> to tensor<?x8xf32>
    %extracted_slice_993 = tensor.extract_slice %arg0[0, 5463] [%dim, 1] [1, 1] : tensor<?x14441xf32> to tensor<?x1xf32>
    %extracted_slice_994 = tensor.extract_slice %arg0[0, 5464] [%dim, 16] [1, 1] : tensor<?x14441xf32> to tensor<?x16xf32>
    %extracted_slice_995 = tensor.extract_slice %arg0[0, 5480] [%dim, 16] [1, 1] : tensor<?x14441xf32> to tensor<?x16xf32>
    %extracted_slice_996 = tensor.extract_slice %arg0[0, 5496] [%dim, 8] [1, 1] : tensor<?x14441xf32> to tensor<?x8xf32>
    %extracted_slice_997 = tensor.extract_slice %arg0[0, 5504] [%dim, 4] [1, 1] : tensor<?x14441xf32> to tensor<?x4xf32>
    %extracted_slice_998 = tensor.extract_slice %arg0[0, 5508] [%dim, 8] [1, 1] : tensor<?x14441xf32> to tensor<?x8xf32>
    %extracted_slice_999 = tensor.extract_slice %arg0[0, 5516] [%dim, 4] [1, 1] : tensor<?x14441xf32> to tensor<?x4xf32>
    %extracted_slice_1000 = tensor.extract_slice %arg0[0, 5520] [%dim, 8] [1, 1] : tensor<?x14441xf32> to tensor<?x8xf32>
    %extracted_slice_1001 = tensor.extract_slice %arg0[0, 5528] [%dim, 4] [1, 1] : tensor<?x14441xf32> to tensor<?x4xf32>
    %extracted_slice_1002 = tensor.extract_slice %arg0[0, 5532] [%dim, 4] [1, 1] : tensor<?x14441xf32> to tensor<?x4xf32>
    %extracted_slice_1003 = tensor.extract_slice %arg0[0, 5536] [%dim, 4] [1, 1] : tensor<?x14441xf32> to tensor<?x4xf32>
    %extracted_slice_1004 = tensor.extract_slice %arg0[0, 5540] [%dim, 8] [1, 1] : tensor<?x14441xf32> to tensor<?x8xf32>
    %extracted_slice_1005 = tensor.extract_slice %arg0[0, 5548] [%dim, 4] [1, 1] : tensor<?x14441xf32> to tensor<?x4xf32>
    %extracted_slice_1006 = tensor.extract_slice %arg0[0, 5552] [%dim, 8] [1, 1] : tensor<?x14441xf32> to tensor<?x8xf32>
    %extracted_slice_1007 = tensor.extract_slice %arg0[0, 5560] [%dim, 4] [1, 1] : tensor<?x14441xf32> to tensor<?x4xf32>
    %extracted_slice_1008 = tensor.extract_slice %arg0[0, 5565] [%dim, 64] [1, 1] : tensor<?x14441xf32> to tensor<?x64xf32>
    %extracted_slice_1009 = tensor.extract_slice %arg0[0, 5629] [%dim, 8] [1, 1] : tensor<?x14441xf32> to tensor<?x8xf32>
    %extracted_slice_1010 = tensor.extract_slice %arg0[0, 5637] [%dim, 64] [1, 1] : tensor<?x14441xf32> to tensor<?x64xf32>
    %extracted_slice_1011 = tensor.extract_slice %arg0[0, 5702] [%dim, 8] [1, 1] : tensor<?x14441xf32> to tensor<?x8xf32>
    %extracted_slice_1012 = tensor.extract_slice %arg0[0, 5710] [%dim, 8] [1, 1] : tensor<?x14441xf32> to tensor<?x8xf32>
    %extracted_slice_1013 = tensor.extract_slice %arg0[0, 5718] [%dim, 8] [1, 1] : tensor<?x14441xf32> to tensor<?x8xf32>
    %extracted_slice_1014 = tensor.extract_slice %arg0[0, 5726] [%dim, 8] [1, 1] : tensor<?x14441xf32> to tensor<?x8xf32>
    %extracted_slice_1015 = tensor.extract_slice %arg0[0, 5734] [%dim, 8] [1, 1] : tensor<?x14441xf32> to tensor<?x8xf32>
    %extracted_slice_1016 = tensor.extract_slice %arg0[0, 5742] [%dim, 8] [1, 1] : tensor<?x14441xf32> to tensor<?x8xf32>
    %extracted_slice_1017 = tensor.extract_slice %arg0[0, 5750] [%dim, 8] [1, 1] : tensor<?x14441xf32> to tensor<?x8xf32>
    %extracted_slice_1018 = tensor.extract_slice %arg0[0, 5758] [%dim, 16] [1, 1] : tensor<?x14441xf32> to tensor<?x16xf32>
    %extracted_slice_1019 = tensor.extract_slice %arg0[0, 5774] [%dim, 16] [1, 1] : tensor<?x14441xf32> to tensor<?x16xf32>
    %extracted_slice_1020 = tensor.extract_slice %arg0[0, 5790] [%dim, 16] [1, 1] : tensor<?x14441xf32> to tensor<?x16xf32>
    %extracted_slice_1021 = tensor.extract_slice %arg0[0, 5806] [%dim, 16] [1, 1] : tensor<?x14441xf32> to tensor<?x16xf32>
    %extracted_slice_1022 = tensor.extract_slice %arg0[0, 5822] [%dim, 16] [1, 1] : tensor<?x14441xf32> to tensor<?x16xf32>
    %extracted_slice_1023 = tensor.extract_slice %arg0[0, 5838] [%dim, 16] [1, 1] : tensor<?x14441xf32> to tensor<?x16xf32>
    %extracted_slice_1024 = tensor.extract_slice %arg0[0, 5854] [%dim, 16] [1, 1] : tensor<?x14441xf32> to tensor<?x16xf32>
    %extracted_slice_1025 = tensor.extract_slice %arg0[0, 5870] [%dim, 16] [1, 1] : tensor<?x14441xf32> to tensor<?x16xf32>
    %extracted_slice_1026 = tensor.extract_slice %arg0[0, 5887] [%dim, 32] [1, 1] : tensor<?x14441xf32> to tensor<?x32xf32>
    %extracted_slice_1027 = tensor.extract_slice %arg0[0, 5919] [%dim, 32] [1, 1] : tensor<?x14441xf32> to tensor<?x32xf32>
    %extracted_slice_1028 = tensor.extract_slice %arg0[0, 5951] [%dim, 32] [1, 1] : tensor<?x14441xf32> to tensor<?x32xf32>
    %extracted_slice_1029 = tensor.extract_slice %arg0[0, 5983] [%dim, 8] [1, 1] : tensor<?x14441xf32> to tensor<?x8xf32>
    %extracted_slice_1030 = tensor.extract_slice %arg0[0, 5991] [%dim, 16] [1, 1] : tensor<?x14441xf32> to tensor<?x16xf32>
    %extracted_slice_1031 = tensor.extract_slice %arg0[0, 6007] [%dim, 16] [1, 1] : tensor<?x14441xf32> to tensor<?x16xf32>
    %extracted_slice_1032 = tensor.extract_slice %arg0[0, 6023] [%dim, 16] [1, 1] : tensor<?x14441xf32> to tensor<?x16xf32>
    %extracted_slice_1033 = tensor.extract_slice %arg0[0, 6039] [%dim, 8] [1, 1] : tensor<?x14441xf32> to tensor<?x8xf32>
    %extracted_slice_1034 = tensor.extract_slice %arg0[0, 6047] [%dim, 32] [1, 1] : tensor<?x14441xf32> to tensor<?x32xf32>
    %extracted_slice_1035 = tensor.extract_slice %arg0[0, 6079] [%dim, 1] [1, 1] : tensor<?x14441xf32> to tensor<?x1xf32>
    %extracted_slice_1036 = tensor.extract_slice %arg0[0, 6080] [%dim, 8] [1, 1] : tensor<?x14441xf32> to tensor<?x8xf32>
    %extracted_slice_1037 = tensor.extract_slice %arg0[0, 6088] [%dim, 16] [1, 1] : tensor<?x14441xf32> to tensor<?x16xf32>
    %extracted_slice_1038 = tensor.extract_slice %arg0[0, 6104] [%dim, 16] [1, 1] : tensor<?x14441xf32> to tensor<?x16xf32>
    %extracted_slice_1039 = tensor.extract_slice %arg0[0, 6120] [%dim, 8] [1, 1] : tensor<?x14441xf32> to tensor<?x8xf32>
    %extracted_slice_1040 = tensor.extract_slice %arg0[0, 6128] [%dim, 8] [1, 1] : tensor<?x14441xf32> to tensor<?x8xf32>
    %extracted_slice_1041 = tensor.extract_slice %arg0[0, 6136] [%dim, 8] [1, 1] : tensor<?x14441xf32> to tensor<?x8xf32>
    %extracted_slice_1042 = tensor.extract_slice %arg0[0, 6144] [%dim, 8] [1, 1] : tensor<?x14441xf32> to tensor<?x8xf32>
    %extracted_slice_1043 = tensor.extract_slice %arg0[0, 6152] [%dim, 8] [1, 1] : tensor<?x14441xf32> to tensor<?x8xf32>
    %extracted_slice_1044 = tensor.extract_slice %arg0[0, 6160] [%dim, 8] [1, 1] : tensor<?x14441xf32> to tensor<?x8xf32>
    %extracted_slice_1045 = tensor.extract_slice %arg0[0, 6168] [%dim, 8] [1, 1] : tensor<?x14441xf32> to tensor<?x8xf32>
    %extracted_slice_1046 = tensor.extract_slice %arg0[0, 6176] [%dim, 8] [1, 1] : tensor<?x14441xf32> to tensor<?x8xf32>
    %extracted_slice_1047 = tensor.extract_slice %arg0[0, 6184] [%dim, 8] [1, 1] : tensor<?x14441xf32> to tensor<?x8xf32>
    %extracted_slice_1048 = tensor.extract_slice %arg0[0, 6192] [%dim, 8] [1, 1] : tensor<?x14441xf32> to tensor<?x8xf32>
    %extracted_slice_1049 = tensor.extract_slice %arg0[0, 6200] [%dim, 8] [1, 1] : tensor<?x14441xf32> to tensor<?x8xf32>
    %extracted_slice_1050 = tensor.extract_slice %arg0[0, 6208] [%dim, 8] [1, 1] : tensor<?x14441xf32> to tensor<?x8xf32>
    %extracted_slice_1051 = tensor.extract_slice %arg0[0, 6216] [%dim, 8] [1, 1] : tensor<?x14441xf32> to tensor<?x8xf32>
    %extracted_slice_1052 = tensor.extract_slice %arg0[0, 6224] [%dim, 8] [1, 1] : tensor<?x14441xf32> to tensor<?x8xf32>
    %extracted_slice_1053 = tensor.extract_slice %arg0[0, 6232] [%dim, 8] [1, 1] : tensor<?x14441xf32> to tensor<?x8xf32>
    %extracted_slice_1054 = tensor.extract_slice %arg0[0, 6240] [%dim, 8] [1, 1] : tensor<?x14441xf32> to tensor<?x8xf32>
    %extracted_slice_1055 = tensor.extract_slice %arg0[0, 6248] [%dim, 8] [1, 1] : tensor<?x14441xf32> to tensor<?x8xf32>
    %extracted_slice_1056 = tensor.extract_slice %arg0[0, 6256] [%dim, 8] [1, 1] : tensor<?x14441xf32> to tensor<?x8xf32>
    %extracted_slice_1057 = tensor.extract_slice %arg0[0, 6264] [%dim, 8] [1, 1] : tensor<?x14441xf32> to tensor<?x8xf32>
    %extracted_slice_1058 = tensor.extract_slice %arg0[0, 6272] [%dim, 8] [1, 1] : tensor<?x14441xf32> to tensor<?x8xf32>
    %extracted_slice_1059 = tensor.extract_slice %arg0[0, 6280] [%dim, 8] [1, 1] : tensor<?x14441xf32> to tensor<?x8xf32>
    %extracted_slice_1060 = tensor.extract_slice %arg0[0, 6288] [%dim, 1] [1, 1] : tensor<?x14441xf32> to tensor<?x1xf32>
    %extracted_slice_1061 = tensor.extract_slice %arg0[0, 6289] [%dim, 8] [1, 1] : tensor<?x14441xf32> to tensor<?x8xf32>
    %extracted_slice_1062 = tensor.extract_slice %arg0[0, 6297] [%dim, 16] [1, 1] : tensor<?x14441xf32> to tensor<?x16xf32>
    %extracted_slice_1063 = tensor.extract_slice %arg0[0, 6313] [%dim, 16] [1, 1] : tensor<?x14441xf32> to tensor<?x16xf32>
    %extracted_slice_1064 = tensor.extract_slice %arg0[0, 6329] [%dim, 8] [1, 1] : tensor<?x14441xf32> to tensor<?x8xf32>
    %extracted_slice_1065 = tensor.extract_slice %arg0[0, 6337] [%dim, 8] [1, 1] : tensor<?x14441xf32> to tensor<?x8xf32>
    %extracted_slice_1066 = tensor.extract_slice %arg0[0, 6345] [%dim, 8] [1, 1] : tensor<?x14441xf32> to tensor<?x8xf32>
    %extracted_slice_1067 = tensor.extract_slice %arg0[0, 6353] [%dim, 8] [1, 1] : tensor<?x14441xf32> to tensor<?x8xf32>
    %extracted_slice_1068 = tensor.extract_slice %arg0[0, 6361] [%dim, 8] [1, 1] : tensor<?x14441xf32> to tensor<?x8xf32>
…
    %586 = stablehlo.dynamic_broadcast_in_dim %cst_1, %585, dims = [] : (tensor<f32>, tensor<2xindex>) -> tensor<?x128xf32>
    %587 = stablehlo.maximum %584, %586 : tensor<?x128xf32>
    %588 = stablehlo.dot %587, %arg160, precision = [DEFAULT, DEFAULT] : (tensor<?x128xf32>, tensor<128x116xf32>) -> tensor<?x116xf32>
    %589 = shape.shape_of %588 : tensor<?x116xf32> -> tensor<2xindex>
    %590 = stablehlo.dynamic_broadcast_in_dim %arg161, %589, dims = [1] : (tensor<116xf32>, tensor<2xindex>) -> tensor<?x116xf32>
    %591 = stablehlo.add %588, %590 : tensor<?x116xf32>
    %592 = stablehlo.logistic %591 : tensor<?x116xf32>
    %dim_1599 = tensor.dim %592, %c0 : tensor<?x116xf32>
    %from_elements_1600 = tensor.from_elements %dim_1599, %c1, %c116 : tensor<3xindex>
    %dim_1601 = tensor.dim %592, %c0 : tensor<?x116xf32>
    %expanded_1602 = tensor.expand_shape %592 [[0], [1, 2]] output_shape [%dim_1601, 1, 116] : tensor<?x116xf32> into tensor<?x1x116xf32>
    %593 = stablehlo.dynamic_broadcast_in_dim %cst, %from_elements_1600, dims = [] : (tensor<f32>, tensor<3xindex>) -> tensor<?x1x116xf32>
    %594 = stablehlo.multiply %expanded_1602, %593 : tensor<?x1x116xf32>
    %595 = stablehlo.dot %102, %arg162, precision = [DEFAULT, DEFAULT] : (tensor<?x236xf32>, tensor<236x128xf32>) -> tensor<?x128xf32>
    %596 = shape.shape_of %595 : tensor<?x128xf32> -> tensor<2xindex>
    %597 = stablehlo.dynamic_broadcast_in_dim %arg163, %596, dims = [1] : (tensor<128xf32>, tensor<2xindex>) -> tensor<?x128xf32>
    %598 = stablehlo.add %595, %597 : tensor<?x128xf32>
    %599 = shape.shape_of %598 : tensor<?x128xf32> -> tensor<2xindex>
    %600 = stablehlo.dynamic_broadcast_in_dim %cst_1, %599, dims = [] : (tensor<f32>, tensor<2xindex>) -> tensor<?x128xf32>
    %601 = stablehlo.maximum %598, %600 : tensor<?x128xf32>
    %602 = stablehlo.dot %601, %arg164, precision = [DEFAULT, DEFAULT] : (tensor<?x128xf32>, tensor<128x116xf32>) -> tensor<?x116xf32>
    %603 = shape.shape_of %602 : tensor<?x116xf32> -> tensor<2xindex>
    %604 = stablehlo.dynamic_broadcast_in_dim %arg165, %603, dims = [1] : (tensor<116xf32>, tensor<2xindex>) -> tensor<?x116xf32>
    %605 = stablehlo.add %602, %604 : tensor<?x116xf32>
    %606 = stablehlo.logistic %605 : tensor<?x116xf32>
    %dim_1603 = tensor.dim %606, %c0 : tensor<?x116xf32>
    %from_elements_1604 = tensor.from_elements %dim_1603, %c1, %c116 : tensor<3xindex>
    %dim_1605 = tensor.dim %606, %c0 : tensor<?x116xf32>
    %expanded_1606 = tensor.expand_shape %606 [[0], [1, 2]] output_shape [%dim_1605, 1, 116] : tensor<?x116xf32> into tensor<?x1x116xf32>
    %607 = stablehlo.dynamic_broadcast_in_dim %cst, %from_elements_1604, dims = [] : (tensor<f32>, tensor<3xindex>) -> tensor<?x1x116xf32>
    %608 = stablehlo.multiply %expanded_1606, %607 : tensor<?x1x116xf32>
    %609 = stablehlo.dot %60, %arg166, precision = [DEFAULT, DEFAULT] : (tensor<?x236xf32>, tensor<236x128xf32>) -> tensor<?x128xf32>
    %610 = shape.shape_of %609 : tensor<?x128xf32> -> tensor<2xindex>
    %611 = stablehlo.dynamic_broadcast_in_dim %arg167, %610, dims = [1] : (tensor<128xf32>, tensor<2xindex>) -> tensor<?x128xf32>
    %612 = stablehlo.add %609, %611 : tensor<?x128xf32>
    %613 = shape.shape_of %612 : tensor<?x128xf32> -> tensor<2xindex>
    %614 = stablehlo.dynamic_broadcast_in_dim %cst_1, %613, dims = [] : (tensor<f32>, tensor<2xindex>) -> tensor<?x128xf32>
    %615 = stablehlo.maximum %612, %614 : tensor<?x128xf32>
    %616 = stablehlo.dot %615, %arg168, precision = [DEFAULT, DEFAULT] : (tensor<?x128xf32>, tensor<128x72xf32>) -> tensor<?x72xf32>
    %617 = shape.shape_of %616 : tensor<?x72xf32> -> tensor<2xindex>
    %618 = stablehlo.dynamic_broadcast_in_dim %arg169, %617, dims = [1] : (tensor<72xf32>, tensor<2xindex>) -> tensor<?x72xf32>
    %619 = stablehlo.add %616, %618 : tensor<?x72xf32>
    %620 = stablehlo.logistic %619 : tensor<?x72xf32>
    %dim_1607 = tensor.dim %620, %c0 : tensor<?x72xf32>
    %from_elements_1608 = tensor.from_elements %dim_1607, %c1, %c72 : tensor<3xindex>
    %dim_1609 = tensor.dim %620, %c0 : tensor<?x72xf32>
    %expanded_1610 = tensor.expand_shape %620 [[0], [1, 2]] output_shape [%dim_1609, 1, 72] : tensor<?x72xf32> into tensor<?x1x72xf32>
    %621 = stablehlo.dynamic_broadcast_in_dim %cst, %from_elements_1608, dims = [] : (tensor<f32>, tensor<3xindex>) -> tensor<?x1x72xf32>
    %622 = stablehlo.multiply %expanded_1610, %621 : tensor<?x1x72xf32>
    %623 = stablehlo.dot %60, %arg170, precision = [DEFAULT, DEFAULT] : (tensor<?x236xf32>, tensor<236x128xf32>) -> tensor<?x128xf32>
    %624 = shape.shape_of %623 : tensor<?x128xf32> -> tensor<2xindex>
    %625 = stablehlo.dynamic_broadcast_in_dim %arg171, %624, dims = [1] : (tensor<128xf32>, tensor<2xindex>) -> tensor<?x128xf32>
    %626 = stablehlo.add %623, %625 : tensor<?x128xf32>
    %627 = shape.shape_of %626 : tensor<?x128xf32> -> tensor<2xindex>
    %628 = stablehlo.dynamic_broadcast_in_dim %cst_1, %627, dims = [] : (tensor<f32>, tensor<2xindex>) -> tensor<?x128xf32>
    %629 = stablehlo.maximum %626, %628 : tensor<?x128xf32>
    %630 = stablehlo.dot %629, %arg172, precision = [DEFAULT, DEFAULT] : (tensor<?x128xf32>, tensor<128x72xf32>) -> tensor<?x72xf32>
    %631 = shape.shape_of %630 : tensor<?x72xf32> -> tensor<2xindex>
    %632 = stablehlo.dynamic_broadcast_in_dim %arg173, %631, dims = [1] : (tensor<72xf32>, tensor<2xindex>) -> tensor<?x72xf32>
    %633 = stablehlo.add %630, %632 : tensor<?x72xf32>
    %634 = stablehlo.logistic %633 : tensor<?x72xf32>
    %dim_1611 = tensor.dim %634, %c0 : tensor<?x72xf32>
    %from_elements_1612 = tensor.from_elements %dim_1611, %c1, %c72 : tensor<3xindex>
    %dim_1613 = tensor.dim %634, %c0 : tensor<?x72xf32>
    %expanded_1614 = tensor.expand_shape %634 [[0], [1, 2]] output_shape [%dim_1613, 1, 72] : tensor<?x72xf32> into tensor<?x1x72xf32>
    %635 = stablehlo.dynamic_broadcast_in_dim %cst, %from_elements_1612, dims = [] : (tensor<f32>, tensor<3xindex>) -> tensor<?x1x72xf32>
    %636 = stablehlo.multiply %expanded_1614, %635 : tensor<?x1x72xf32>
    %637 = stablehlo.dot %65, %arg174, precision = [DEFAULT, DEFAULT] : (tensor<?x236xf32>, tensor<236x128xf32>) -> tensor<?x128xf32>
    %638 = shape.shape_of %637 : tensor<?x128xf32> -> tensor<2xindex>
    %639 = stablehlo.dynamic_broadcast_in_dim %arg175, %638, dims = [1] : (tensor<128xf32>, tensor<2xindex>) -> tensor<?x128xf32>
    %640 = stablehlo.add %637, %639 : tensor<?x128xf32>
    %641 = shape.shape_of %640 : tensor<?x128xf32> -> tensor<2xindex>
    %642 = stablehlo.dynamic_broadcast_in_dim %cst_1, %641, dims = [] : (tensor<f32>, tensor<2xindex>) -> tensor<?x128xf32>
    %643 = stablehlo.maximum %640, %642 : tensor<?x128xf32>
    %644 = stablehlo.dot %643, %arg176, precision = [DEFAULT, DEFAULT] : (tensor<?x128xf32>, tensor<128x40xf32>) -> tensor<?x40xf32>
    %645 = shape.shape_of %644 : tensor<?x40xf32> -> tensor<2xindex>
    %646 = stablehlo.dynamic_broadcast_in_dim %arg177, %645, dims = [1] : (tensor<40xf32>, tensor<2xindex>) -> tensor<?x40xf32>
    %647 = stablehlo.add %644, %646 : tensor<?x40xf32>
    %648 = stablehlo.logistic %647 : tensor<?x40xf32>
    %dim_1615 = tensor.dim %648, %c0 : tensor<?x40xf32>
    %from_elements_1616 = tensor.from_elements %dim_1615, %c1, %c40 : tensor<3xindex>
    %dim_1617 = tensor.dim %648, %c0 : tensor<?x40xf32>
    %expanded_1618 = tensor.expand_shape %648 [[0], [1, 2]] output_shape [%dim_1617, 1, 40] : tensor<?x40xf32> into tensor<?x1x40xf32>
    %649 = stablehlo.dynamic_broadcast_in_dim %cst, %from_elements_1616, dims = [] : (tensor<f32>, tensor<3xindex>) -> tensor<?x1x40xf32>
    %650 = stablehlo.multiply %expanded_1618, %649 : tensor<?x1x40xf32>
    %651 = stablehlo.dot %65, %arg178, precision = [DEFAULT, DEFAULT] : (tensor<?x236xf32>, tensor<236x128xf32>) -> tensor<?x128xf32>
    %652 = shape.shape_of %651 : tensor<?x128xf32> -> tensor<2xindex>
    %653 = stablehlo.dynamic_broadcast_in_dim %arg179, %652, dims = [1] : (tensor<128xf32>, tensor<2xindex>) -> tensor<?x128xf32>
    %654 = stablehlo.add %651, %653 : tensor<?x128xf32>
    %655 = shape.shape_of %654 : tensor<?x128xf32> -> tensor<2xindex>
    %656 = stablehlo.dynamic_broadcast_in_dim %cst_1, %655, dims = [] : (tensor<f32>, tensor<2xindex>) -> tensor<?x128xf32>
    %657 = stablehlo.maximum %654, %656 : tensor<?x128xf32>
    %658 = stablehlo.dot %657, %arg180, precision = [DEFAULT, DEFAULT] : (tensor<?x128xf32>, tensor<128x40xf32>) -> tensor<?x40xf32>
    %659 = shape.shape_of %658 : tensor<?x40xf32> -> tensor<2xindex>
    %660 = stablehlo.dynamic_broadcast_in_dim %arg181, %659, dims = [1] : (tensor<40xf32>, tensor<2xindex>) -> tensor<?x40xf32>
    %661 = stablehlo.add %658, %660 : tensor<?x40xf32>
    %662 = stablehlo.logistic %661 : tensor<?x40xf32>
    %dim_1619 = tensor.dim %662, %c0 : tensor<?x40xf32>
    %from_elements_1620 = tensor.from_elements %dim_1619, %c1, %c40 : tensor<3xindex>
    %dim_1621 = tensor.dim %662, %c0 : tensor<?x40xf32>
    %expanded_1622 = tensor.expand_shape %662 [[0], [1, 2]] output_shape [%dim_1621, 1, 40] : tensor<?x40xf32> into tensor<?x1x40xf32>
    %663 = stablehlo.dynamic_broadcast_in_dim %cst, %from_elements_1620, dims = [] : (tensor<f32>, tensor<3xindex>) -> tensor<?x1x40xf32>
    %664 = stablehlo.multiply %expanded_1622, %663 : tensor<?x1x40xf32>
    %665 = stablehlo.dot %71, %arg182, precision = [DEFAULT, DEFAULT] : (tensor<?x236xf32>, tensor<236x128xf32>) -> tensor<?x128xf32>
    %666 = shape.shape_of %665 : tensor<?x128xf32> -> tensor<2xindex>
    %667 = stablehlo.dynamic_broadcast_in_dim %arg183, %666, dims = [1] : (tensor<128xf32>, tensor<2xindex>) -> tensor<?x128xf32>
    %668 = stablehlo.add %665, %667 : tensor<?x128xf32>
    %669 = shape.shape_of %668 : tensor<?x128xf32> -> tensor<2xindex>
    %670 = stablehlo.dynamic_broadcast_in_dim %cst_1, %669, dims = [] : (tensor<f32>, tensor<2xindex>) -> tensor<?x128xf32>
    %671 = stablehlo.maximum %668, %670 : tensor<?x128xf32>
    %672 = stablehlo.dot %671, %arg184, precision = [DEFAULT, DEFAULT] : (tensor<?x128xf32>, tensor<128x23xf32>) -> tensor<?x23xf32>
    %673 = shape.shape_of %672 : tensor<?x23xf32> -> tensor<2xindex>
    %674 = stablehlo.dynamic_broadcast_in_dim %arg185, %673, dims = [1] : (tensor<23xf32>, tensor<2xindex>) -> tensor<?x23xf32>
    %675 = stablehlo.add %672, %674 : tensor<?x23xf32>
    %676 = stablehlo.logistic %675 : tensor<?x23xf32>
    %dim_1623 = tensor.dim %676, %c0 : tensor<?x23xf32>
    %from_elements_1624 = tensor.from_elements %dim_1623, %c1, %c23 : tensor<3xindex>
    %dim_1625 = tensor.dim %676, %c0 : tensor<?x23xf32>
    %expanded_1626 = tensor.expand_shape %676 [[0], [1, 2]] output_shape [%dim_1625, 1, 23] : tensor<?x23xf32> into tensor<?x1x23xf32>
    %677 = stablehlo.dynamic_broadcast_in_dim %cst, %from_elements_1624, dims = [] : (tensor<f32>, tensor<3xindex>) -> tensor<?x1x23xf32>
    %678 = stablehlo.multiply %expanded_1626, %677 : tensor<?x1x23xf32>
    %679 = stablehlo.dot %71, %arg186, precision = [DEFAULT, DEFAULT] : (tensor<?x236xf32>, tensor<236x128xf32>) -> tensor<?x128xf32>
    %680 = shape.shape_of %679 : tensor<?x128xf32> -> tensor<2xindex>
    %681 = stablehlo.dynamic_broadcast_in_dim %arg187, %680, dims = [1] : (tensor<128xf32>, tensor<2xindex>) -> tensor<?x128xf32>
    %682 = stablehlo.add %679, %681 : tensor<?x128xf32>
    %683 = shape.shape_of %682 : tensor<?x128xf32> -> tensor<2xindex>
    %684 = stablehlo.dynamic_broadcast_in_dim %cst_1, %683, dims = [] : (tensor<f32>, tensor<2xindex>) -> tensor<?x128xf32>
    %685 = stablehlo.maximum %682, %684 : tensor<?x128xf32>
    %686 = stablehlo.dot %685, %arg188, precision = [DEFAULT, DEFAULT] : (tensor<?x128xf32>, tensor<128x23xf32>) -> tensor<?x23xf32>
    %687 = shape.shape_of %686 : tensor<?x23xf32> -> tensor<2xindex>
    %688 = stablehlo.dynamic_broadcast_in_dim %arg189, %687, dims = [1] : (tensor<23xf32>, tensor<2xindex>) -> tensor<?x23xf32>
    %689 = stablehlo.add %686, %688 : tensor<?x23xf32>
    %690 = stablehlo.logistic %689 : tensor<?x23xf32>
    %dim_1627 = tensor.dim %690, %c0 : tensor<?x23xf32>
    %from_elements_1628 = tensor.from_elements %dim_1627, %c1, %c23 : tensor<3xindex>
    %dim_1629 = tensor.dim %690, %c0 : tensor<?x23xf32>
    %expanded_1630 = tensor.expand_shape %690 [[0], [1, 2]] output_shape [%dim_1629, 1, 23] : tensor<?x23xf32> into tensor<?x1x23xf32>
    %691 = stablehlo.dynamic_broadcast_in_dim %cst, %from_elements_1628, dims = [] : (tensor<f32>, tensor<3xindex>) -> tensor<?x1x23xf32>
    %692 = stablehlo.multiply %expanded_1630, %691 : tensor<?x1x23xf32>
    %693 = stablehlo.dot %104, %arg190, precision = [DEFAULT, DEFAULT] : (tensor<?x236xf32>, tensor<236x128xf32>) -> tensor<?x128xf32>
    %694 = shape.shape_of %693 : tensor<?x128xf32> -> tensor<2xindex>
    %695 = stablehlo.dynamic_broadcast_in_dim %arg191, %694, dims = [1] : (tensor<128xf32>, tensor<2xindex>) -> tensor<?x128xf32>
    %696 = stablehlo.add %693, %695 : tensor<?x128xf32>
    %697 = shape.shape_of %696 : tensor<?x128xf32> -> tensor<2xindex>
    %698 = stablehlo.dynamic_broadcast_in_dim %cst_1, %697, dims = [] : (tensor<f32>, tensor<2xindex>) -> tensor<?x128xf32>
    %699 = stablehlo.maximum %696, %698 : tensor<?x128xf32>
    %700 = stablehlo.dot %699, %arg192, precision = [DEFAULT, DEFAULT] : (tensor<?x128xf32>, tensor<128x124xf32>) -> tensor<?x124xf32>
    %701 = shape.shape_of %700 : tensor<?x124xf32> -> tensor<2xindex>
    %702 = stablehlo.dynamic_broadcast_in_dim %arg193, %701, dims = [1] : (tensor<124xf32>, tensor<2xindex>) -> tensor<?x124xf32>
    %703 = stablehlo.add %700, %702 : tensor<?x124xf32>
    %704 = stablehlo.logistic %703 : tensor<?x124xf32>
    %dim_1631 = tensor.dim %704, %c0 : tensor<?x124xf32>
    %from_elements_1632 = tensor.from_elements %dim_1631, %c1, %c124 : tensor<3xindex>
    %dim_1633 = tensor.dim %704, %c0 : tensor<?x124xf32>
    %expanded_1634 = tensor.expand_shape %704 [[0], [1, 2]] output_shape [%dim_1633, 1, 124] : tensor<?x124xf32> into tensor<?x1x124xf32>
    %705 = stablehlo.dynamic_broadcast_in_dim %cst, %from_elements_1632, dims = [] : (tensor<f32>, tensor<3xindex>) -> tensor<?x1x124xf32>
    %706 = stablehlo.multiply %expanded_1634, %705 : tensor<?x1x124xf32>
    %707 = stablehlo.dot %104, %arg194, precision = [DEFAULT, DEFAULT] : (tensor<?x236xf32>, tensor<236x128xf32>) -> tensor<?x128xf32>
    %708 = shape.shape_of %707 : tensor<?x128xf32> -> tensor<2xindex>
    %709 = stablehlo.dynamic_broadcast_in_dim %arg195, %708, dims = [1] : (tensor<128xf32>, tensor<2xindex>) -> tensor<?x128xf32>
    %710 = stablehlo.add %707, %709 : tensor<?x128xf32>
    %711 = shape.shape_of %710 : tensor<?x128xf32> -> tensor<2xindex>
    %712 = stablehlo.dynamic_broadcast_in_dim %cst_1, %711, dims = [] : (tensor<f32>, tensor<2xindex>) -> tensor<?x128xf32>
    %713 = stablehlo.maximum %710, %712 : tensor<?x128xf32>
    %714 = stablehlo.dot %713, %arg196, precision = [DEFAULT, DEFAULT] : (tensor<?x128xf32>, tensor<128x124xf32>) -> tensor<?x124xf32>
    %715 = shape.shape_of %714 : tensor<?x124xf32> -> tensor<2xindex>
    %716 = stablehlo.dynamic_broadcast_in_dim %arg197, %715, dims = [1] : (tensor<124xf32>, tensor<2xindex>) -> tensor<?x124xf32>
    %717 = stablehlo.add %714, %716 : tensor<?x124xf32>
    %718 = stablehlo.logistic %717 : tensor<?x124xf32>
    %dim_1635 = tensor.dim %718, %c0 : tensor<?x124xf32>
    %from_elements_1636 = tensor.from_elements %dim_1635, %c1, %c124 : tensor<3xindex>
    %dim_1637 = tensor.dim %718, %c0 : tensor<?x124xf32>
    %expanded_1638 = tensor.expand_shape %718 [[0], [1, 2]] output_shape [%dim_1637, 1, 124] : tensor<?x124xf32> into tensor<?x1x124xf32>
    %719 = stablehlo.dynamic_broadcast_in_dim %cst, %from_elements_1636, dims = [] : (tensor<f32>, tensor<3xindex>) -> tensor<?x1x124xf32>
    %720 = stablehlo.multiply %expanded_1638, %719 : tensor<?x1x124xf32>
    %721 = stablehlo.dot %59, %arg198, precision = [DEFAULT, DEFAULT] : (tensor<?x236xf32>, tensor<236x128xf32>) -> tensor<?x128xf32>
    %722 = shape.shape_of %721 : tensor<?x128xf32> -> tensor<2xindex>
    %723 = stablehlo.dynamic_broadcast_in_dim %arg199, %722, dims = [1] : (tensor<128xf32>, tensor<2xindex>) -> tensor<?x128xf32>
    %724 = stablehlo.add %721, %723 : tensor<?x128xf32>
    %725 = shape.shape_of %724 : tensor<?x128xf32> -> tensor<2xindex>
    %726 = stablehlo.dynamic_broadcast_in_dim %cst_1, %725, dims = [] : (tensor<f32>, tensor<2xindex>) -> tensor<?x128xf32>
    %727 = stablehlo.maximum %724, %726 : tensor<?x128xf32>
    %728 = stablehlo.dot %727, %arg200, precision = [DEFAULT, DEFAULT] : (tensor<?x128xf32>, tensor<128x72xf32>) -> tensor<?x72xf32>
    %729 = shape.shape_of %728 : tensor<?x72xf32> -> tensor<2xindex>
    %730 = stablehlo.dynamic_broadcast_in_dim %arg201, %729, dims = [1] : (tensor<72xf32>, tensor<2xindex>) -> tensor<?x72xf32>
    %731 = stablehlo.add %728, %730 : tensor<?x72xf32>
    %732 = stablehlo.logistic %731 : tensor<?x72xf32>
    %dim_1639 = tensor.dim %732, %c0 : tensor<?x72xf32>
    %from_elements_1640 = tensor.from_elements %dim_1639, %c1, %c72 : tensor<3xindex>
    %dim_1641 = tensor.dim %732, %c0 : tensor<?x72xf32>
    %expanded_1642 = tensor.expand_shape %732 [[0], [1, 2]] output_shape [%dim_1641, 1, 72] : tensor<?x72xf32> into tensor<?x1x72xf32>
    %733 = stablehlo.dynamic_broadcast_in_dim %cst, %from_elements_1640, dims = [] : (tensor<f32>, tensor<3xindex>) -> tensor<?x1x72xf32>
    %734 = stablehlo.multiply %expanded_1642, %733 : tensor<?x1x72xf32>
    %735 = stablehlo.dot %59, %arg202, precision = [DEFAULT, DEFAULT] : (tensor<?x236xf32>, tensor<236x128xf32>) -> tensor<?x128xf32>
    %736 = shape.shape_of %735 : tensor<?x128xf32> -> tensor<2xindex>
    %737 = stablehlo.dynamic_broadcast_in_dim %arg203, %736, dims = [1] : (tensor<128xf32>, tensor<2xindex>) -> tensor<?x128xf32>
    %738 = stablehlo.add %735, %737 : tensor<?x128xf32>
    %739 = shape.shape_of %738 : tensor<?x128xf32> -> tensor<2xindex>
    %740 = stablehlo.dynamic_broadcast_in_dim %cst_1, %739, dims = [] : (tensor<f32>, tensor<2xindex>) -> tensor<?x128xf32>
    %741 = stablehlo.maximum %738, %740 : tensor<?x128xf32>
    %742 = stablehlo.dot %741, %arg204, precision = [DEFAULT, DEFAULT] : (tensor<?x128xf32>, tensor<128x72xf32>) -> tensor<?x72xf32>
    %743 = shape.shape_of %742 : tensor<?x72xf32> -> tensor<2xindex>
    %744 = stablehlo.dynamic_broadcast_in_dim %arg205, %743, dims = [1] : (tensor<72xf32>, tensor<2xindex>) -> tensor<?x72xf32>
    %745 = stablehlo.add %742, %744 : tensor<?x72xf32>
    %746 = stablehlo.logistic %745 : tensor<?x72xf32>
    %dim_1643 = tensor.dim %746, %c0 : tensor<?x72xf32>
    %from_elements_1644 = tensor.from_elements %dim_1643, %c1, %c72 : tensor<3xindex>
    %dim_1645 = tensor.dim %746, %c0 : tensor<?x72xf32>
    %expanded_1646 = tensor.expand_shape %746 [[0], [1, 2]] output_shape [%dim_1645, 1, 72] : tensor<?x72xf32> into tensor<?x1x72xf32>
    %747 = stablehlo.dynamic_broadcast_in_dim %cst, %from_elements_1644, dims = [] : (tensor<f32>, tensor<3xindex>) -> tensor<?x1x72xf32>
    %748 = stablehlo.multiply %expanded_1646, %747 : tensor<?x1x72xf32>
    %749 = stablehlo.dot %64, %arg206, precision = [DEFAULT, DEFAULT] : (tensor<?x236xf32>, tensor<236x128xf32>) -> tensor<?x128xf32>
    %750 = shape.shape_of %749 : tensor<?x128xf32> -> tensor<2xindex>
    %751 = stablehlo.dynamic_broadcast_in_dim %arg207, %750, dims = [1] : (tensor<128xf32>, tensor<2xindex>) -> tensor<?x128xf32>
    %752 = stablehlo.add %749, %751 : tensor<?x128xf32>
    %753 = shape.shape_of %752 : tensor<?x128xf32> -> tensor<2xindex>
    %754 = stablehlo.dynamic_broadcast_in_dim %cst_1, %753, dims = [] : (tensor<f32>, tensor<2xindex>) -> tensor<?x128xf32>
    %755 = stablehlo.maximum %752, %754 : tensor<?x128xf32>
    %756 = stablehlo.dot %755, %arg208, precision = [DEFAULT, DEFAULT] : (tensor<?x128xf32>, tensor<128x40xf32>) -> tensor<?x40xf32>
    %757 = shape.shape_of %756 : tensor<?x40xf32> -> tensor<2xindex>
    %758 = stablehlo.dynamic_broadcast_in_dim %arg209, %757, dims = [1] : (tensor<40xf32>, tensor<2xindex>) -> tensor<?x40xf32>
    %759 = stablehlo.add %756, %758 : tensor<?x40xf32>
    %760 = stablehlo.logistic %759 : tensor<?x40xf32>
    %dim_1647 = tensor.dim %760, %c0 : tensor<?x40xf32>
    %from_elements_1648 = tensor.from_elements %dim_1647, %c1, %c40 : tensor<3xindex>
    %dim_1649 = tensor.dim %760, %c0 : tensor<?x40xf32>
    %expanded_1650 = tensor.expand_shape %760 [[0], [1, 2]] output_shape [%dim_1649, 1, 40] : tensor<?x40xf32> into tensor<?x1x40xf32>
    %761 = stablehlo.dynamic_broadcast_in_dim %cst, %from_elements_1648, dims = [] : (tensor<f32>, tensor<3xindex>) -> tensor<?x1x40xf32>
    %762 = stablehlo.multiply %expanded_1650, %761 : tensor<?x1x40xf32>
    %763 = stablehlo.dot %64, %arg210, precision = [DEFAULT, DEFAULT] : (tensor<?x236xf32>, tensor<236x128xf32>) -> tensor<?x128xf32>
    %764 = shape.shape_of %763 : tensor<?x128xf32> -> tensor<2xindex>
    %765 = stablehlo.dynamic_broadcast_in_dim %arg211, %764, dims = [1] : (tensor<128xf32>, tensor<2xindex>) -> tensor<?x128xf32>
    %766 = stablehlo.add %763, %765 : tensor<?x128xf32>
    %767 = shape.shape_of %766 : tensor<?x128xf32> -> tensor<2xindex>
    %768 = stablehlo.dynamic_broadcast_in_dim %cst_1, %767, dims = [] : (tensor<f32>, tensor<2xindex>) -> tensor<?x128xf32>
    %769 = stablehlo.maximum %766, %768 : tensor<?x128xf32>
    %770 = stablehlo.dot %769, %arg212, precision = [DEFAULT, DEFAULT] : (tensor<?x128xf32>, tensor<128x40xf32>) -> tensor<?x40xf32>
    %771 = shape.shape_of %770 : tensor<?x40xf32> -> tensor<2xindex>
    %772 = stablehlo.dynamic_broadcast_in_dim %arg213, %771, dims = [1] : (tensor<40xf32>, tensor<2xindex>) -> tensor<?x40xf32>
    %773 = stablehlo.add %770, %772 : tensor<?x40xf32>
    %774 = stablehlo.logistic %773 : tensor<?x40xf32>
    %dim_1651 = tensor.dim %774, %c0 : tensor<?x40xf32>
    %from_elements_1652 = tensor.from_elements %dim_1651, %c1, %c40 : tensor<3xindex>
    %dim_1653 = tensor.dim %774, %c0 : tensor<?x40xf32>
    %expanded_1654 = tensor.expand_shape %774 [[0], [1, 2]] output_shape [%dim_1653, 1, 40] : tensor<?x40xf32> into tensor<?x1x40xf32>
    %775 = stablehlo.dynamic_broadcast_in_dim %cst, %from_elements_1652, dims = [] : (tensor<f32>, tensor<3xindex>) -> tensor<?x1x40xf32>
    %776 = stablehlo.multiply %expanded_1654, %775 : tensor<?x1x40xf32>
    %777 = stablehlo.dot %70, %arg214, precision = [DEFAULT, DEFAULT] : (tensor<?x236xf32>, tensor<236x128xf32>) -> tensor<?x128xf32>
    %778 = shape.shape_of %777 : tensor<?x128xf32> -> tensor<2xindex>
    %779 = stablehlo.dynamic_broadcast_in_dim %arg215, %778, dims = [1] : (tensor<128xf32>, tensor<2xindex>) -> tensor<?x128xf32>
    %780 = stablehlo.add %777, %779 : tensor<?x128xf32>
    %781 = shape.shape_of %780 : tensor<?x128xf32> -> tensor<2xindex>
    %782 = stablehlo.dynamic_broadcast_in_dim %cst_1, %781, dims = [] : (tensor<f32>, tensor<2xindex>) -> tensor<?x128xf32>
    %783 = stablehlo.maximum %780, %782 : tensor<?x128xf32>
    %784 = stablehlo.dot %783, %arg216, precision = [DEFAULT, DEFAULT] : (tensor<?x128xf32>, tensor<128x23xf32>) -> tensor<?x23xf32>
    %785 = shape.shape_of %784 : tensor<?x23xf32> -> tensor<2xindex>
    %786 = stablehlo.dynamic_broadcast_in_dim %arg217, %785, dims = [1] : (tensor<23xf32>, tensor<2xindex>) -> tensor<?x23xf32>
    %787 = stablehlo.add %784, %786 : tensor<?x23xf32>
    %788 = stablehlo.logistic %787 : tensor<?x23xf32>
    %dim_1655 = tensor.dim %788, %c0 : tensor<?x23xf32>
    %from_elements_1656 = tensor.from_elements %dim_1655, %c1, %c23 : tensor<3xindex>
    %dim_1657 = tensor.dim %788, %c0 : tensor<?x23xf32>
    %expanded_1658 = tensor.expand_shape %788 [[0], [1, 2]] output_shape [%dim_1657, 1, 23] : tensor<?x23xf32> into tensor<?x1x23xf32>
    %789 = stablehlo.dynamic_broadcast_in_dim %cst, %from_elements_1656, dims = [] : (tensor<f32>, tensor<3xindex>) -> tensor<?x1x23xf32>
    %790 = stablehlo.multiply %expanded_1658, %789 : tensor<?x1x23xf32>
    %791 = stablehlo.dot %70, %arg218, precision = [DEFAULT, DEFAULT] : (tensor<?x236xf32>, tensor<236x128xf32>) -> tensor<?x128xf32>
    %792 = shape.shape_of %791 : tensor<?x128xf32> -> tensor<2xindex>
    %793 = stablehlo.dynamic_broadcast_in_dim %arg219, %792, dims = [1] : (tensor<128xf32>, tensor<2xindex>) -> tensor<?x128xf32>
    %794 = stablehlo.add %791, %793 : tensor<?x128xf32>
    %795 = shape.shape_of %794 : tensor<?x128xf32> -> tensor<2xindex>
    %796 = stablehlo.dynamic_broadcast_in_dim %cst_1, %795, dims = [] : (tensor<f32>, tensor<2xindex>) -> tensor<?x128xf32>
    %797 = stablehlo.maximum %794, %796 : tensor<?x128xf32>
    %798 = stablehlo.dot %797, %arg220, precision = [DEFAULT, DEFAULT] : (tensor<?x128xf32>, tensor<128x23xf32>) -> tensor<?x23xf32>
    %799 = shape.shape_of %798 : tensor<?x23xf32> -> tensor<2xindex>
    %800 = stablehlo.dynamic_broadcast_in_dim %arg221, %799, dims = [1] : (tensor<23xf32>, tensor<2xindex>) -> tensor<?x23xf32>
    %801 = stablehlo.add %798, %800 : tensor<?x23xf32>
    %802 = stablehlo.logistic %801 : tensor<?x23xf32>
    %dim_1659 = tensor.dim %802, %c0 : tensor<?x23xf32>
    %from_elements_1660 = tensor.from_elements %dim_1659, %c1, %c23 : tensor<3xindex>
    %dim_1661 = tensor.dim %802, %c0 : tensor<?x23xf32>
    %expanded_1662 = tensor.expand_shape %802 [[0], [1, 2]] output_shape [%dim_1661, 1, 23] : tensor<?x23xf32> into tensor<?x1x23xf32>
    %803 = stablehlo.dynamic_broadcast_in_dim %cst, %from_elements_1660, dims = [] : (tensor<f32>, tensor<3xindex>) -> tensor<?x1x23xf32>
    %804 = stablehlo.multiply %expanded_1662, %803 : tensor<?x1x23xf32>
    %805 = stablehlo.dot %103, %arg222, precision = [DEFAULT, DEFAULT] : (tensor<?x236xf32>, tensor<236x128xf32>) -> tensor<?x128xf32>
    %806 = shape.shape_of %805 : tensor<?x128xf32> -> tensor<2xindex>
    %807 = stablehlo.dynamic_broadcast_in_dim %arg223, %806, dims = [1] : (tensor<128xf32>, tensor<2xindex>) -> tensor<?x128xf32>
    %808 = stablehlo.add %805, %807 : tensor<?x128xf32>
    %809 = shape.shape_of %808 : tensor<?x128xf32> -> tensor<2xindex>
    %810 = stablehlo.dynamic_broadcast_in_dim %cst_1, %809, dims = [] : (tensor<f32>, tensor<2xindex>) -> tensor<?x128xf32>
    %811 = stablehlo.maximum %808, %810 : tensor<?x128xf32>
    %812 = stablehlo.dot %811, %arg224, precision = [DEFAULT, DEFAULT] : (tensor<?x128xf32>, tensor<128x124xf32>) -> tensor<?x124xf32>
    %813 = shape.shape_of %812 : tensor<?x124xf32> -> tensor<2xindex>
    %814 = stablehlo.dynamic_broadcast_in_dim %arg225, %813, dims = [1] : (tensor<124xf32>, tensor<2xindex>) -> tensor<?x124xf32>
    %815 = stablehlo.add %812, %814 : tensor<?x124xf32>
    %816 = stablehlo.logistic %815 : tensor<?x124xf32>
    %dim_1663 = tensor.dim %816, %c0 : tensor<?x124xf32>
    %from_elements_1664 = tensor.from_elements %dim_1663, %c1, %c124 : tensor<3xindex>
    %dim_1665 = tensor.dim %816, %c0 : tensor<?x124xf32>
    %expanded_1666 = tensor.expand_shape %816 [[0], [1, 2]] output_shape [%dim_1665, 1, 124] : tensor<?x124xf32> into tensor<?x1x124xf32>
    %817 = stablehlo.dynamic_broadcast_in_dim %cst, %from_elements_1664, dims = [] : (tensor<f32>, tensor<3xindex>) -> tensor<?x1x124xf32>
    %818 = stablehlo.multiply %expanded_1666, %817 : tensor<?x1x124xf32>
    %819 = stablehlo.dot %103, %arg226, precision = [DEFAULT, DEFAULT] : (tensor<?x236xf32>, tensor<236x128xf32>) -> tensor<?x128xf32>
    %820 = shape.shape_of %819 : tensor<?x128xf32> -> tensor<2xindex>
    %821 = stablehlo.dynamic_broadcast_in_dim %arg227, %820, dims = [1] : (tensor<128xf32>, tensor<2xindex>) -> tensor<?x128xf32>
    %822 = stablehlo.add %819, %821 : tensor<?x128xf32>
    %823 = shape.shape_of %822 : tensor<?x128xf32> -> tensor<2xindex>
    %824 = stablehlo.dynamic_broadcast_in_dim %cst_1, %823, dims = [] : (tensor<f32>, tensor<2xindex>) -> tensor<?x128xf32>
    %825 = stablehlo.maximum %822, %824 : tensor<?x128xf32>
    %826 = stablehlo.dot %825, %arg228, precision = [DEFAULT, DEFAULT] : (tensor<?x128xf32>, tensor<128x124xf32>) -> tensor<?x124xf32>
    %827 = shape.shape_of %826 : tensor<?x124xf32> -> tensor<2xindex>
    %828 = stablehlo.dynamic_broadcast_in_dim %arg229, %827, dims = [1] : (tensor<124xf32>, tensor<2xindex>) -> tensor<?x124xf32>
    %829 = stablehlo.add %826, %828 : tensor<?x124xf32>
    %830 = stablehlo.logistic %829 : tensor<?x124xf32>
    %dim_1667 = tensor.dim %830, %c0 : tensor<?x124xf32>
    %from_elements_1668 = tensor.from_elements %dim_1667, %c1, %c124 : tensor<3xindex>
    %dim_1669 = tensor.dim %830, %c0 : tensor<?x124xf32>
    %expanded_1670 = tensor.expand_shape %830 [[0], [1, 2]] output_shape [%dim_1669, 1, 124] : tensor<?x124xf32> into tensor<?x1x124xf32>
    %831 = stablehlo.dynamic_broadcast_in_dim %cst, %from_elements_1668, dims = [] : (tensor<f32>, tensor<3xindex>) -> tensor<?x1x124xf32>
    %832 = stablehlo.multiply %expanded_1670, %831 : tensor<?x1x124xf32>
    %833 = stablehlo.dot %110, %arg230, precision = [DEFAULT, DEFAULT] : (tensor<?x496xf32>, tensor<496x124xf32>) -> tensor<?x124xf32>
    %834 = shape.shape_of %833 : tensor<?x124xf32> -> tensor<2xindex>
    %835 = stablehlo.dynamic_broadcast_in_dim %arg231, %834, dims = [1] : (tensor<124xf32>, tensor<2xindex>) -> tensor<?x124xf32>
    %836 = stablehlo.add %833, %835 : tensor<?x124xf32>
    %dim_1671 = tensor.dim %836, %c0 : tensor<?x124xf32>
    %expanded_1672 = tensor.expand_shape %836 [[0], [1, 2]] output_shape [%dim_1671, 1, 124] : tensor<?x124xf32> into tensor<?x1x124xf32>
    %837 = stablehlo.dot %109, %arg232, precision = [DEFAULT, DEFAULT] : (tensor<?x496xf32>, tensor<496x124xf32>) -> tensor<?x124xf32>
    %838 = shape.shape_of %837 : tensor<?x124xf32> -> tensor<2xindex>
    %839 = stablehlo.dynamic_broadcast_in_dim %arg233, %838, dims = [1] : (tensor<124xf32>, tensor<2xindex>) -> tensor<?x124xf32>
    %840 = stablehlo.add %837, %839 : tensor<?x124xf32>
    %dim_1673 = tensor.dim %840, %c0 : tensor<?x124xf32>
    %expanded_1674 = tensor.expand_shape %840 [[0], [1, 2]] output_shape [%dim_1673, 1, 124] : tensor<?x124xf32> into tensor<?x1x124xf32>
    %841 = stablehlo.concatenate %expanded_1358, %expanded_1343, dim = 2 : (tensor<?x1x88xf32>, tensor<?x1x82xf32>) -> tensor<?x1x170xf32>
    %collapsed_1675 = tensor.collapse_shape %841 [[0], [1, 2]] : tensor<?x1x170xf32> into tensor<?x170xf32>
    %842 = stablehlo.dot %98, %arg234, precision = [DEFAULT, DEFAULT] : (tensor<?x88xf32>, tensor<88x32xf32>) -> tensor<?x32xf32>
    %843 = stablehlo.dot %129, %arg235, precision = [DEFAULT, DEFAULT] : (tensor<?x104xf32>, tensor<104x32xf32>) -> tensor<?x32xf32>
    %844 = stablehlo.dot %130, %arg236, precision = [DEFAULT, DEFAULT] : (tensor<?x72xf32>, tensor<72x32xf32>) -> tensor<?x32xf32>
    %845 = stablehlo.dot %130, %arg237, precision = [DEFAULT, DEFAULT] : (tensor<?x72xf32>, tensor<72x32xf32>) -> tensor<?x32xf32>
    %846 = stablehlo.dot %97, %arg238, precision = [DEFAULT, DEFAULT] : (tensor<?x88xf32>, tensor<88x32xf32>) -> tensor<?x32xf32>
    %847 = stablehlo.dot %100, %arg239, precision = [DEFAULT, DEFAULT] : (tensor<?x88xf32>, tensor<88x64xf32>) -> tensor<?x64xf32>
    %848 = stablehlo.dot %collapsed_1363, %arg240, precision = [DEFAULT, DEFAULT] : (tensor<?x240xf32>, tensor<240x48xf32>) -> tensor<?x48xf32>
    %849 = stablehlo.dot %collapsed_1363, %arg241, precision = [DEFAULT, DEFAULT] : (tensor<?x240xf32>, tensor<240x24xf32>) -> tensor<?x24xf32>
    %850 = stablehlo.dot %collapsed_1363, %arg242, precision = [DEFAULT, DEFAULT] : (tensor<?x240xf32>, tensor<240x12xf32>) -> tensor<?x12xf32>
    %851 = stablehlo.dot %collapsed_1366, %arg243, precision = [DEFAULT, DEFAULT] : (tensor<?x240xf32>, tensor<240x48xf32>) -> tensor<?x48xf32>
    %852 = stablehlo.dot %collapsed_1366, %arg244, precision = [DEFAULT, DEFAULT] : (tensor<?x240xf32>, tensor<240x24xf32>) -> tensor<?x24xf32>
    %853 = stablehlo.dot %collapsed_1366, %arg245, precision = [DEFAULT, DEFAULT] : (tensor<?x240xf32>, tensor<240x12xf32>) -> tensor<?x12xf32>
    %854 = stablehlo.dot %100, %arg246, precision = [DEFAULT, DEFAULT] : (tensor<?x88xf32>, tensor<88x64xf32>) -> tensor<?x64xf32>
    %855 = stablehlo.dot %collapsed_1675, %arg247, precision = [DEFAULT, DEFAULT] : (tensor<?x170xf32>, tensor<170x64xf32>) -> tensor<?x64xf32>
    %856 = stablehlo.dot %99, %arg248, precision = [DEFAULT, DEFAULT] : (tensor<?x88xf32>, tensor<88x32xf32>) -> tensor<?x32xf32>
    %857 = stablehlo.dot %77, %arg249, precision = [DEFAULT, DEFAULT] : (tensor<?x130xf32>, tensor<130x32xf32>) -> tensor<?x32xf32>
    %858 = stablehlo.dot %77, %arg250, precision = [DEFAULT, DEFAULT] : (tensor<?x130xf32>, tensor<130x16xf32>) -> tensor<?x16xf32>
    %859 = stablehlo.dot %77, %arg251, precision = [DEFAULT, DEFAULT] : (tensor<?x130xf32>, tensor<130x8xf32>) -> tensor<?x8xf32>
    %860 = stablehlo.dot %77, %arg252, precision = [DEFAULT, DEFAULT] : (tensor<?x130xf32>, tensor<130x64xf32>) -> tensor<?x64xf32>
    %861 = stablehlo.dot %77, %arg253, precision = [DEFAULT, DEFAULT] : (tensor<?x130xf32>, tensor<130x32xf32>) -> tensor<?x32xf32>
    %862 = stablehlo.dot %77, %arg254, precision = [DEFAULT, DEFAULT] : (tensor<?x130xf32>, tensor<130x16xf32>) -> tensor<?x16xf32>
    %863 = stablehlo.dot %77, %arg255, precision = [DEFAULT, DEFAULT] : (tensor<?x130xf32>, tensor<130x8xf32>) -> tensor<?x8xf32>
    %864 = stablehlo.dot %77, %arg256, precision = [DEFAULT, DEFAULT] : (tensor<?x130xf32>, tensor<130x64xf32>) -> tensor<?x64xf32>
    %865 = stablehlo.dot %77, %arg257, precision = [DEFAULT, DEFAULT] : (tensor<?x130xf32>, tensor<130x32xf32>) -> tensor<?x32xf32>
    %866 = stablehlo.dot %77, %arg258, precision = [DEFAULT, DEFAULT] : (tensor<?x130xf32>, tensor<130x16xf32>) -> tensor<?x16xf32>
    %867 = stablehlo.dot %77, %arg259, precision = [DEFAULT, DEFAULT] : (tensor<?x130xf32>, tensor<130x8xf32>) -> tensor<?x8xf32>
    %868 = stablehlo.dot %77, %arg260, precision = [DEFAULT, DEFAULT] : (tensor<?x130xf32>, tensor<130x64xf32>) -> tensor<?x64xf32>
    %869 = stablehlo.dot %96, %arg261, precision = [DEFAULT, DEFAULT] : (tensor<?x160xf32>, tensor<160x160xf32>) -> tensor<?x160xf32>
    %870 = shape.shape_of %869 : tensor<?x160xf32> -> tensor<2xindex>
    %871 = stablehlo.dynamic_broadcast_in_dim %arg262, %870, dims = [1] : (tensor<160xf32>, tensor<2xindex>) -> tensor<?x160xf32>
    %872 = stablehlo.add %869, %871 : tensor<?x160xf32>
    %873 = stablehlo.dot %115, %arg263, precision = [DEFAULT, DEFAULT] : (tensor<?x160xf32>, tensor<160x160xf32>) -> tensor<?x160xf32>
    %874 = shape.shape_of %873 : tensor<?x160xf32> -> tensor<2xindex>
    %875 = stablehlo.dynamic_broadcast_in_dim %arg264, %874, dims = [1] : (tensor<160xf32>, tensor<2xindex>) -> tensor<?x160xf32>
    %876 = stablehlo.add %873, %875 : tensor<?x160xf32>
    %877 = stablehlo.dot %57, %arg265, precision = [DEFAULT, DEFAULT] : (tensor<?x194xf32>, tensor<194x192xf32>) -> tensor<?x192xf32>
    %878 = shape.shape_of %877 : tensor<?x192xf32> -> tensor<2xindex>
    %879 = stablehlo.dynamic_broadcast_in_dim %arg266, %878, dims = [1] : (tensor<192xf32>, tensor<2xindex>) -> tensor<?x192xf32>
    %880 = stablehlo.add %877, %879 : tensor<?x192xf32>
    %881 = stablehlo.dot %111, %arg267, precision = [DEFAULT, DEFAULT] : (tensor<?x194xf32>, tensor<194x192xf32>) -> tensor<?x192xf32>
    %882 = shape.shape_of %881 : tensor<?x192xf32> -> tensor<2xindex>
    %883 = stablehlo.dynamic_broadcast_in_dim %arg268, %882, dims = [1] : (tensor<192xf32>, tensor<2xindex>) -> tensor<?x192xf32>
    %884 = stablehlo.add %881, %883 : tensor<?x192xf32>
    %885 = stablehlo.dot %128, %arg269, precision = [DEFAULT, DEFAULT] : (tensor<?x170xf32>, tensor<170x160xf32>) -> tensor<?x160xf32>
    %886 = shape.shape_of %885 : tensor<?x160xf32> -> tensor<2xindex>
    %887 = stablehlo.dynamic_broadcast_in_dim %arg270, %886, dims = [1] : (tensor<160xf32>, tensor<2xindex>) -> tensor<?x160xf32>
    %888 = stablehlo.add %885, %887 : tensor<?x160xf32>
    %889 = stablehlo.dot %67, %arg271, precision = [DEFAULT, DEFAULT] : (tensor<?x170xf32>, tensor<170x160xf32>) -> tensor<?x160xf32>
    %890 = shape.shape_of %889 : tensor<?x160xf32> -> tensor<2xindex>
    %891 = stablehlo.dynamic_broadcast_in_dim %arg272, %890, dims = [1] : (tensor<160xf32>, tensor<2xindex>) -> tensor<?x160xf32>
    %892 = stablehlo.add %889, %891 : tensor<?x160xf32>
    return %extracted_slice, %extracted_slice_9, %extracted_slice_10, %extracted_slice_11, %extracted_slice_12, %extracted_slice_13, %extracted_slice_14, %extracted_slice_15, %extracted_slice_16, %extracted_slice_17, %extracted_slice_18, %extracted_slice_19, %extracted_slice_20, %extracted_slice_21, %extracted_slice_22, %extracted_slice_23, %extracted_slice_77, %extracted_slice_78, %extracted_slice_79, %extracted_slice_80, %extracted_slice_87, %extracted_slice_88, %extracted_slice_89, %extracted_slice_90, %extracted_slice_91, %extracted_slice_92, %extracted_slice_93, %extracted_slice_94, %extracted_slice_95, %extracted_slice_96, %extracted_slice_97, %extracted_slice_98, %extracted_slice_99, %extracted_slice_100, %extracted_slice_101, %extracted_slice_102, %extracted_slice_103, %extracted_slice_104, %extracted_slice_105, %extracted_slice_106, %extracted_slice_107, %extracted_slice_108, %extracted_slice_109, %extracted_slice_110, %extracted_slice_111, %extracted_slice_112, %extracted_slice_113, %extracted_slice_114, %extracted_slice_115, %extracted_slice_116, %extracted_slice_117, %extracted_slice_118, %extracted_slice_119, %extracted_slice_120, %extracted_slice_121, %extracted_slice_122, %extracted_slice_166, %extracted_slice_168, %extracted_slice_170, %extracted_slice_172, %extracted_slice_174, %extracted_slice_191, %extracted_slice_202, %extracted_slice_203, %extracted_slice_210, %extracted_slice_218, %extracted_slice_222, %extracted_slice_232, %extracted_slice_238, %extracted_slice_245, %extracted_slice_248, %extracted_slice_251, %extracted_slice_265, %extracted_slice_267, %extracted_slice_269, %extracted_slice_271, %extracted_slice_306, %extracted_slice_308, %extracted_slice_310, %extracted_slice_312, %extracted_slice_315, %extracted_slice_316, %extracted_slice_317, %extracted_slice_321, %extracted_slice_323, %extracted_slice_324, %extracted_slice_325, %extracted_slice_359, %extracted_slice_361, %extracted_slice_363, %extracted_slice_364, %extracted_slice_366, %extracted_slice_367, %extracted_slice_369, %extracted_slice_370, %extracted_slice_384, %extracted_slice_395, %extracted_slice_448, %extracted_slice_450, %extracted_slice_452, %extracted_slice_453, %extracted_slice_454, %extracted_slice_462, %extracted_slice_466, %extracted_slice_470, %extracted_slice_478, %extracted_slice_480, %extracted_slice_487, %extracted_slice_489, %extracted_slice_498, %extracted_slice_499, %extracted_slice_500, %extracted_slice_512, %extracted_slice_513, %extracted_slice_517, %extracted_slice_518, %extracted_slice_521, %extracted_slice_531, %extracted_slice_537, %extracted_slice_542, %extracted_slice_543, %extracted_slice_547, %extracted_slice_548, %extracted_slice_595, %extracted_slice_597, %extracted_slice_602, %extracted_slice_603, %extracted_slice_607, %extracted_slice_609, %extracted_slice_613, %extracted_slice_615, %extracted_slice_618, %extracted_slice_620, %extracted_slice_624, %extracted_slice_626, %extracted_slice_630, %extracted_slice_632, %extracted_slice_636, %extracted_slice_638, %extracted_slice_642, %extracted_slice_644, %extracted_slice_648, %extracted_slice_650, %extracted_slice_654, %extracted_slice_656, %extracted_slice_659, %extracted_slice_660, %extracted_slice_661, %extracted_slice_664, %extracted_slice_665, %extracted_slice_666, %extracted_slice_670, %extracted_slice_672, %extracted_slice_676, %extracted_slice_682, %extracted_slice_683, %extracted_slice_687, %extracted_slice_689, %extracted_slice_690, %extracted_slice_696, %extracted_slice_698, %extracted_slice_705, %extracted_slice_731, %extracted_slice_738, %extracted_slice_740, %extracted_slice_746, %extracted_slice_762, %extracted_slice_768, %extracted_slice_784, %extracted_slice_790, %extracted_slice_806, %extracted_slice_812, %extracted_slice_828, %extracted_slice_834, %extracted_slice_850, %extracted_slice_856, %extracted_slice_872, %extracted_slice_878, %extracted_slice_894, %extracted_slice_900, %extracted_slice_916, %extracted_slice_922, %extracted_slice_938, %extracted_slice_944, %extracted_slice_960, %extracted_slice_966, %extracted_slice_990, %extracted_slice_996, %extracted_slice_1006, %extracted_slice_1008, %extracted_slice_1010, %extracted_slice_1011, %extracted_slice_1012, %extracted_slice_1013, %extracted_slice_1014, %extracted_slice_1015, %extracted_slice_1016, %extracted_slice_1017, %extracted_slice_1018, %extracted_slice_1019, %extracted_slice_1020, %extracted_slice_1021, %extracted_slice_1022, %extracted_slice_1023, %extracted_slice_1024, %extracted_slice_1025, %extracted_slice_1033, %extracted_slice_1036, %extracted_slice_1061, %extracted_slice_1085, %extracted_slice_1086, %extracted_slice_1087, %extracted_slice_1088, %extracted_slice_1089, %extracted_slice_1090, %extracted_slice_1091, %extracted_slice_1092, %extracted_slice_1093, %extracted_slice_1094, %extracted_slice_1095, %extracted_slice_1096, %extracted_slice_1097, %extracted_slice_1098, %extracted_slice_1099, %extracted_slice_1105, %extracted_slice_1122, %extracted_slice_1128, %extracted_slice_1145, %extracted_slice_1151, %extracted_slice_1168, %extracted_slice_1169, %extracted_slice_1170, %extracted_slice_1171, %extracted_slice_1173, %extracted_slice_1174, %extracted_slice_1176, %extracted_slice_1179, %extracted_slice_1192, %extracted_slice_1193, %extracted_slice_1211, %extracted_slice_1214, %extracted_slice_1227, %extracted_slice_1229, %extracted_slice_1250, %extracted_slice_1253, %extracted_slice_1263, %extracted_slice_1272, %extracted_slice_1275, %extracted_slice_1287, %extracted_slice_1288, %extracted_slice_1289, %extracted_slice_1290, %extracted_slice_1295, %extracted_slice_1296, %extracted_slice_1300, %extracted_slice_1303, %extracted_slice_1318, %extracted_slice_1321, %extracted_slice_1322, %12, %18, %23, %29, %35, %41, %47, %52, %56, %expanded, %113, %114, %131, %expanded_1360, %167, %168, %169, %170, %171, %172, %174, %175, %expanded_1438, %185, %186, %expanded_1448, %196, %197, %expanded_1458, %207, %208, %expanded_1468, %218, %219, %expanded_1478, %229, %230, %expanded_1488, %expanded_1490, %240, %241, %243, %244, %expanded_1504, %expanded_1506, %expanded_1508, %257, %258, %259, %260, %261, %262, %263, %264, %265, %266, %267, %268, %expanded_1510, %286, %300, %314, %328, %342, %356, %370, %384, %398, %412, %426, %440, %454, %468, %482, %496, %510, %524, %538, %552, %566, %580, %594, %608, %622, %636, %650, %664, %678, %692, %706, %720, %734, %748, %762, %776, %790, %804, %818, %832, %expanded_1672, %expanded_1674, %842, %843, %844, %845, %846, %847, %848, %849, %850, %851, %852, %853, %854, %855, %856, %857, %858, %859, %860, %861, %862, %863, %864, %865, %866, %867, %868, %872, %876, %880, %884, %888, %892 : tensor<?x4xf32>, tensor<?x4xf32>, tensor<?x4xf32>, tensor<?x4xf32>, tensor<?x4xf32>, tensor<?x4xf32>, tensor<?x4xf32>, tensor<?x4xf32>, tensor<?x4xf32>, tensor<?x4xf32>, tensor<?x4xf32>, tensor<?x4xf32>, tensor<?x4xf32>, tensor<?x4xf32>, tensor<?x4xf32>, tensor<?x4xf32>, tensor<?x8xf32>, tensor<?x8xf32>, tensor<?x8xf32>, tensor<?x8xf32>, tensor<?x8xf32>, tensor<?x8xf32>, tensor<?x8xf32>, tensor<?x8xf32>, tensor<?x8xf32>, tensor<?x8xf32>, tensor<?x8xf32>, tensor<?x8xf32>, tensor<?x8xf32>, tensor<?x8xf32>, tensor<?x8xf32>, tensor<?x8xf32>, tensor<?x8xf32>, tensor<?x8xf32>, tensor<?x8xf32>, tensor<?x8xf32>, tensor<?x8xf32>, tensor<?x8xf32>, tensor<?x8xf32>, tensor<?x8xf32>, tensor<?x8xf32>, tensor<?x8xf32>, tensor<?x8xf32>, tensor<?x8xf32>, tensor<?x8xf32>, tensor<?x8xf32>, tensor<?x8xf32>, tensor<?x8xf32>, tensor<?x8xf32>, tensor<?x8xf32>, tensor<?x8xf32>, tensor<?x8xf32>, tensor<?x8xf32>, tensor<?x8xf32>, tensor<?x4xf32>, tensor<?x4xf32>, tensor<?x8xf32>, tensor<?x8xf32>, tensor<?x8xf32>, tensor<?x8xf32>, tensor<?x8xf32>, tensor<?x8xf32>, tensor<?x8xf32>, tensor<?x8xf32>, tensor<?x8xf32>, tensor<?x8xf32>, tensor<?x8xf32>, tensor<?x8xf32>, tensor<?x8xf32>, tensor<?x8xf32>, tensor<?x8xf32>, tensor<?x8xf32>, tensor<?x8xf32>, tensor<?x8xf32>, tensor<?x8xf32>, tensor<?x8xf32>, tensor<?x4xf32>, tensor<?x4xf32>, tensor<?x4xf32>, tensor<?x4xf32>, tensor<?x16xf32>, tensor<?x8xf32>, tensor<?x8xf32>, tensor<?x8xf32>, tensor<?x4xf32>, tensor<?x8xf32>, tensor<?x4xf32>, tensor<?x4xf32>, tensor<?x4xf32>, tensor<?x8xf32>, tensor<?x8xf32>, tensor<?x8xf32>, tensor<?x8xf32>, tensor<?x8xf32>, tensor<?x8xf32>, tensor<?x8xf32>, tensor<?x8xf32>, tensor<?x4xf32>, tensor<?x4xf32>, tensor<?x8xf32>, tensor<?x8xf32>, tensor<?x8xf32>, tensor<?x8xf32>, tensor<?x8xf32>, tensor<?x8xf32>, tensor<?x4xf32>, tensor<?x4xf32>, tensor<?x4xf32>, tensor<?x4xf32>, tensor<?x8xf32>, tensor<?x8xf32>, tensor<?x8xf32>, tensor<?x8xf32>, tensor<?x8xf32>, tensor<?x8xf32>, tensor<?x8xf32>, tensor<?x8xf32>, tensor<?x8xf32>, tensor<?x8xf32>, tensor<?x8xf32>, tensor<?x8xf32>, tensor<?x8xf32>, tensor<?x8xf32>, tensor<?x8xf32>, tensor<?x8xf32>, tensor<?x48xf32>, tensor<?x48xf32>, tensor<?x4xf32>, tensor<?x4xf32>, tensor<?x4xf32>, tensor<?x4xf32>, tensor<?x4xf32>, tensor<?x4xf32>, tensor<?x4xf32>, tensor<?x4xf32>, tensor<?x4xf32>, tensor<?x4xf32>, tensor<?x4xf32>, tensor<?x4xf32>, tensor<?x4xf32>, tensor<?x4xf32>, tensor<?x4xf32>, tensor<?x4xf32>, tensor<?x4xf32>, tensor<?x4xf32>, tensor<?x4xf32>, tensor<?x8xf32>, tensor<?x4xf32>, tensor<?x4xf32>, tensor<?x8xf32>, tensor<?x4xf32>, tensor<?x8xf32>, tensor<?x8xf32>, tensor<?x4xf32>, tensor<?x8xf32>, tensor<?x4xf32>, tensor<?x8xf32>, tensor<?x8xf32>, tensor<?x4xf32>, tensor<?x4xf32>, tensor<?x4xf32>, tensor<?x4xf32>, tensor<?x4xf32>, tensor<?x4xf32>, tensor<?x4xf32>, tensor<?x8xf32>, tensor<?x4xf32>, tensor<?x8xf32>, tensor<?x4xf32>, tensor<?x8xf32>, tensor<?x4xf32>, tensor<?x8xf32>, tensor<?x4xf32>, tensor<?x8xf32>, tensor<?x4xf32>, tensor<?x8xf32>, tensor<?x4xf32>, tensor<?x8xf32>, tensor<?x4xf32>, tensor<?x8xf32>, tensor<?x4xf32>, tensor<?x8xf32>, tensor<?x4xf32>, tensor<?x8xf32>, tensor<?x4xf32>, tensor<?x8xf32>, tensor<?x8xf32>, tensor<?x8xf32>, tensor<?x8xf32>, tensor<?x64xf32>, tensor<?x64xf32>, tensor<?x8xf32>, tensor<?x8xf32>, tensor<?x8xf32>, tensor<?x8xf32>, tensor<?x8xf32>, tensor<?x8xf32>, tensor<?x8xf32>, tensor<?x16xf32>, tensor<?x16xf32>, tensor<?x16xf32>, tensor<?x16xf32>, tensor<?x16xf32>, tensor<?x16xf32>, tensor<?x16xf32>, tensor<?x16xf32>, tensor<?x8xf32>, tensor<?x8xf32>, tensor<?x8xf32>, tensor<?x32xf32>, tensor<?x16xf32>, tensor<?x48xf32>, tensor<?x32xf32>, tensor<?x16xf32>, tensor<?x48xf32>, tensor<?x32xf32>, tensor<?x16xf32>, tensor<?x4xf32>, tensor<?x4xf32>, tensor<?x4xf32>, tensor<?x4xf32>, tensor<?x48xf32>, tensor<?x16xf32>, tensor<?x16xf32>, tensor<?x8xf32>, tensor<?x16xf32>, tensor<?x16xf32>, tensor<?x16xf32>, tensor<?x16xf32>, tensor<?x32xf32>, tensor<?x32xf32>, tensor<?x32xf32>, tensor<?x32xf32>, tensor<?x96xf32>, tensor<?x128xf32>, tensor<?x16xf32>, tensor<?x4xf32>, tensor<?x8xf32>, tensor<?x4xf32>, tensor<?x16xf32>, tensor<?x16xf32>, tensor<?x8xf32>, tensor<?x16xf32>, tensor<?x32xf32>, tensor<?x180xf32>, tensor<?x128xf32>, tensor<?x32xf32>, tensor<?x16xf32>, tensor<?x128xf32>, tensor<?x32xf32>, tensor<?x96xf32>, tensor<?x128xf32>, tensor<?x8xf32>, tensor<?x8xf32>, tensor<?x32xf32>, tensor<?x32xf32>, tensor<?x128xf32>, tensor<?x32xf32>, tensor<?x128xf32>, tensor<?x64xf32>, tensor<?x64xf32>, tensor<?x64xf32>, tensor<?x64xf32>, tensor<?x64xf32>, tensor<?x96xf32>, tensor<?x128xf32>, tensor<?x128xf32>, tensor<?x128xf32>, tensor<?x1x250xf32>, tensor<?x76xf32>, tensor<?x48xf32>, tensor<?x167xf32>, tensor<?x1xf32>, tensor<?x11x16xf32>, tensor<?x13x16xf32>, tensor<?x11x16xf32>, tensor<?x8x16xf32>, tensor<?x13x16xf32>, tensor<?x8x16xf32>, tensor<?x16x16xf32>, tensor<?x16x16xf32>, tensor<?x1x68xf32>, tensor<?x16x16xf32>, tensor<?x16x16xf32>, tensor<?x1x64xf32>, tensor<?x6x16xf32>, tensor<?x6x16xf32>, tensor<?x1x88xf32>, tensor<?x31x16xf32>, tensor<?x31x16xf32>, tensor<?x1x128xf32>, tensor<?x33x16xf32>, tensor<?x33x16xf32>, tensor<?x1x104xf32>, tensor<?x16x16xf32>, tensor<?x16x16xf32>, tensor<?x1x116xf32>, tensor<?x1x124xf32>, tensor<?x26x16xf32>, tensor<?x26x16xf32>, tensor<?x26x16xf32>, tensor<?x26x16xf32>, tensor<?x1x124xf32>, tensor<?x1x88xf32>, tensor<?x1x128xf32>, tensor<?x32xf32>, tensor<?x32xf32>, tensor<?x64xf32>, tensor<?x32xf32>, tensor<?x64xf32>, tensor<?x32xf32>, tensor<?x64xf32>, tensor<?x32xf32>, tensor<?x64xf32>, tensor<?x32xf32>, tensor<?x32xf32>, tensor<?x32xf32>, tensor<?x1x116xf32>, tensor<?x1x58xf32>, tensor<?x1x58xf32>, tensor<?x1x32xf32>, tensor<?x1x32xf32>, tensor<?x1x19xf32>, tensor<?x1x19xf32>, tensor<?x1x88xf32>, tensor<?x1x88xf32>, tensor<?x1x75xf32>, tensor<?x1x75xf32>, tensor<?x1x41xf32>, tensor<?x1x41xf32>, tensor<?x1x24xf32>, tensor<?x1x24xf32>, tensor<?x1x128xf32>, tensor<?x1x128xf32>, tensor<?x1x67xf32>, tensor<?x1x67xf32>, tensor<?x1x37xf32>, tensor<?x1x37xf32>, tensor<?x1x21xf32>, tensor<?x1x21xf32>, tensor<?x1x116xf32>, tensor<?x1x116xf32>, tensor<?x1x72xf32>, tensor<?x1x72xf32>, tensor<?x1x40xf32>, tensor<?x1x40xf32>, tensor<?x1x23xf32>, tensor<?x1x23xf32>, tensor<?x1x124xf32>, tensor<?x1x124xf32>, tensor<?x1x72xf32>, tensor<?x1x72xf32>, tensor<?x1x40xf32>, tensor<?x1x40xf32>, tensor<?x1x23xf32>, tensor<?x1x23xf32>, tensor<?x1x124xf32>, tensor<?x1x124xf32>, tensor<?x1x124xf32>, tensor<?x1x124xf32>, tensor<?x32xf32>, tensor<?x32xf32>, tensor<?x32xf32>, tensor<?x32xf32>, tensor<?x32xf32>, tensor<?x64xf32>, tensor<?x48xf32>, tensor<?x24xf32>, tensor<?x12xf32>, tensor<?x48xf32>, tensor<?x24xf32>, tensor<?x12xf32>, tensor<?x64xf32>, tensor<?x64xf32>, tensor<?x32xf32>, tensor<?x32xf32>, tensor<?x16xf32>, tensor<?x8xf32>, tensor<?x64xf32>, tensor<?x32xf32>, tensor<?x16xf32>, tensor<?x8xf32>, tensor<?x64xf32>, tensor<?x32xf32>, tensor<?x16xf32>, tensor<?x8xf32>, tensor<?x64xf32>, tensor<?x160xf32>, tensor<?x160xf32>, tensor<?x192xf32>, tensor<?x192xf32>, tensor<?x160xf32>, tensor<?x160xf32>
  }
}

